p1_navigation/model.pth (torch, 29207 bytes, 6 tensors)

fc1.weight f4 [64, 37]
-0.07927552 0.11802949 -0.13767596 -0.16829802 -0.016110133 0.083005 -0.1534337 0.2807997
0.023124842 -0.257149 0.17220062 -0.22493039 -0.25378758 -0.17337938 -0.27101362 -0.3059856
0.12431646 0.1341816 -0.01703616 0.0037661523 0.12665066 0.21148477 -0.10338085 -0.10044024
0.16755015 -0.33534643 0.076451935 0.101717 0.02206406 -0.054140236 -0.2546646 0.20577759
-0.03381196 0.10553851 0.24876226 -0.11389549 -0.06113901 0.18769762 -0.02515569 0.16743033
0.11476961 0.08103944 0.10713182 -0.28696838 -0.186187 -0.26636866 -0.28208533 0.060389
0.097537436 -0.024951579 0.07327503 0.23334867 0.09133517 0.030560145 0.016649302 0.10983569
0.118492015 -0.111766964 -0.1206972 -0.018864525 -0.040590886 0.14206934 -0.17222589 0.049106497
0.10789083 0.1838397 0.38510305 -0.02582782 0.06908184 0.2029275 0.09534181 0.32319215
-0.06868788 0.03161529 -0.019146446 0.21272735 0.034025475 0.14633761 0.2828098 -0.6836944
-0.030577065 0.27852973 0.19207796 -0.25449732 0.0357165 -0.22105694 0.13929296 -0.10562456
-0.023057166 -0.09875155 0.14990407 -0.0039127264 0.33907148 -0.14329886 -0.06265325 -0.16498567
0.19597419 -0.30734006 -0.2878901 -0.123088814 0.17093857 0.22791743 -0.15664275 0.13958573
-0.40171087 0.02755153 0.005391182 -0.08342623 0.00913636 -0.0027387643 -0.01642387 -0.2311477
0.07165669 0.23182848 -0.023240604 -0.2576086 -0.15638982 0.0071924636 0.3199914 -0.50407887
0.18758693 0.13764188 -0.3150956 0.1058584 -0.6849311 -0.33508626 0.09586026 -0.34053448
-0.021908987 -0.52397597 -0.16695341 -0.14392541 0.021072706 0.11727255 -0.051399156 -0.015798561
0.1410702 -0.108070865 0.089521214 -0.42999962 0.2564141 0.11387295 0.17392205 0.06924276
-0.30025122 -0.3910977 0.31582543 -0.05028506 -0.073133714 -0.1663383 0.015040313 -0.17060941
0.1037752 0.29030168 -0.12748972 -0.574656 -0.20354016 -0.9325889 -0.0988281 0.06789377
0.021539014 0.093933724 -0.101218686 -0.1978238 0.03674547 0.03791338 0.09871912 0.057050977
-0.2423279 -0.08379155 0.2180325 -0.0004378247 0.14937988 0.09119371 0.02560478 -0.06945036
0.137292 0.3355027 0.08807104 -0.078958146 0.10664045 0.22926122 0.2728785 0.013000527
0.0040507154 0.018239252 -0.122903734 0.0042154575 -0.083066516 -0.05861369 0.30473167 -0.39205757
-0.3381885 -0.17931117 -1.3065032 -0.13727568 -0.10129407 0.008572268 0.021549331 -0.10079672
-0.005636716 0.049375482 -0.06905445 -0.13397326 -0.106975235 0.06638963 0.124423616 -0.005439412
0.096904114 0.17879513 -0.09622389 -0.016999729 0.064955235 0.0033542872 -0.026327848 -0.02525057
-0.16878839 -0.05090442 0.12226548 -0.1415036 -0.038135752 0.054637138 0.18668158 -0.13552713
-0.0036025525 -0.07182526 -0.1024886 -0.4430615 -0.07921396 0.09121629 0.18089193 -0.00071508903
-0.038531274 0.16205007 0.10776294 0.03879366 0.060657304 -0.19452661 0.10278242 -0.06813989
-0.04076897 0.15012361 -0.1542985 0.07249993 -0.012246566 -0.10853857 0.23370568 -0.23715921
0.07208076 -0.31901968 -0.28943503 0.052220285 0.4265119 -0.42937025 -0.17162456 -0.13784851
00000000: 345b a2bd 72b9 f13d edfa 0cbe 5156 2cbe
00000010: 66f9 83bc 87fe a93d b91d 1dbe fac4 8f3e
00000020: 4f70 bd3c 09a9 83be 5c55 303e 2754 66be
00000030: 72f0 81be 5d8a 31be 4cc2 8abe 25aa 9cbe
00000040: a199 fe3d e766 093e 6b8f 8bbc 8dd1 763b
00000050: b6b0 013e 778f 583e 57b9 d3bd 9db3 cdbd
00000060: 4492 2b3e 87b2 abbe d592 9c3d 0151 d03d
00000070: b0bf b43c 27c2 5dbd 6663 82be 5cb7 523e
00000080: 697e 0abd 9324 d83d 89bb 7e3e 0a42 e9bd
00000090: e66c 7abd ce33 403e 4e13 cebc db72 2b3e
000000a0: 540c eb3d 02f8 a53d ed67 db3d 85ed 92be
000000b0: cea7 3ebe 7961 88be 7d6d 90be 755a 773d
000000c0: b5c1 c73d 4167 ccbc 3811 963d f4f2 6e3e
000000d0: ef0d bb3d 4559 fa3c 1e64 883c 89f1 e03d
000000e0: f1ab f23d 14e6 e4bd 1830 f7bd c789 9abc
000000f0: a142 26bd a07a 113e fc5b 30be e523 493d
00000100: def5 dc3d 7940 3c3e 3a2c c53e dd94 d3bc
00000110: c87a 8d3d 3acc 4f3e 9142 c33d 7179 a53e
00000120: 3bac 8cbd 097f 013d 02d9 9cbc 33d5 593e
00000130: 4c5e 0b3d 87d9 153e 72cc 903e 9906 2fbf
00000140: c17c fabc 739b 8e3e 16b0 443e 794d 82be
00000150: 774b 123d c05c 62be d0a2 0e3e b051 d8bd
00000160: 62e2 bcbc 413e cabd 7480 193e 5436 80bb
00000170: c79a ad3e f0bc 12be 5950 80bd 01f2 28be
00000180: 75ad 483e ad5b 9dbe 5566 93be fd15 fcbd
00000190: 850a 2f3e 3063 693e f566 20be 90ef 0e3e
000001a0: 0cad cdbe bfb3 e13c 83a8 b03b 5fdb aabd
000001b0: acb0 153c d77c 33bb 5a8b 86bc fcb1 6cbe
000001c0: bec0 923d 7264 6d3e 1463 bebc 46e5 83be
000001d0: a724 20be c2ae eb3b ead5 a33e 500b 01bf
000001e0: ca16 403e fef1 0c3e 3654 a1be 4acc d83d
000001f0: a557 2fbf 6d90 abbe 6252 c43d 895a aebe
00000200: 7a7a b3bc 4a23 06bf d6f5 2abe 2f61 13be
00000210: aba0 ac3c 972c f03d ec87 52bd fc6b 81bc
00000220: b574 103e 4254 ddbd e656 b73d e928 dcbe
00000230: b548 833e 3936 e93d 9f18 323e 26cf 8d3d
00000240: 87ba 99be f53d c8be dfb3 a13e b5f7 4dbd
00000250: 21c7 95bd 9654 2abe a56b 763c 3cb4 2ebe
00000260: 1888 d43d 6ca2 943e aa8c 02be a81c 13bf
00000270: d56c 50be 25be 6ebf 6366 cabd e40b 8b3d
00000280: 9672 b03c 5360 c03d be4b cfbd 5292 4abe
00000290: 6b82 163d 0f4b 1b3d 402d ca3d 49ae 693d
000002a0: ce24 78be e79a abbd e943 5f3e d68b e5b9
000002b0: 0af7 183e c5c3 ba3d 1ec1 d13c fe3b 8ebd
000002c0: 4696 0c3e 03c7 ab3e 975e b43d cfb4 a1bd
000002d0: 4f66 da3d 74c3 6a3e bbb6 8b3e 2a00 553c
000002e0: ddbb 843b 7c6a 953c f4b4 fbbd d221 8a3b
000002f0: c71e aabd e914 70bd ca05 9c3e c5bb c8be
00000300: 0b27 adbe 599d 37be 7f3b a7bf ff91 0cbe
00000310: 4473 cfbd b372 0c3c 3988 b03c 836e cebd
00000320: 33b4 b8bb f23d 4a3d 6b6c 8dbd 4930 09be
00000330: d515 dbbd 49f7 873d cfd1 fe3d 183d b2bb
00000340: aa75 c63d 1216 373e 0811 c5bd 0443 8bbc
00000350: 4007 853d 9ad3 5b3b 80ad d7bc 49da cebc
00000360: ddd6 2cbe 2781 50bd 5366 fa3d 52e6 10be
00000370: 3c34 1cbd 31cb 5f3d 7529 3f3e a0c7 0abe
00000380: cd18 6cbb 1f19 93bd 8be5 d1bd f5d8 e2be
00000390: ee3a a2bd 9bcf ba3d bc3b 393e d074 3bba
000003a0: f8d2 1dbd 74f0 253e d1b2 dc3d 1ae6 1e3d
000003b0: cb73 783d fc31 47be 977f d23d ed8c 8bbd
000003c0: 5dfd 26bd 01ba 193e 6d00 1ebe d87a 943d
000003d0: d2a5 48bc 7849 debd 8b50 6f3e ddd9 72be
000003e0: 149f 933d 8c56 a3be d430 94be f0e4 553d
000003f0: c55f da3e 6bd6 dbbe 59be 2fbe 2928 0dbe

fc1.bias f4 [64]
0.12617163 -0.023264475 -0.122595474 -0.03894819 0.19011672 -0.06374064 -0.05107649 0.061232097
0.002637117 -0.10896319 0.20177291 0.12952058 0.082772166 0.12282653 -0.051679894 -0.09223601
0.020888358 0.033840004 0.02410849 -0.1594667 -0.015015856 0.056891646 0.0032342195 -0.13752113
-0.14082299 0.17882152 0.009425001 -0.005527386 0.22040378 0.17028646 0.0014718645 -0.14185773
0.12287143 0.013977155 -0.13306314 0.11199737 -0.14979854 0.005666396 -0.024306921 -0.15083006
-0.06423589 0.016816424 0.007884215 0.17433861 0.0012696119 -0.07318125 0.04781168 -0.11887601
-0.091373436 0.010302367 -0.13952257 0.104821235 -0.10039843 -0.116564475 -0.2317409 0.017195629
0.17470697 -0.08494991 -0.074612565 -0.13024977 -0.10116063 0.08214353 -0.003448651 0.0107121235
00000000: 2333 013e 2495 bebc 5613 fbbd 2388 1fbd
00000010: f5ad 423e 748a 82bd 9535 51bd 82ce 7a3d
00000020: 7bd3 2c3b 1828 dfbd 8f9d 4e3e 0ba1 043e
00000030: 7484 a93d 7a8c fb3d 4cae 53bd 3ce6 bcbd
00000040: 101e ab3c d19b 0a3d 2b7f c53c 3d4b 23be
00000050: 1105 76bc 3707 693d 33f5 533b 57d2 0cbe
00000060: e733 10be fd1c 373e 526b 1a3c 131f b5bb
00000070: 87b1 613e 935f 2e3e 94eb c03a 2743 11be
00000080: 04a4 fb3d 7000 653c b441 08be e15e e53d
00000090: ca64 19be 2dad b93b 4f1f c7bc 3273 1abe
000000a0: 1b8e 83bd 99c2 893c cb2c 013c d285 323e
000000b0: 1b69 a63a 0de0 95bd 2ed6 433d 4475 f3bd
000000c0: ff21 bbbd 42cb 283c 01df 0ebe 84ac d63d
000000d0: b19d cdbd 5bb9 eebd 7d4d 6dbe d9dd 8c3c
000000e0: 62e6 323e 38fa adbd 79ce 98bd 3260 05be
000000f0: 4e2d cfbd de3a a83d c302 62bb e781 2f3c

fc2.weight f4 [64, 64]
-0.14716007 -0.01572128 0.10504538 -0.07680305 0.16455746 -0.30291617 -0.30171713 -0.06205614
0.16754249 0.05423234 -0.09364594 -0.07844918 -0.04185358 0.20313118 0.12756251 -0.11208717
-0.028527759 -0.19271392 -0.11698232 -0.16291195 -0.2722626 0.06748041 -0.060738765 -0.16367187
-0.09839373 0.035630424 0.43029743 0.013484545 0.14150964 -0.1412579 0.021950217 -0.3331601
0.058605812 -0.11152153 0.14094798 0.02236368 0.0631281 -0.041679 -0.13399105 -0.28055814
0.17672537 0.108648606 -0.37349486 -0.2472635 0.025816197 0.01778999 -0.22217418 0.1434155
0.023446973 -0.39881587 -0.04412153 -0.16153727 0.007112283 -0.15241058 0.019410433 0.031486936
-0.5903069 -0.04447696 -0.29368582 -0.017846817 0.24642977 0.089549884 -0.12020906 0.038291603
0.2715934 0.08299283 -0.42763925 0.11836338 0.12626885 0.10157203 -0.045389727 0.010989142
-0.021739764 -0.15951966 -0.03625268 0.15690763 -0.062455762 0.030546516 0.023942355 0.1714281
0.09205707 0.08077148 0.17655781 0.06924202 -0.035762638 -0.42014948 -0.04766951 0.0021328074
0.04666078 0.1659968 -0.19715498 0.1344071 0.17382215 -0.11795364 0.014755986 -0.026532741
-0.1251548 -0.022547198 -0.041760504 -0.13043289 -0.09734526 0.027558576 0.16171788 -0.11719837
-0.31025445 -0.03024461 -0.055445805 -0.117541194 -0.1792737 -0.11383329 -0.17351963 -0.15010926
-0.117540985 0.033553842 -0.042256854 0.08925886 -0.11877328 0.020031976 -0.11922162 0.052358907
-0.17838672 -0.043959755 0.20947075 -0.018804729 -0.20491673 0.06734358 0.016497003 0.07131394
-0.06879035 -0.056820188 0.012719806 -0.0754223 0.17051037 0.10510737 0.15567319 -0.07271684
0.21185155 -0.06803881 -0.0009291141 0.0952686 0.25994226 0.16284287 0.103948474 -0.00564168
-0.11884305 0.12865831 0.060083836 -0.058523327 -0.117063135 0.067930676 -0.16187389 0.09368097
0.021551793 0.1613173 -0.048083626 0.35083634 0.11285078 0.14795251 -0.05170737 0.006632119
-0.10378854 0.085643165 0.047058176 0.12662329 0.35673133 -0.07123228 0.0309499 0.08222866
0.23583479 -0.14647228 -0.21629131 -0.20460665 -0.0016065376 0.0051808367 -0.020394696 -0.16826059
-0.02480518 -0.03373564 -0.09810126 0.06971482 -0.11573366 0.009411037 -0.14975524 -0.069556035
-0.17660846 -0.15289082 0.21023072 0.06723622 -0.085657105 0.15640742 0.014235826 0.029342413
-0.12416672 -0.09454568 0.14552292 0.006845257 -0.035859834 0.04489983 -0.22198935 -0.060470175
-0.18180965 -0.0928589 0.023433361 0.2025236 0.0032558169 0.20276423 -0.105307356 -0.31414497
0.040113207 0.0148566635 0.12215411 -0.12805869 0.06258507 0.11517038 0.13203037 0.023046391
0.08527015 0.19316955 0.045529474 0.17506333 0.12706856 0.055637076 0.034409136 -0.041156214
-0.025645798 0.111292206 0.20196252 0.118603304 -0.2838129 0.18181127 0.3460268 0.2703143
-0.12585782 -0.019727666 0.08685049 -0.16927165 -0.1182313 0.07672256 0.108398706 0.03428046
-0.04253549 -0.11572586 -0.22564043 0.033635266 0.004878684 0.2006746 -0.4669775 0.018262548
0.011283538 -0.063457295 -0.015029326 -0.36987534 -0.1455047 0.12191792 -0.17146517 0.061942823
00000000: 21b1 16be eac9 80bc 0822 d73d eb4a 9dbd
00000010: c081 283e d417 9bbe ab7a 9abe 942e 7ebd
00000020: 4290 2b3e bb22 5e3d 71c9 bfbd f7a9 a0bd
00000030: a96e 2bbd 9f01 503e bf9f 023e f58d e5bd
00000040: 0cb3 e9bc cc56 45be 6d94 efbd 64d2 26be
00000050: 0166 8bbe 2b33 8a3d 36c9 78bd 9999 27be
00000060: a782 c9bd 35f1 113d f24f dc3e 48ee 5c3c
00000070: e7e7 103e e9a5 10be f1d0 b33c f693 aabe
00000080: a60c 703d 6665 e4bd ab54 103e 0934 b73c
00000090: 4e49 813d 99b7 2abd f334 09be 51a5 8fbe
000000a0: 7ff7 343e 2983 de3d b83a bfbe a532 7dbe
000000b0: 7d7c d33c 50bc 913c a181 63be 83db 123e
000000c0: de13 c03c 9831 ccbe c7b8 34bd 076a 25be
000000d0: 270e e93b 8511 1cbe a102 9f3c 72f8 003d
000000e0: 5a1e 17bf 792d 36bd fd5d 96be 7d33 92bc
000000f0: 1658 7c3e ee65 b73d 2b30 f6bd a8d7 1c3d
00000100: 4a0e 8b3e 25f8 a93d 88f3 dabe 8068 f23d
00000110: 9f4c 013e ff04 d03d 94ea 39bd cd0b 343c
00000120: 9717 b2bc 1f59 23be b17d 14bd 65ac 203e
00000130: 9dd1 7fbd b03c fa3c c222 c43c d98a 2f3e
00000140: 6b88 bc3d 856b a53d 92cb 343e c3ce 8d3d
00000150: d87b 12bd d51d d7be 1b41 43bd 92c6 0b3b
00000160: 601f 3f3d 11fb 293e ffe2 49be 04a2 093e
00000170: 6ffe 313e ae91 f1bd 17c3 713c 315b d9bc
00000180: 9428 00be e7b4 b8bc 100d 2bbd 3390 05be
00000190: f45c c7bd 86c2 e13c 5f99 253e b305 f0bd
000001a0: acd9 9ebe 8bc3 f7bc 241b 63bd 70b9 f0bd
000001b0: 8693 37be 6e21 e9bd 21af 31be 3eb6 19be
000001c0: 54b9 f0bd c16f 093d 8615 2dbd 59cd b63d
000001d0: 683f f3bd 191a a43c 772a f4bd 4b76 563d
000001e0: 02ab 36be 250f 34bd 807f 563e 600c 9abc
000001f0: b1d5 51be 6eeb 893d b924 873c 0b0d 923d
00000200: f4e1 8cbd 49bc 68bd bc66 503c 0277 9abd
00000210: 459a 2e3e 8842 d73d cb68 1f3e 91ec 94bd
00000220: 9def 583e ee57 8bbd cb8f 73ba 2f1c c33d
00000230: 2717 853e 48c0 263e f0e2 d43d d8dd b8bb
00000240: fc63 f3bd 01bf 033e 781a 763d 28b6 6fbd
00000250: ccbe efbd 3d1f 8b3d 45c2 25be cfdb bf3d
00000260: 638d b03c 5d30 253e 56f3 44bd d2a0 b33e
00000270: 4f1e e73d dd80 173e 1bcb 53bd 3f52 d93b
00000280: 168f d4bd af65 af3d 13c0 403d 89a9 013e
00000290: 7da5 b63e 3be2 91bd a58a fd3c 8067 a83d
000002a0: ad7e 713e d4fc 15be 787b 5dbe 6884 51be
000002b0: 7592 d2ba 02c4 a93b c712 a7bc 814c 2cbe
000002c0: 3c34 cbbc 622e 0abd 50e9 c8bd a5c6 8e3d
000002d0: c505 edbd c030 1a3c 7059 19be 6573 8ebd
000002e0: d9d8 34be 698f 1cbe b946 573e 25b3 893d
000002f0: fe6c afbd 4429 203e 623d 693c 805f f03c
00000300: 1f4b febd 2aa1 c1bd f603 153e 2d4e e03b
00000310: c3e1 12bd e2e8 373d 2d51 63be 93af 77bd
00000320: 4f2c 3abe cf2c bebd 52f7 bf3c 5962 4f3e
00000330: 8b5f 553b 6da1 4f3e 62ab d7bd 9cd7 a0be
00000340: bf4d 243d 5d69 733c ef2b fa3d d121 03be
00000350: 9a2c 803d 73de eb3d f832 073e c9cb bc3c
00000360: 1ea2 ae3d 3dce 453e 1d7d 3a3d cd43 333e
00000370: 431e 023e b4e3 633d 98f0 0c3d 6b93 28bd
00000380: 2317 d2bc 2bed e33d 43cf 4e3e 4ae6 f23d
00000390: ed4f 91be bc2c 3a3e 6d2a b13e a366 8a3e
000003a0: dfe0 00be ea9b a1bc abde b13d 8c55 2dbe
000003b0: 4023 f2bd b820 9d3d 2400 de3d ab69 0c3d
000003c0: b239 2ebd ae01 edbd 490e 67be 22c5 093d
000003d0: 5edd 9f3b a47d 4d3e ad17 efbe 579b 953c
000003e0: 97de 383c e6f5 81bd 903d 76bc 4d60 bdbe
000003f0: 2fff 14be 1ab0 f93d 9194 2fbe c2b7 7d3d

fc2.bias f4 [64]
-0.014609706 0.01400406 0.15033603 -0.04643059 0.14709134 -0.22873665 -0.02011881 0.06974038
0.040573943 0.091371454 0.10775955 0.18712448 0.015279947 -0.10601327 -0.041752383 0.075591
-0.04380392 0.103548855 -0.09762523 0.12391756 0.3665877 0.21605968 -0.049513076 -0.03153451
-0.2590819 -0.12830564 0.1304581 -0.15539564 0.06094015 0.40742323 0.09945985 -0.076920085
0.04615227 0.26037768 0.043420304 -0.10412311 0.04147865 -0.14824493 -0.01153247 0.060160264
-0.119320706 0.26248616 0.14599651 -0.016248869 0.15002614 -0.11572043 0.29503903 -0.09082391
0.013167318 -0.033498075 -0.116528854 0.36470485 -0.009830185 -0.081835866 0.022564033 -0.2310817
-0.1169591 -0.13108008 0.24400374 0.09816441 0.12645121 0.3734525 0.043771703 -0.15881512
00000000: 8c5d 6fbc 4971 653c b0f1 193e 012e 3ebd
00000010: 1d9f 163e f139 6abe 34d0 a4bc 0bd4 8e3d
00000020: dd30 263d f520 bb3d 0ab1 dc3d 8f9d 3f3e
00000030: be58 7a3c 7c1d d9bd 8c04 2bbd 74cf 9a3d
00000040: bd6b 33bd 6c11 d43d bdef c7bd 7dc8 fd3d
00000050: 62b1 bb3e c03e 5d3e 39ce 4abd 552a 01bd
00000060: 62a6 84be 8e62 03be cf96 053e 0920 1fbe
00000070: 619c 793d c799 d03e 9bb1 cb3d 4788 9dbd
00000080: 2a0a 3d3d 3950 853e 7dd9 313d 7f3e d5bd
00000090: 84e5 293d 85cd 17be aff2 3cbc 9c6a 763d
000000a0: 6a5e f4bd 9664 863e 1c80 153e 591c 85bc
000000b0: 74a0 193e d5fe ecbd 5b0f 973e e301 babd
000000c0: bcbb 573c 4735 09bd aea6 eebd 98ba ba3e
000000d0: c90e 21bc 9099 a7bd 35d8 b83c aea0 6cbe
000000e0: 4188 efbd db39 06be 1edc 793e 6c0a c93d
000000f0: 6d7c 013e 2b35 bf3e f549 333d 6ea0 22be

fc3.weight f4 [4, 64]
0.23014317 0.13663407 0.17055142 -0.14853595 0.048177402 -0.12976652 0.3927539 -0.23651922
0.12729333 -0.039158065 0.020202471 0.2456948 -0.122071385 -0.073470056 -0.21890749 0.034450185
-0.0322976 0.055316247 -0.18364254 0.115482405 0.13499121 0.07050132 0.04779219 -0.65957725
-0.18749118 -0.103640065 0.08582419 -0.17391811 0.01455831 0.14482597 -0.29100162 0.12773831
0.12492826 0.14183143 0.029998258 0.018250506 0.14852713 -0.07672533 0.25742427 0.19262996
0.32069004 0.13883644 0.24602346 -0.0032829219 0.11604286 0.022138732 0.12752132 0.3029332
0.40784773 0.23365043 -0.14434141 0.16642453 0.24985644 -0.28396854 0.23135883 0.2382244
-0.15677103 0.04713555 0.11173693 0.05419549 -0.4123692 0.15686733 0.053603545 0.06129949
0.16765147 0.08173195 0.11091563 -0.09149851 0.16584599 -0.26788267 0.19689575 -0.05080466
-0.030783502 -0.19997032 0.07641816 0.24973673 -0.24824081 0.150324 -0.099743724 0.061912186
-0.098997414 0.23771298 0.008208078 0.11176292 0.07857156 0.17392683 -0.19339594 0.2673494
-0.1927601 -0.12837768 0.24568607 -0.06883137 0.1695841 0.1958301 0.26734176 -0.020607945
-0.09982906 -0.025722336 0.14226219 -0.014634567 0.12043898 -0.14946756 0.4124957 0.17621642
0.32308295 0.11939073 0.1129038 0.48830122 0.048054654 -0.096108854 0.17571425 0.060798194
0.3795827 0.16201182 -0.22155032 0.12626894 0.38838595 -0.0692903 0.18926883 0.23903894
-0.21928135 -0.29728413 0.16645567 -0.10247592 -0.2831793 0.08753892 -0.24043132 -0.12082939
0.109368265 0.1389025 0.19018765 -0.23187591 0.08070083 -0.03910301 0.46272668 0.05256137
-0.013624443 -0.16966769 -0.018559054 0.24743149 -0.19711293 -0.11543293 0.0645611 0.048502672
0.075457275 -0.24745946 -0.28238004 -0.28367826 0.08413636 0.25063512 -0.22413886 -0.1633568
-0.24429864 -0.22923104 0.22254936 0.03461962 0.1838133 0.21141297 -0.23825072 -0.19426435
-0.4319016 0.05656646 0.24570319 0.10573174 0.13922778 -0.06335434 0.23404619 0.11669669
-0.04062797 0.27540192 0.22706677 -0.03720624 -0.33186036 -0.016348835 0.13076344 0.40709847
0.19428144 0.013974006 -0.1195928 0.24636617 -0.23965254 -0.015201848 0.22672898 0.49496076
-0.042831115 0.13155265 0.16465878 -0.309042 -0.16383111 0.18168831 -0.101308085 -0.34707177
0.1893109 0.19752903 -0.03231675 -0.13639309 -0.15798742 -0.31514627 -0.019331641 0.058635004
0.37092146 0.26690677 0.20862184 0.2536217 -0.16215335 -0.26798826 -0.018264472 -0.24067762
0.11740197 0.16498752 0.1559239 -0.03231993 0.1811203 0.27005595 0.23384435 0.1664878
-0.21319987 -0.09847095 0.17090844 -0.124018095 -0.098981984 0.08605907 0.12748262 -0.009258709
-0.033470694 0.12670295 -0.106998205 0.007896498 -0.08018498 0.012108526 0.30332783 0.015107355
-0.12707023 0.37288097 0.14231007 -0.050010618 0.39300346 -0.39642727 0.17173332 -0.010197201
0.30911466 -0.031500306 0.10939582 0.19290458 0.038216587 -0.10215604 -0.018301947 0.12386146
-0.056076415 -0.39474338 0.10456138 0.05001697 -0.23762427 0.17247663 -0.14832847 0.06757425
00000000: a7aa 6b3e cde9 0b3e 08a5 2e3e cf19 18be
00000010: ab55 453d 84e1 04be 0a17 c93e 1832 72be
00000020: 2f59 023e 3564 20bd a77f a53c 6b97 7b3e
00000030: 9000 fabd 7877 96bd 4929 60be a31b 0d3d
00000040: 7d4a 04bd 4a93 623d ca0c 3cbe 0a82 ec3d
00000050: 233b 0a3e ff62 903d bec1 433d 0eda 28bf
00000060: b0fd 3fbe 3e41 d4bd 98c4 af3d 9717 32be
00000070: fa85 6e3c 424d 143e 2afe 94be d5cd 023e
00000080: 63da ff3d 423c 113e e8be f53c 1682 953c
00000090: 7f17 183e 2b22 9dbd 1dcd 833e ca40 453e
000000a0: 7c31 a43e 242b 0e3e 93ed 7b3e 4a26 57bb
000000b0: e1a7 ed3d 495c b53c f394 023e 0f1a 9b3e
000000c0: 6bd1 d03e 0f42 6f3e 3cce 13be 316b 2a3e
000000d0: 5eda 7f3e 5364 91be 54e9 6c3e 19f1 733e
000000e0: 9688 20be 3511 413d 55d6 e43d 17fc 5d3d
000000f0: 0e22 d3be d4a1 203e 648f 5b3d 2d15 7b3d
00000100: d4ac 2b3e 1563 a73d bc27 e33d 9263 bbbd
00000110: 88d3 293e eb27 89be 0a9f 493e 8c18 50bd
00000120: af2d fcbc 05c5 4cbe 2081 9c3d fcba 7f3e
00000130: d732 7ebe 89ee 193e 7046 ccbd a297 7d3d
00000140: 28bf cabd 086b 733e 2d7b 063c f5e3 e43d
00000150: 20ea a03d e019 323e 9609 46be 05e2 883e
00000160: e762 45be 7075 03be 2195 7b3e 76f7 8cbd
00000170: 74a7 2d3e b087 483e 05e1 883e fed1 a8bc
00000180: 2e73 ccbd a6b7 d2bc 2ead 113e d3c5 6fbc
00000190: b6a8 f63d 060e 19be a332 d33e 1472 343e
000001a0: 216b a53e 2183 f43d 1c3a e73d 9e02 fa3e
000001b0: f5d4 443d b8d4 c4bd 70ee 333e 8707 793d
000001c0: aa58 c23e 6de6 253e 16de 62be a54c 013e
000001d0: 86da c63e 13e8 8dbd b0cf 413e a0c6 743e
000001e0: 4a8b 60be a035 98be 5b73 2a3e e5de d1bd
000001f0: e1fc 90be 9b47 b33d a133 76be 6675 f7bd
00000200: 78fc df3d 753c 0e3e 8dc0 423e e170 6dbe
00000210: 7a46 a53d 7a2a 20bd 83ea ec3e 974a 573d
00000220: 0e39 5fbc 5ebd 2dbe 2809 98bc ae5e 7d3e
00000230: f9d7 49be 1a68 ecbd 9c38 843d bdaa 463d
00000240: 5889 9a3d 0366 7dbe 1e94 90be 473e 91be
00000250: af4f ac3d 3f53 803e a884 65be 0147 27be
00000260: 6c29 7abe 8bbb 6abe fbe3 633e 4dcd 0d3d
00000270: 8e39 3c3e a47c 583e fff7 73be 3ced 46be
00000280: 3522 ddbe 3bb2 673d 9e99 7b3e e289 d83d
00000290: ba91 0e3e ecbf 81bd cea9 6f3e adfe ee3d
000002a0: 8469 26bd 7b01 8d3e 3184 683e 9265 18bd
000002b0: 9ae9 a9be feed 85bc dae6 053e 366f d03e
000002c0: b7f1 463e 3bf3 643c 12ed f4bd 6a47 7c3e
000002d0: 7a67 75be 2c11 79bc a42b 683e 7f6b fd3e
000002e0: ae6f 2fbd bdb5 063e 509c 283e c13a 9ebe
000002f0: 58c3 27be 800c 3a3e 9d7a cfbd 64b3 b1be
00000300: b7da 413e 0d45 4a3e 925e 04bd a1aa 0bbe
00000310: 74c7 21be da5a a1be 645d 9ebc 422b 703d
00000320: 6be9 bd3e 01a8 883e f7a0 553e b4da 813e
00000330: 870b 26be c235 89be 609f 95bc 3274 76be
00000340: 7270 f03d 7df2 283e 84aa 1f3e e761 04bd
00000350: 9a77 393e c644 8a3e e574 6f3e c77b 2a3e
00000360: 1151 5abe 23ab c9bd 9f02 2f3e 33fd fdbd
00000370: 11b7 cabd bd3f b03d ce8a 023e d7b1 17bc
00000380: 9118 09bd 6bbe 013e e021 dbbd 5060 013c
00000390: 0638 a4bd d762 463c c94d 9b3e d784 773c
000003a0: b31e 02be 41ea be3e bbb9 113e efd7 4cbd
000003b0: c037 c93e 84f8 cabe dcda 2f3e 2912 27bc
000003c0: 4744 9e3e 7706 01bd ea0a e03d c788 453e
000003d0: ff88 1c3d 3037 d1bd f7ed 95bc 14ab fd3d
000003e0: 62b0 65bd ce1b cabe 4724 d63d 98de 4c3d
000003f0: c753 73be b79d 303e 6be3 17be 5e64 8a3d

fc3.bias f4 [4]
0.3212728 0.22067732 0.20952407 0.16187823
00000000: de7d a43e 3cf9 613e 7a8d 563e 68c3 253e
