p1_navigation/model.pth (torch, 29207 bytes, 6 tensors)

fc1.weight f4 [64, 37]
000000 67 82 1f 3d 54 0d e7 3d 30 7a 6c be 4c 83 89 be
       0.03894272 0.11281839 -0.23093486 -0.26857984
000010 36 f8 dd be 0a 55 6e bd fb 5c 33 3e d1 d8 8c bd
       -0.43353432 -0.05818657 0.17515938 -0.06877292
000020 bf 7a d6 bc a4 80 06 3d 95 b4 87 3d aa d0 0b be
       -0.026181577 0.032837525 0.0662624 -0.13653818
000030 cb 38 56 be 36 fd b5 be 03 51 58 be a0 61 1a bc
       -0.20920102 -0.35544747 -0.21124654 -0.00942269
000040 2e 14 bd 3d 2b 78 e1 3d d3 22 5e be ee e4 94 be
       0.092323646 0.11009248 -0.21692972 -0.2908091
000050 dc e0 34 bd 13 23 45 3e d7 72 31 bd 8b b7 6a bc
       -0.044159755 0.19251661 -0.04332241 -0.014325987
000060 0f a2 8b 3d fc 73 b2 bc 09 24 34 3e c4 61 be bd
       0.068180196 -0.021783821 0.17591871 -0.09295991
000070 90 65 93 be ef d3 67 bd eb 15 34 3d 2a 9a ef 3d
       -0.28788424 -0.0565986 0.043966215 0.11699326
000080 24 85 9a be 4c 9a 84 be 35 bd 8c be 2a 22 a3 be
       -0.30179703 -0.2589897 -0.27488104 -0.31862003
000090 0c ff 24 bd a3 8e 2d 3e 2c b1 02 3b 70 53 b8 3d
       -0.040282294 0.16948943 0.0019942028 0.090002894
0000a0 ba e1 a5 bd e0 5c 4f 3d c9 06 66 3c 05 62 48 be
       -0.080996946 0.050625682 0.014039704 -0.19568641
0000b0 be 4c 9b bd 50 af b8 be 86 92 99 be e3 e2 e6 3d
       -0.07582997 -0.36071253 -0.299946 0.11273744
0000c0 ad aa a3 bd 7b 03 7a bd ff 0f 0f 3e 94 66 8d 3e
       -0.07991538 -0.061038475 0.13970946 0.27617323
0000d0 6c 2a 58 3e e8 c0 21 bd 18 f7 b6 bd 5f 0f 36 3c
       0.21109933 -0.03949061 -0.08933848 0.011112063
0000e0 9e e6 48 3d 00 d8 21 be be 37 27 be b4 a3 1c bd
       0.04904806 -0.15805054 -0.16329858 -0.038242057
0000f0 f3 ae d6 3c 59 58 f9 3d 0a 50 81 be 59 07 89 bc
       0.02620647 0.12175054 -0.25256377 -0.016727136
000100 d0 60 39 3e 63 12 7f 3d 67 ac bc bb 29 49 15 be
       0.18103337 0.062273394 -0.0057578566 -0.1457869
000110 86 09 7c 3e 9e d3 b2 3d b9 b1 06 be bb e0 86 3e
       0.24613008 0.08731769 -0.13153733 0.2634333
000120 d9 19 89 bd e9 c7 88 3c 8f e4 e1 bd 7c 85 58 3e
       -0.06694383 0.016696887 -0.11029922 0.2114467
000130 82 b8 3b 3e 6b 8f 21 3d 41 8a 9f 3d b4 c9 3d bf
       0.18332103 0.039443415 0.07790042 -0.741359
000140 f9 33 f3 bc ce 7d b7 3e 27 af af bd c8 01 44 bf
       -0.029687868 0.3583817 -0.085783295 -0.7656522
000150 2a bf 36 3d 9f 78 9e bd 1e 34 aa 3b 26 9a b2 bd
       0.044615902 -0.077378504 0.005194201 -0.08720808
000160 f5 05 87 3e 7a 6c 96 be 04 1e 68 3e d8 ab 11 3e
       0.26371732 -0.29379636 0.226677 0.1422571
000170 e1 ce 07 3d 2c 3c 23 3c 1a 2f d0 bd 42 87 fe bc
       0.03315628 0.009963077 -0.10165234 -0.031070355
000180 f8 ee 8c 3d 2f 67 81 3c 79 0c 19 bc 70 19 4d be
       0.06881517 0.015796272 -0.009341353 -0.20029235
000190 b3 97 41 3e 48 a6 4c 3e 57 38 19 be cd 8b a1 be
       0.18905525 0.19985306 -0.14962898 -0.31551972
0001a0 e2 67 a4 be 47 7b 1e bd 58 3d 9b 3b d8 dd 30 3d
       -0.32110506 -0.038691785 0.0047375374 0.043180317
0001b0 5e 71 05 be e5 60 62 bd 74 06 32 bb 31 d1 3b 3c
       -0.13031527 -0.055268187 -0.002716449 0.011463449
0001c0 39 47 5d be dd ab 86 3e 63 88 25 3d 20 24 ea be
       -0.216092 0.26302996 0.04041327 -0.45730686
0001d0 d9 fd fe bc b4 29 da 3d 5f 8d af 3d be 64 60 be
       -0.031126903 0.106524855 0.08571886 -0.2191343
0001e0 75 65 01 3e 74 11 81 bd 8b c6 37 be 0f 65 47 3e
       0.12636359 -0.06302157 -0.17946832 0.19472145
0001f0 05 8c 76 be 98 52 9c bd e2 29 36 3e 16 b4 63 be
       -0.2407685 -0.07632941 0.17789415 -0.22236666
000200 4c 6f b5 bd 75 28 a8 be 53 81 57 bd 81 dc 82 3c
       -0.08859119 -0.32843366 -0.052613568 0.015974285
000210 67 48 9e bc 35 eb 39 bd 4d 71 ac bd be ee 2d 3e
       -0.019321634 -0.045390327 -0.08420048 0.16985604
000220 f1 64 12 3e 93 99 9d be 47 cb 14 bd 4b c9 a6 3d
       0.14296319 -0.3078123 -0.036326673 0.08143862
000230 54 ce a6 3e 51 25 ac 3d f2 fa cf 3d 0b e4 c9 3d
       0.3257929 0.08405555 0.10155286 0.09857949
000240 8e a4 23 be 70 2d 55 be 0c 6c 24 3c 12 a8 8c 3c
       -0.15980741 -0.20818114 0.010035526 0.017169986
000250 bf a2 0f be 13 cf 63 bd ae da 05 be b5 10 eb bd
       -0.14026926 -0.055617403 -0.13071701 -0.11477796
000260 f2 ca 6d 3e 2b b4 9e 3e e8 00 f0 bd fc 1a 76 be
       0.23221949 0.30996832 -0.11718923 -0.24033731
000270 4e f5 3a bd 93 a6 2d bf 11 74 21 be 13 8b 16 3e
       -0.045644097 -0.678323 -0.15766932 0.1470149
000280 1c 65 ad bd b2 32 7c bd 01 e6 2c bd d3 c7 34 be
       -0.08466551 -0.061571784 -0.042211536 -0.17654352
000290 c0 46 d2 3c 99 a4 89 bc 86 ca 07 3b 32 d8 c7 3b
       0.025668502 -0.01680212 0.0020720079 0.0060987705
0002a0 72 1e 37 be 67 3c 9f 3d 97 05 31 3e 3f 32 a6 bd
       -0.17882708 0.07775193 0.17287289 -0.081150524
0002b0 86 df fb 3d 4d 97 b9 3d 10 1a 70 bd df ec d5 3d
       0.12298493 0.090620615 -0.058618605 0.1044557
0002c0 57 1e 40 bc 18 7f 4a bc af 97 44 bd 1b 18 c8 3c
       -0.011725984 -0.012359403 -0.04799622 0.024425557
0002d0 3e 18 b2 3d 32 9f f6 3d 65 21 bb 3e 47 7b ad 3c
       0.0869603 0.12042083 0.36548916 0.021176947
0002e0 c9 e8 d4 3b ed c3 0b 3d 92 f7 87 3c f6 76 e3 bc
       0.0064974767 0.034122396 0.016597543 -0.027766686
0002f0 13 16 0d be 53 31 82 3d a5 9a 9f 3e 45 f1 10 be
       -0.13777952 0.06357064 0.31172672 -0.14154537
000300 19 40 84 be 75 bd 8a be 54 2d 47 bf f7 8a fa bd
       -0.25830153 -0.2709767 -0.7780354 -0.12233537
000310 9d 77 43 3c fa c3 61 3c 8c 34 16 be ac 77 3d bd
       0.0119303735 0.013779635 -0.14668483 -0.046256706
000320 86 10 29 3d 7b 3a 2b 3d 01 37 40 bd c3 e5 23 bd
       0.041275524 0.04180382 -0.046927456 -0.04001404
000330 60 58 fc bd 6c 1c 1e 3e 98 de 16 3c 29 1d e5 3d
       -0.12321544 0.1544053 0.009208344 0.111872025
000340 5d 27 c2 bc c1 07 9b bd 90 db 20 bd e1 59 65 3d
       -0.02370041 -0.07569838 -0.03927189 0.05599392
000350 31 87 1d 3d ec c3 0e 3d 9c a5 43 3d 6f 88 37 3d
       0.038459007 0.034854814 0.04776536 0.044807848
000360 8d 02 55 bc 62 a5 e0 bd 5d 30 0c bd 5f 6d 7c be
       -0.013001096 -0.10969044 -0.03422581 -0.24651097
000370 f8 9d e4 3d 78 40 e7 3d c5 9c da 3e 98 94 9d be
       0.11162943 0.11291593 0.4269773 -0.3077743
000380 5d 2b 3f be 9c e7 d9 bd 4a b0 22 bf 00 81 0d 3e
       -0.18668886 -0.10639879 -0.63550246 0.13818741
000390 23 8e 24 bd fb 1a cc bd 90 8e 80 bd 3c ea 83 3c
       -0.040174615 -0.099660836 -0.06277192 0.016102903
0003a0 84 ea b9 3d c1 f0 e5 3d 8f 46 4b 3d 98 77 7e be
       0.090779334 0.11227561 0.049627837 -0.24850309
0003b0 e6 f8 89 3d 61 6a 5f be 17 43 07 bd 5e 4c c7 3c
       0.06736927 -0.21817924 -0.033022966 0.024328407
0003c0 98 15 2f 3e c4 10 27 3e 68 7a b6 bc e2 d8 bd 3d
       0.17098081 0.1631499 -0.022275165 0.09269883
0003d0 5a 5e 25 bc a2 9c 87 be 17 19 45 3e 70 51 9a bd
       -0.010093296 -0.2648669 0.19247852 -0.07535064
0003e0 d4 1f 40 3e 13 ce 85 be e8 03 35 3c 9f 4e 6a bd
       0.18762141 -0.26133785 0.011048295 -0.057203885
0003f0 3d 11 b3 bc d1 cc 93 bd 39 ac e9 bd 70 64 f0 3d
       -0.021858806 -0.072168 -0.11409802 0.11737907

fc1.bias f4 [64]
000000 0b 62 d1 3d d8 50 9c bd cc 72 b8 bd 62 30 54 bd
       0.10223778 -0.07632607 -0.09006271 -0.051803954
000010 8f e8 23 3e 16 d4 a0 bc 5b 1e ca bd 0e ca c0 3d
       0.16006683 -0.01963238 -0.09869071 0.09413539
000020 d2 4c 35 3c 53 90 d3 bd 3e 0f 42 3e 2a cf 26 3e
       0.011065679 -0.10330262 0.18951127 0.16289964
000030 5f 7f aa 3d 25 5c 0c 3e e4 de c2 bd a1 bf 5e bd
       0.08325075 0.13707025 -0.09515169 -0.05438197
000040 09 0b c6 3d 34 d1 5b bc e8 de 90 bb 5f 99 27 be
       0.096700735 -0.013416577 -0.0044211037 -0.163671
000050 04 f4 a4 bd 68 22 41 bd 3a f7 a2 3d 7d 0d 84 bd
       -0.08054355 -0.047151953 0.07957311 -0.06447885
000060 9d 11 72 bd a2 21 fc 3d 99 d0 ae bd 32 79 4b be
       -0.05909883 0.123111024 -0.085358806 -0.19870451
000070 f6 d7 72 3e a8 49 6c 3e 92 ea 45 bc 53 2d 47 be
       0.23715195 0.23074973 -0.012079852 -0.19450884
000080 45 36 0e 3e 9e 38 1a 3c 2f 59 22 be 98 e6 ff 3d
       0.1388789 0.009412913 -0.15854333 0.12495154
000090 82 56 91 bd dd 3c b7 3d 9e e9 e3 3c 5d 6f 24 be
       -0.07096578 0.089471556 0.027821358 -0.16058107
0000a0 39 b0 a1 bd 83 fd 87 bd 5a 73 00 be 6e 1c 5b 3e
       -0.0789494 -0.066401504 -0.12544003 0.21397564
0000b0 e6 4d 43 3d 15 4a dd bc c7 bd 88 3d aa d0 f2 bd
       0.04768171 -0.027012864 0.06676822 -0.11856206
0000c0 1a 99 e5 bd 4b ba 87 3d 59 90 eb bd 59 2b 49 bc
       -0.112108424 0.066273294 -0.115021415 -0.012278401
0000d0 82 09 0d 3c 8b 52 53 bd 64 33 23 be 92 28 fc 3b
       0.008608224 -0.05159239 -0.15937573 0.007695266
0000e0 aa a3 ff 3d 1c a0 7f bd 1d b4 cf bd dc 26 5f 3c
       0.12482388 -0.06240855 -0.10141776 0.013620105
0000f0 11 13 22 3d a0 bc 52 3d 31 43 ae bb 67 2b 1f 3e
       0.039568964 0.051449418 -0.0053180684 0.155439

fc2.weight f4 [64, 64]
000000 90 cb c3 bc 66 4a 80 3c 47 cd b9 3d 14 3b 77 3d
       -0.023900777 0.015660476 0.09072357 0.060359076
000010 6d e6 84 3d 1e 69 92 bd e0 82 88 bd 92 ae 06 bd
       0.06489263 -0.07148956 -0.066655874 -0.032881327
000020 e4 e7 7f bc a3 69 13 bc c7 8d f8 bc 0b 2d f4 bd
       -0.015619252 -0.008997354 -0.030341042 -0.11922654
000030 72 8d 0e be f6 98 9f 3d f7 60 b9 bd 3f a5 2b bd
       -0.13921145 0.07792847 -0.09051698 -0.041905638
000040 94 43 f5 bd 4a 29 9f bd 65 5b 1d bc 1d 13 c0 3c
       -0.1197578 -0.07771547 -0.00960431 0.023446614
000050 7d b8 9c bd f8 73 3c bd 89 a9 a1 3c 08 8f 9b bd
       -0.07652376 -0.046009034 0.019734161 -0.075956404
000060 a4 8e 03 be b0 62 54 bd 2a 94 ae 3d a0 cf de 3c
       -0.12847382 -0.05185193 0.08524354 0.027198613
000070 bd ca da bc a4 9a f2 bc de 71 cf 3c f4 c5 7d bd
       -0.026708001 -0.029614754 0.02532285 -0.06195636
000080 a3 61 8d 3d 4e 5a 5b bc 22 74 30 bd 1c 4c 33 bc
       0.06903388 -0.0133882295 -0.043079503 -0.010943439
000090 71 3e ec bd 44 d5 16 3d 06 74 86 3d da 38 c8 bd
       -0.11535347 0.03682448 0.065650985 -0.097764686
0000a0 5e 1f 11 be 26 d7 a7 bd 3e 4a 5d 3d 7d c1 dd bd
       -0.14172122 -0.08195333 0.05402588 -0.108279206
0000b0 73 fd 6a 3d 08 1c bd bd cd ed 03 be f0 38 61 3d
       0.057370614 -0.09233862 -0.12883683 0.05498594
0000c0 a2 de c4 bd 88 15 44 bd 32 a7 83 bd e1 eb d1 bc
       -0.09612776 -0.047872096 -0.06428374 -0.025625171
0000d0 09 eb 25 be b4 cd ea bd d0 18 5c 3d 16 04 3d bd
       -0.1620294 -0.11465016 0.0537346 -0.046146475
0000e0 78 12 b9 bd ec 7d 65 bd 20 bc 0c be 8e 98 10 3b
       -0.09036726 -0.05602829 -0.13743639 0.0022063586
0000f0 9b 0a 19 bc 5a fc ab 3d 78 27 13 be e1 b0 7a bd
       -0.009340907 0.083977416 -0.14370525 -0.06120384
000100 55 85 44 3e f7 53 bb 3d dd 6d 90 be 17 08 1b 3e
       0.19191487 0.091468744 -0.2820882 0.15139805
000110 cf d6 d4 3d 87 d2 8b 3d a6 37 01 be 4b 28 33 3e
       0.10392534 0.06827264 -0.12618884 0.1749584
000120 be c2 43 be af 35 13 3d 0e 7e 0b 3e 0b 37 32 3e
       -0.19117257 0.03593987 0.13622305 0.1740381
000130 5d 14 0c be ac bd 7b 3e d9 67 41 3d de ba 5a 3e
       -0.13679643 0.24584073 0.047218177 0.21360347
000140 0f 3b d4 3d cd b4 c3 bc 9c 19 b8 bd f5 63 e3 bd
       0.10362827 -0.023889923 -0.089892596 -0.1110305
000150 d5 93 96 3d c4 3e 86 3d 99 71 73 3e 9b 91 a0 bd
       0.073524155 0.0655494 0.23773803 -0.07840272
000160 66 33 28 3d aa 1f e5 3d 0c cb 80 be fc 4a e1 bc
       0.041064642 0.1118768 -0.25154912 -0.027501576
000170 0b 4b 42 3e 04 f2 c0 3d 7b 4a 91 bc c5 5a 71 bd
       0.18973939 0.09421161 -0.01773571 -0.058924455
000180 8c 2e ee 3c 1c 44 ff 3d 74 03 9b 3c 9f f4 d8 3c
       0.02907493 0.12464163 0.018922545 0.026483832
000190 6a cc fd bd 6d 9f 48 3e 4a 55 c8 3e df 64 95 bd
       -0.123925045 0.19592066 0.3912757 -0.0729463
0001a0 1c 10 ce bd 7a 1f b5 bc 34 ae a7 bd 87 27 95 3d
       -0.10061666 -0.022109736 -0.081875235 0.0728293
0001b0 fe 02 35 be 19 51 ff bd 68 a2 cb bd 65 4d 99 bd
       -0.17676923 -0.1246664 -0.09943086 -0.07485465
0001c0 d7 63 7a bd e0 6e 7b bd e6 d1 b1 3d 7d 55 18 3d
       -0.06113037 -0.061385036 0.08682613 0.037190903
0001d0 f9 e7 9e bd 80 9d bc 3d aa dc 98 be ed a6 b4 3d
       -0.07759089 0.09209728 -0.29855853 0.08820901
0001e0 f3 02 f6 bd ef 38 8b bc 47 60 20 3e a6 02 d0 3d
       -0.12012281 -0.016994921 0.15661727 0.10156755
0001f0 61 22 27 be d2 20 8f 3d d1 83 b5 bd 9a 36 09 3e
       -0.16321708 0.06988682 -0.088630326 0.13399735
000200 6d 8c 35 bd 20 90 bb bd 74 6c f2 3d d5 99 90 be
       -0.044323374 -0.09158349 0.11837092 -0.28242365
000210 bf 93 31 be 2b c5 60 be d2 73 65 be ee 09 ab 3c
       -0.17341517 -0.21950214 -0.22407463 0.020878758
000220 3d bd 30 3e 7d 32 3e bd da 39 06 3e 77 7b 32 3d
       0.17259689 -0.046434868 0.13108006 0.043574777
000230 40 58 23 be c3 6c 2b 3e 8f 92 7e be 82 aa 1e 3e
       -0.15951633 0.16740708 -0.24860595 0.15494731
000240 81 e1 68 be fd 7e 2e be ea 2b 60 be 49 e1 a8 3d
       -0.22742273 -0.1704063 -0.21891752 0.08246095
000250 a8 19 70 be 5c 02 ec 3d f1 16 41 be 9b ad 1e 3c
       -0.23447287 0.115238875 -0.18856408 0.009684945
000260 f0 a9 62 be 6a 20 92 3e 95 65 db 3d c1 43 87 be
       -0.22135139 0.28540355 0.107127346 -0.2641888
000270 ab 35 aa bc 33 7c 6e 3e 40 80 0e 3d 09 61 32 bd
       -0.020777544 0.23289566 0.034790277 -0.04354957
000280 5e fd 08 be 57 9b 9b bc 39 37 88 bd a3 a6 29 3e
       -0.13377902 -0.01899497 -0.06651158 0.16567473
000290 7d 07 cb 3c bd 9c be bb 55 3e 7c 3e ae 0a aa 3d
       0.024783844 -0.0058170245 0.24633153 0.08302818
0002a0 ad 17 49 3e 0b 38 94 3c 51 5e 47 be af 67 70 3c
       0.19637938 0.01809313 -0.19469573 0.014673158
0002b0 7d 00 c9 3d 3b 6e 32 bd 10 21 12 be b9 3e 90 be
       0.09814546 -0.043562155 -0.14270425 -0.28172854
0002c0 3f 2b a0 be af 7f 01 be cf 70 42 be 83 f0 af be
       -0.31282994 -0.12646364 -0.18988346 -0.34363183
0002d0 37 e5 07 bf 6d 5a 88 3e c7 25 13 be d6 c8 5a be
       -0.5308413 0.2663149 -0.1436988 -0.21365675
0002e0 6a c8 d7 3d 0d 76 18 bf b5 c5 22 3e f4 79 24 3e
       0.10536273 -0.5955513 0.15895732 0.16062146
0002f0 79 dc 8a be 3f d0 6e 3e 48 52 f6 bd 5e d4 94 3d
       -0.27121332 0.23321627 -0.12027413 0.07267068
000300 4d 6f d3 bd 03 3a 66 bd f7 c5 8b 3e 82 22 96 bd
       -0.10323963 -0.056207668 0.27299473 -0.073308006
000310 42 c2 8b bd 31 ca a2 bc 6a 15 94 be 36 32 63 be
       -0.06824161 -0.019871803 -0.28922588 -0.22187123
000320 b7 16 24 be 16 7a 99 3d 6d fc 96 3e eb 9f 81 3d
       -0.1602429 0.07493989 0.2948946 0.0632933
000330 e3 e5 34 bc 0a 51 ff 3d 2b bf 89 3d 1e af a8 be
       -0.011041137 0.12466629 0.067259155 -0.32946104
000340 b9 8f 0d be 77 0c 11 be da de 85 3d db ba 05 be
       -0.13824357 -0.14164911 0.06536646 -0.13059561
000350 6a 3c 9f 3c 1e 9a bd 3a 16 72 66 bd ac a0 c8 bd
       0.019437987 0.0014465486 -0.056261145 -0.09796271
000360 4b 92 44 3e cf 42 ca bd 11 31 5f 3e 23 30 22 3e
       0.19196431 -0.09876024 0.21796061 0.15838675
000370 d4 09 6f 3d 66 8a f5 bd 7f 16 03 bf bb a4 6b be
       0.058358982 -0.11989288 -0.512062 -0.23012058
000380 e3 61 95 3d 2d b6 12 be 6a 26 ba be 39 cc f3 3d
       0.07294061 -0.14327307 -0.36357433 0.11904187
000390 81 12 7e be 60 25 41 bb e9 a7 cf 3e 0d 3f 4b be
       -0.24811746 -0.002947174 0.40557793 -0.1984827
0003a0 f8 d7 d2 bc 95 29 18 3b 54 bb 1f bd 24 75 d2 be
       -0.025737748 0.0023218144 -0.03899701 -0.41104996
0003b0 04 98 44 be 00 87 54 3e 1a 95 71 bc 23 8f c2 bc
       -0.19198614 0.20754623 -0.014745021 -0.023749894
0003c0 85 20 71 bd 80 ce d4 bd 98 72 f3 3c 17 f7 dd 3c
       -0.058868904 -0.10390949 0.029717728 0.02709536
0003d0 17 32 34 3c 64 38 1a bc 69 88 7b be 79 9f cf 3d
       0.0109982705 -0.009412859 -0.24563755 0.10137839
0003e0 68 3e 74 3c 2c e4 0c bc b1 e9 86 be 06 a4 3d 3d
       0.014907457 -0.008599322 -0.26350167 0.046299003
0003f0 40 78 55 be a1 16 bc 3d c7 05 0d be b9 2e f5 3d
       -0.20846653 0.091840036 -0.13771735 0.11971802

fc2.bias f4 [64]
000000 3d c8 b6 bd 7e b9 00 3d 3f bd 85 bc c2 05 1a bd
       -0.08924911 0.0314269 -0.016325591 -0.037603147
000010 0c 76 4e 3e 8c 2e ed bd f4 0f 91 bd ba 51 f5 3c
       0.20162219 -0.11581144 -0.07083121 0.029946197
000020 d6 2c 5f 3e 62 72 98 3e 5d 34 f7 3d c8 4b c6 3d
       0.21794447 0.29774767 0.120705344 0.09682423
000030 2f 68 81 3d 8b aa 33 bd 4d 01 b9 bc 2d cd 05 3e
       0.063186996 -0.043863814 -0.022583628 0.1306655
000040 68 1d 40 3d 56 d8 e4 bc 5d e9 db bd c7 dc a0 3d
       0.046903044 -0.027935188 -0.1073787 0.0785461
000050 94 e4 5e 3d 45 49 d3 3e 30 22 ed bd 1b 6e e1 bd
       0.054417208 0.41266838 -0.115787864 -0.11007329
000060 8b 06 fc bd 0a 6b 1a be 5e 6e f5 3d 70 6e 62 bd
       -0.123059355 -0.15079895 0.119839415 -0.055281103
000070 4d 1f 51 be d5 99 43 3d b2 f1 24 3e 25 28 a3 bd
       -0.20422097 0.047754128 0.16107824 -0.07966641
000080 04 c4 85 bc 19 d8 05 3e 9c c0 ad 3c f0 1d 59 bd
       -0.01632882 0.13070716 0.021210007 -0.053007066
000090 8c 32 9c bd 34 7d df bd 08 49 64 3e b3 83 28 3d
       -0.076268286 -0.109125525 0.22293484 0.041141223
0000a0 c7 59 30 ba 9c bb b4 3e f2 1b 3b 3e 68 be 40 3d
       -0.0006727245 0.35299385 0.18272379 0.047056586
0000b0 30 2f 4c bc 3a 27 7b bd cd 94 c3 bd 87 b8 22 be
       -0.012462422 -0.061316706 -0.09549866 -0.15890704
0000c0 f1 09 40 3d 6f 4d 85 bd 4e d4 f0 bd 48 f1 84 3e
       0.04688448 -0.0650891 -0.11759244 0.25965333
0000d0 a0 9c 2e be 2d 3e 20 bd 8f e6 55 3e 5a 22 c5 bd
       -0.17051935 -0.039121795 0.20888732 -0.09625693
0000e0 73 68 59 be 9a 9c c7 bd 2a 23 c1 bd 72 c3 9b bd
       -0.2123125 -0.09746666 -0.09430535 -0.076056376
0000f0 c4 00 6e bd f4 9b 5e 3e a6 ee 2e 3d d3 26 2a be
       -0.0581062 0.21739179 0.04270806 -0.16616373

fc3.weight f4 [4, 64]
000000 fc 74 15 bd d7 16 06 3e 2d d2 c9 3e 3b 11 b4 3c
       -0.036488518 0.1309465 0.39418164 0.021980872
000010 52 06 d3 3e de d5 df bd a1 4e 8c 3d 46 40 e7 3c
       0.4121576 -0.10929464 0.06850935 0.02822889
000020 12 e6 e1 3d fc 4e ce 3d 66 46 42 3e c7 e1 86 3d
       0.110302106 0.10073659 0.18972167 0.06586032
000030 f3 a3 0b 3d 87 63 45 be e4 aa 63 3c 0c 2a bb bd
       0.0340919 -0.19276248 0.013895724 -0.09138879
000040 ef 05 bc be ed 72 00 bf 2e f0 bf 3e 06 76 fc 3d
       -0.36723277 -0.5017536 0.3748793 0.12327199
000050 ec 1f a2 3d f5 8b 44 3e 3c e2 8f 3d 1e 84 ad bd
       0.07916245 0.19194014 0.07025573 -0.08472465
000060 eb ef fc be f9 92 8a bd b8 cc 93 3b 3a c7 a4 bb
       -0.49401793 -0.06766314 0.0045104884 -0.0050286325
000070 5b 02 15 bd 04 53 ce 3e 8f e7 9a 3d 3b 62 0f 3e
       -0.0363792 0.4029771 0.075636975 0.14002316
000080 bf 03 17 3e 3d 1c 34 3e f6 69 d0 3d 03 07 37 be
       0.14747523 0.17588897 0.101764604 -0.17873769
000090 fd b4 16 3e 34 07 5c be 20 ca d1 3d ef 80 b2 3d
       0.14717479 -0.21487123 0.102436304 0.087159984
0000a0 d9 51 e3 3c 95 1a 97 3d a3 d2 ef 3b 9f e9 35 bd
       0.027748989 0.07378117 0.007318811 -0.04441225
0000b0 5b df 10 3e c9 41 c4 3b 40 64 29 3e 79 7e d3 3d
       0.14147703 0.0059892875 0.16542149 0.10326857
0000c0 60 7f b0 3d 8e 03 86 3e 13 c9 29 be 89 ba 81 3e
       0.08618045 0.26174587 -0.1658061 0.25337628
0000d0 55 0e b7 3e bc 6a ab bd d4 d2 ea 3d 0c 69 8e 3e
       0.35753122 -0.08369967 0.114659935 0.2781452
0000e0 21 43 00 be ff e2 0b 3c d8 46 84 3e 54 e5 a4 3d
       -0.12525608 0.008538007 0.258353 0.08051553
0000f0 d0 31 ef bd 6d 93 2f 3e 88 d2 51 3d 24 c1 99 3d
       -0.11679423 0.17146082 0.05122617 0.07507542
000100 f4 7f f3 3d 25 96 ae 3d d8 3e 6a 3e 8a 6b 14 be
       0.118896395 0.085247315 0.22875535 -0.14494148
000110 65 63 20 3e b2 c0 c0 be 72 40 35 3e ac fc 69 bd
       0.15662916 -0.37647015 0.17700365 -0.057125732
000120 49 c1 13 3d 66 a1 44 3e db 27 41 3e 14 1e c6 3e
       0.036073003 0.19202194 0.1886286 0.38694823
000130 0b 9a 52 be cd 33 73 3e e2 0e c1 3d ff 85 9c 3d
       -0.20566575 0.23750229 0.09426667 0.07642745
000140 37 ef 89 be 6d f2 64 3e 85 21 bc bd 25 55 a6 3e
       -0.2694032 0.22358103 -0.09186081 0.32486835
000150 20 6d e8 3e 74 65 6f 3e 24 3f 18 be fc 30 92 3e
       0.45395756 0.23378545 -0.14867836 0.28552997
000160 37 2a 91 3d a9 89 84 bd d1 76 26 3e 90 e7 08 be
       0.0708813 -0.06471569 0.16256262 -0.13369584
000170 8e 55 57 3d 55 ff 19 3e 33 8a 8f 3e c0 d9 53 3e
       0.052571826 0.15038808 0.28035125 0.20688534
000180 63 ba 22 3e 1b f9 4b 3d 2c 16 1e 3e 14 76 46 be
       0.15891413 0.049798112 0.15438145 -0.1938098
000190 d7 e9 00 3e d9 02 02 be 82 2b 2d 3e 63 0f c7 3d
       0.12589203 -0.12696399 0.16911128 0.09719732
0001a0 e4 c3 6b 3d 59 01 00 3e 99 18 16 bd 94 8d 0a 3e
       0.057559863 0.12500514 -0.036644552 0.1353057
0001b0 1e 8f 6c bd 07 24 a6 be 0f 29 c4 3e 0d b1 bf be
       -0.057753675 -0.32449362 0.38312575 -0.37439767
0001c0 53 b9 1a bd bc 96 07 3e 4c fe 13 be 7e c7 95 3d
       -0.037774395 0.13241094 -0.14452475 0.07313441
0001d0 4e 16 02 3f b8 eb fe 3d ae a9 fd 3d 25 4c 02 3f
       0.50815284 0.124473035 0.123858795 0.5089744
0001e0 92 7f 21 be 54 7f 36 3e 6c 7d 92 3d be b7 25 3e
       -0.1577132 0.1782201 0.071528286 0.16183373
0001f0 36 f5 c1 bd b7 ff d8 bc 42 9b b4 bd a5 c8 88 3d
       -0.094705984 -0.026489122 -0.088186756 0.06678895
000200 ea 5a 4f bc 1f 44 8e 3e 0e 07 ba 3e 28 22 b4 3e
       -0.012655953 0.27786347 0.36333507 0.3518231
000210 5f bf 30 3e 95 4f 17 be b5 0c d0 3d 5b 68 80 3e
       0.17260502 -0.14776452 0.10158674 0.25079617
000220 9f 4e d4 3d 13 64 89 3d 8f 54 de bc 2a 73 b4 3e
       0.10366558 0.06708541 -0.02713993 0.35244113
000230 26 b3 9f 3d 02 8a a2 3d 46 09 b0 be 1c 03 40 3e
       0.07797842 0.07936479 -0.34382075 0.18751186
000240 25 13 76 3e ab 59 c8 3d da 08 a1 3d 10 65 94 3d
       0.2403074 0.09782728 0.078630164 0.07245839
000250 61 68 ef 3d 40 2e 65 3e f3 d2 17 be 12 b6 ae bd
       0.116898306 0.22380924 -0.14826564 -0.08530821
000260 5d 39 b7 bb cf df 3d bd 56 ca 21 3e 35 5d e7 3e
       -0.005591555 -0.04635602 0.15799841 0.451883
000270 83 9a 1a bc 63 80 af 3e 4f 03 20 3e 42 cf 84 be
       -0.0094362525 0.3427764 0.15626262 -0.25939375
000280 a5 3d 0c be ca 57 b2 3e c6 1f f0 3d 21 c1 64 be
       -0.1369539 0.34832603 0.1172481 -0.22339298
000290 f1 b8 40 be 77 06 11 be ab 96 b7 3d 9c db 1f 3b
       -0.1882055 -0.14162622 0.089642845 0.0024392372
0002a0 a4 03 00 3e 8b 24 26 3e 82 78 61 3e e5 3b 53 3e
       0.12501389 0.16224878 0.22018626 0.20628317
0002b0 0e 94 59 bd 1c 47 ae 3c 38 f4 ed 3d 07 12 b0 bd
       -0.05311971 0.021274142 0.11618847 -0.085971884
0002c0 f2 f0 88 3e 46 22 46 3e 40 80 89 be cf 80 53 3e
       0.26746327 0.19349012 -0.2685566 0.20654605
0002d0 61 7e 68 3e d4 d3 0a 3e 59 10 77 3e 64 27 2a 3b
       0.2270446 0.13557369 0.2412733 0.002596342
0002e0 4d 55 1e be d5 12 ee bd 12 07 3f 3c b5 95 26 be
       -0.15462227 -0.11624686 0.011659401 -0.16268046
0002f0 f4 3e 65 be f9 6b ae 3c 62 1f 91 be bc cc ff bc
       -0.22387296 0.02129172 -0.28344256 -0.031225555
000300 5c 0d cf 3b 0d a0 a2 3d cd 52 04 3e 73 b3 37 be
       0.0063187312 0.079406835 0.12922211 -0.17939548
000310 7f 92 f8 3d 6c 82 c3 3d e4 f3 9a be 38 45 02 3e
       0.12137317 0.095463604 -0.302642 0.12721717
000320 d0 75 cb 3d a6 62 1a 3e f9 4d 38 3e 1b a2 e0 bc
       0.0993458 0.15076694 0.17998494 -0.027421048
000330 ce 4e 5c 3e 71 7b 73 be 2f 14 82 3e ac 79 94 3e
       0.21514437 -0.23777558 0.25406024 0.28999078
000340 d8 43 e3 3e 5e 84 fe 3d 39 20 bd 3e 26 82 41 3e
       0.44387698 0.12427591 0.36938646 0.18897304
000350 f7 6a 8d be 1a 41 31 3e 2b 35 ac 3d c0 91 4a 3e
       -0.2762067 0.1730999 0.084085785 0.19782162
000360 18 b0 20 be ef 95 aa bd 44 a9 f3 bc bd b8 a5 3e
       -0.15692174 -0.08329379 -0.029743798 0.32367507
000370 84 08 9a 3e 17 3a 69 bd d8 c1 8d bd 19 20 52 3e
       0.30084622 -0.056940164 -0.069217384 0.20520057
000380 df 33 33 3d 97 94 f3 3d 1a 0a 2a bd c7 67 b5 bd
       0.04375064 0.11893576 -0.04151354 -0.088576846
000390 54 a3 17 bb 84 7e c7 3c 57 0c 3f 3e 22 d5 3e 3e
       -0.0023138123 0.02435232 0.18657051 0.18635991
0003a0 ee b6 1b be fd e9 6e 3e 79 f3 ac 3e 3f 05 3b be
       -0.15206501 0.23331447 0.33779505 -0.1826372
0003b0 01 69 f7 3e 02 21 1f be 02 29 d0 3e fc 30 20 be
       0.483223 -0.15539935 0.40656286 -0.15643686
0003c0 61 bb 30 3d 72 6a e9 3c da f1 81 bd 92 7a 92 3e
       0.04314745 0.02849314 -0.06344958 0.2860914
0003d0 9c 98 ba bd 43 77 31 bc bf f8 40 3e 30 ae c7 3e
       -0.09111139 -0.010831657 0.18844889 0.39000082
0003e0 4b e3 ad bd 10 f6 a0 3d 95 64 65 bd 56 71 88 be
       -0.08490618 0.07859433 -0.056004126 -0.26648968
0003f0 c9 2c 43 be 04 17 89 3d c7 bb 25 3d dc 9b aa bc
       -0.19060053 0.06693843 0.04046228 -0.020826273

fc3.bias f4 [4]
000000 6e 8f 8b 3e c2 f4 7f 3e 39 a3 0f 3e bb 5a 0b 3e
       0.27257866 0.24995711 0.14027108 0.1360883
