p3_collab-compet/actor_0_weights.pth (torch_old, 159224 bytes, 6 tensors)

actor_layer_1.weight f4 [256, 24]
00000000: 3d67 633d 2ddd 9a3b 7593 ccbc 4eb5 c8bd
00000010: ff42 3ebd cacd 82bd f558 a7bc 79fb abbc
00000020: e618 5e3d 5f34 083d 6f31 2e3d 462c 80bd
00000030: 4692 7e3d d388 2cbe 9a2f d63d b3ce 19bc
00000040: f2bf f93c 57ba 09bd 45a0 be3c c747 2dbc
00000050: 6a38 a03d 9cc4 1dbe 339a b53d 8e53 64bd
00000060: e763 b03c 7519 ee3b 44b2 e23c 510b 33be
00000070: 5866 8a3d 69a1 463d fc3c 143d d302 89be
00000080: 6091 32bc 597b b6bd 6cf6 0b3d 9aae 67be
00000090: 496b 31bd 4ab5 c43d ab13 59bc 4c61 5dbe
000000a0: db5b dc3b 63b7 38be b12a 383c acff 04be
000000b0: 3537 dbbc f64c 683e 743c 673d e43b 2cbe
000000c0: ac58 f6bd 4592 233d 7fe4 193d 4d2b 14be
000000d0: 468e 11bd 1e73 2c3e 2b1c 39bd 6f6c 4bbe
000000e0: 7442 c6bc 6290 1d3d 3657 47bc de2c 38be
000000f0: c366 163d f3ad 0e3d 89ef e53b badc 23be
00000100: 50cd 62bc b4b1 fa3c 263f 34bd fc79 e9bc
00000110: 68bb a53d 6ad8 edbd 5396 1b3b 78f7 3e3d
00000120: 3c75 5abd 2fdf 51be 56ab 65bc 3c33 f8bd
00000130: 09b9 19bd b07f b43d 3e97 203c 573a 03be
00000140: b7b6 abbd 067e 74be 794a 84bc 0215 0cbd
00000150: 6a38 8b3d 3678 343d dbad b63c 9133 1a3d
00000160: 1bf9 a5bb e5ee 49be d4f2 99bd 1819 773d
00000170: b8a7 ed3d 01de c33d 4f97 ae3c 4815 b83d
00000180: ad1f d7bd ff9d 20be 4d8a 833d 67e0 9c3c
00000190: 5725 e63d 9619 28be 950c 2abd 8270 59bd
000001a0: 7565 b8bd 51e6 ecbd 6535 383d 1453 30bd
000001b0: be33 953d 68ff 0dbe e120 893d 72c3 c63c
000001c0: 1f48 a33b f6d2 57bd 9529 e13b 2fda cdba
000001d0: 1b13 a2bd f450 0bbe 116e 3a3d 8891 883d
000001e0: 6e99 1c3d b9e5 bdbd c2f6 27bd 4969 c8bd
000001f0: abc4 cc3c a674 1dbe 2066 183d 8714 a3bd
00000200: 2ed0 9a3b 65d5 a0bd ab39 5bbd aa4a c6bd
00000210: 8d61 efbd c8af e1bd cc8f 663c 9618 91bd
00000220: d83d 8b3d b3c5 2fbe 66a7 823d 263d 453d
00000230: 4a67 a6bd fc2d 863b 9188 933d 5ee0 b33c
00000240: 9aa7 edbd 622c 9e3c 1db2 bf3c 0c60 10be
00000250: df65 b43d 4cca 8ebd cf44 503d c0bf 52bd
00000260: 234c 83bb fbf7 2abc 5790 2ebc edcc dbbd
00000270: abda 33bd 0ad9 0abc efa7 02bd d5ee cabd
00000280: b64c 81bd bd77 f9bc 79db f2bb 7712 7cbc
00000290: 1a7d 9fbc 6998 fb3c 2112 1bbc b3fc 7b3c
000002a0: a66d 43bc 6df9 873d a493 aabd 4b82 183e
000002b0: f4b1 013d b512 0dba 3fd5 62bd c032 d33d
000002c0: 3fb2 babc abfc 023e 8e65 61bc c884 f43d
000002d0: 3e96 be3c 345d 47bb c904 b5b9 91f2 013e
000002e0: a829 af3c c6e9 243e e48c 23bd 13b9 5a3e
000002f0: a30a c23d 5d1b c1bd 77fc 153d 31c4 463e
00000300: 9b0e cfbc 7183 3b3c d5d8 5f3d 0c37 ce3d
00000310: d471 f5bc af90 f1bd 13e6 693d ea44 9a3d
00000320: a8fb 853d d781 293b 05e7 173d 09d6 51bc
00000330: 1461 2cbd 7414 edbc 69b3 6a3d e18a 433c
00000340: 11ae 093e 4f9b 453a 2ad0 653c 46a5 ba3d
00000350: 169b d0bd 5f02 193e e65d 82bd d1ad cb3c
00000360: dd69 0ebd 2172 783d 7d87 983c f85d 9f3d
00000370: c141 27bd 3a7b f43d dd1d 2b3c 6c64 c33d
00000380: 956b e6bd 4bcf 1d3d 9a67 0e3d a6bc 8c3c
00000390: 3531 2fbd 984f 86bd 260f 2cbc 4092 59bd
000003a0: 0e11 24bd 2cdf 023c c10c 45bd a4a6 8bbc
000003b0: a0e6 04bd e8b6 c1be 1b12 483d e2d1 30bd
000003c0: e429 8dbd eed8 10bd 1df0 3a3d 4da5 3e3d
000003d0: 65c8 51be 96dc 13bd 93af 553b 558a d13d
000003e0: 5da3 40bd 7b74 1bbd 9195 6e3c a97f c73d
000003f0: 0483 213d c15c 023c 3190 dbbc b47e f33d
0.055518378 0.0047260732 -0.024972657 -0.09800206 -0.04645061 -0.063869074 -0.02042816 -0.020993935
0.054222964 0.03325307 0.042527612 -0.062584445 0.062151216 -0.1684907 0.10458298 -0.00938766
0.030487034 -0.033624973 0.023269782 -0.010576195 0.0782326 -0.15407032 0.08867302 -0.055743746
0.021532012 0.0072662183 0.027672894 -0.17484786 0.06757802 0.048493776 0.03619097 -0.26759967
-0.010898918 -0.089102454 0.034170553 -0.22625199 -0.043315206 0.09604891 -0.013249318 -0.21619147
0.006724817 -0.18038706 0.011240647 -0.12988156 -0.026759723 0.22685608 0.056454137 -0.16819721
-0.120286316 0.039934415 0.037571426 -0.14469643 -0.035536073 0.16840789 -0.04519288 -0.19865583
-0.02420161 0.038467772 -0.012166789 -0.17985865 0.036719095 0.03483386 0.00701708 -0.16002169
-0.013842896 0.030602314 -0.044005536 -0.02850055 0.080923855 -0.11613543 0.0023740723 0.046622723
-0.05333446 -0.20495294 -0.0140179 -0.12119147 -0.03752998 0.08813417 0.009801684 -0.12815224
-0.083844595 -0.23876199 -0.016148793 -0.034199722 0.067978695 0.044059955 0.022299698 0.037646834
-0.005065096 -0.19720037 -0.07517019 0.060326666 0.116042554 0.09563828 0.021312384 0.08988434
-0.105040886 -0.1568527 0.06422863 0.019149972 0.11237591 -0.1641601 -0.041515905 -0.05308581
-0.090037264 -0.11567367 0.044972796 -0.04304798 0.0728526 -0.13866961 0.06695724 0.024263117
0.0049829627 -0.052691422 0.006871412 -0.0015705283 -0.079138 -0.136051 0.045515124 0.06668383
0.03823226 -0.09272332 -0.04100681 -0.097857065 0.024996122 -0.15376529 0.03720677 -0.079629
0.004724524 -0.07853202 -0.053521793 -0.0968221 -0.11688528 -0.11019856 0.01407237 -0.070847675
0.06798905 -0.1716526 0.06379585 0.04815402 -0.081251696 0.0040948372 0.07203782 0.021957573
-0.11604233 0.019308273 0.02340036 -0.14099139 0.08808493 -0.06972179 0.05084687 -0.0514524
-0.004006879 -0.0104351 -0.0106545305 -0.10732446 -0.04390971 -0.008474598 -0.031898435 -0.09908835
-0.063134596 -0.030452603 -0.007411417 -0.015385262 -0.019468833 0.030712323 -0.0094647715 0.015380072
-0.011927998 0.06639371 -0.083289415 0.14893453 0.03166385 -0.0005381511 -0.05537915 0.10312414
-0.022790072 0.12791698 -0.013757123 0.119393885 0.023265 -0.0030420544 -0.00034526575 0.12690188
0.021382168 0.16104802 -0.039929286 0.21359663 0.09474685 -0.09429047 0.036617722 0.19410779
-0.02527552 0.011444912 0.054650147 0.10069093 -0.029961504 -0.11795174 0.05710418 0.075326756
0.0654214 0.0025864744 0.03708555 -0.012807378 -0.04208477 -0.028940417 0.057300005 0.011934967
0.13445307 0.00075380964 0.014026681 0.09113555 -0.1018583 0.14942311 -0.06365566 0.024863156
-0.034768928 0.060655717 0.018619293 0.07781595 -0.040834192 0.11937566 0.010444132 0.09540638
-0.112509884 0.038527768 0.03476677 0.017179798 -0.042771537 -0.0655815 -0.010501659 -0.05311799
-0.040055327 0.007987779 -0.048107866 -0.017047234 -0.032446504 -0.3783486 0.04884539 -0.04316891
-0.06892756 -0.03536313 0.045639146 0.04654436 -0.204866 -0.03609904 0.003260587 0.10231463
-0.047030795 -0.03795288 0.014562027 0.09741146 0.039431587 0.007956685 -0.026802154 0.11889401

actor_layer_1.bias f4 [256]
00000000: 82b3 dabd cf4a 5f3e bb48 1a3e 45b3 3f3e
00000010: cf0b d8bc 4ed2 6abe 7d44 51be 4c83 0bbd
00000020: 9df6 82be 5615 8bbd 01b7 443e 3d07 a5bc
00000030: 8af9 a33d b1a1 f2bd 2091 623d 029c 853e
00000040: bb6e dc3d 3ba5 7a3d 4cf2 bdbd 7b5f 07be
00000050: d71b ef3d 9a25 16be d5b5 91bd 6827 f3bd
00000060: 4c39 febc 06b5 1abe 616c b23d 3bd6 243d
00000070: d83a dbbd 6783 cd3b c90d f8bd babf c5bd
00000080: 47d0 0339 1917 ba3d f372 01be fea2 e43d
00000090: 33ed 8dbe f2a6 6a3e d784 09be 8701 123e
000000a0: f889 cabd 5c0e ebbd 1c57 d0bd 0586 e1bd
000000b0: d7cd 46bd 02b3 9abd 8604 32bd 8233 75bd
000000c0: 8d5a 943e 5eec 0c3e 7d3d 14be 9d14 283e
000000d0: b016 aabd fa2d 62be e608 0b3e 538a df3c
000000e0: 67fb f93d d826 eebd 9911 57be f411 133e
000000f0: 4220 a13b 3cd9 ad3d b51b cf3c c644 39be
00000100: e143 813d 4d2a e7bd f9ad 9abd 89ac 3a3d
00000110: eb69 31be bb9c ebbd 5b8d a0bd 00ef eabd
00000120: 3028 a1be 9885 b1bd 711c 56bd b75e 8f3d
00000130: 1063 ae3d e93e 813e bab4 d03d 9bca 89bd
00000140: fb49 24be 1201 abbd 887b 53be 1f3d 2fbe
00000150: 325f 263e 7bd6 5dbd 4196 12be fd5a 9f3d
00000160: c77e 10be 0183 053c 2341 9bbd 86d3 613d
00000170: 1517 d8bd 2016 5d3e 5c51 28be a146 5dbe
00000180: 7afa 343e 871f bbbd dec0 423e bb45 053e
00000190: f0d4 4b3d d549 f2bc 4d80 9d3d 57e8 383e
000001a0: d9ec adbd 5d77 093e 9f32 043e 740d 8abd
000001b0: 8ea8 bf3d 11f9 15bd 33c9 9dbd a4c8 14be
000001c0: 5eb4 40bd c76c 42be eee3 07bd d90c 113e
000001d0: a9e0 473e 9f1b 4bbe 66d4 36be 9b78 033e
000001e0: 3c5c f3bd df4d 183c 96f5 393e 02f3 7e3e
000001f0: 1d17 4f3d 3a50 0f3e 596a 67bd 26a8 893c
00000200: 1fff 683e b789 57be 1442 68be c503 863d
00000210: b710 15be 7056 a23d 1a4c 6b3e c9e6 cd3d
00000220: acf1 d63d 55de e2bc b1ce f03d daaa a43c
00000230: 06f1 143b bdb1 51be 0d58 d93d b306 103d
00000240: 20cd d53d 9fb8 f5bd 6fbc 97bd dd5d 3fbd
00000250: d1d4 8e3b 35e9 003e 4f3e b93d dd7a f73d
00000260: 5215 e43d 3408 08be 10f3 4f3e 8108 623d
00000270: 9c0b 703e 46b9 033c f009 c339 a33b 3c3e
00000280: 2a63 82be ca0d debb 63a5 20bd db1d 1fbd
00000290: e648 3dbd 1285 623e 885c 03bc dba5 563c
000002a0: c2e0 533d c4c1 463e 6559 583d 8912 15be
000002b0: f627 38be 1e86 27be 3b28 3abe 9e4a 06be
000002c0: 2d0c fb3c 6987 803e d112 43be 6774 ad3d
000002d0: b2ca 0dbe bb1a 3b3e 4d69 5b3e be87 183e
000002e0: ed00 203e 0f65 2bbe f0a8 2dbe c35a efbd
000002f0: 19f8 4dbc 2d04 443e af9a c23d acca 0cbd
00000300: 4fe4 5f3b 9ac8 4bbe 9227 333e c95d 20be
00000310: aabd d6bd 6660 e33d 5975 0b3e 6ac4 a93d
00000320: c4d5 5ebd 7609 6fbd cb94 3ebc c832 c0bd
00000330: 25b7 653e 3924 043e 6d9e cabd 2c75 0b3e
00000340: ffaa e9bd f5e9 1dbe 284f ad3d 2908 3c3d
00000350: 6cf3 593e c98d bf3c a242 b6bc 02b5 2ebe
00000360: 666f 233e a971 343e e353 b7bd 8725 79bd
00000370: a1d5 82bd 530f 143c 9f8c 173e 2f5f 6c3d
00000380: dfec 53bd 1189 74be ad10 a73d 5d6d 05be
00000390: d34b 53bd 0f0d 4fbc 9491 3c3e 28c5 613e
000003a0: 8ffa e7bd 7258 b83c 7f05 ab3d 6569 f53d
000003b0: 6132 6fbd 6664 d13d 6b47 023a 9ff1 d13d
000003c0: 4313 10be 1349 85be 1966 223e a1ac 94bd
000003d0: b56d 7ebd 022b 483d af50 55bd 5536 14be
000003e0: 5915 90bd f551 a6bd 77f8 a13c 3ba7 f7bd
000003f0: 1dda 783e a088 603e 9b6a eebd 53fe ec3d
-0.1067877 0.21805881 0.15066807 0.1872073 -0.026372818 -0.22931787 -0.20436282 -0.03406076
-0.25578776 -0.06791179 0.19210435 -0.020145053 0.0800658 -0.118472464 0.055314183 0.26095587
0.10763308 0.061192732 -0.0927473 -0.13220017 0.11675232 -0.14662781 -0.0711476 -0.118727505
-0.03103318 -0.15108117 0.08712078 0.04024337 -0.10704583 0.006271768 -0.12112004 -0.096557096
0.00012570723 0.09086437 -0.12641506 0.11163901 -0.2772003 0.22915247 -0.1342958 0.14258395
-0.09889597 -0.11477348 -0.10172865 -0.1101189 -0.048536148 -0.07553674 -0.043461345 -0.059863575
0.28975335 0.13762042 -0.14476581 0.16414113 -0.083051085 -0.22087851 0.13577613 0.027287638
0.12206154 -0.116285026 -0.21002807 0.14362317 0.0049171755 0.084887 0.025281766 -0.18092641
0.06311775 -0.11287365 -0.07552714 0.0455747 -0.17325561 -0.11504503 -0.078394614 -0.11471367
-0.31475973 -0.08668059 -0.052273218 0.07000487 0.085149884 0.2524331 0.10190721 -0.06728097
-0.16043846 -0.083498135 -0.20652592 -0.1711316 0.16247252 -0.054159623 -0.1431513 0.077810265
-0.14110862 0.00814891 -0.07580783 0.055133365 -0.105512775 0.21590471 -0.16437286 -0.21608974
0.17673674 -0.09136873 0.19018885 0.13014881 0.04976362 -0.029576221 0.07690487 0.1805738
-0.08492441 0.1342444 0.12909935 -0.06740847 0.09358321 -0.03661448 -0.07704391 -0.14529663
-0.04704701 -0.18986808 -0.033176355 0.14165057 0.19519295 -0.19834755 -0.17854461 0.12838976
-0.11882827 0.00929591 0.1816009 0.24897388 0.050559152 0.13995448 -0.056497905 0.016803812
0.22753571 -0.21048628 -0.22681457 0.06543688 -0.14557157 0.07926643 0.22978249 0.100537844
0.10495314 -0.027693907 0.11758173 0.020101 0.002272667 -0.20477958 0.106124975 0.03516264
0.10439515 -0.11998104 -0.07408988 -0.046720374 0.004358866 0.12588961 0.090450875 0.12083981
0.11136879 -0.13284379 0.20307565 0.05518389 0.23441929 0.008039778 0.00037200702 0.18382125
-0.2546628 -0.006776546 -0.039220225 -0.03884683 -0.0462121 0.22121075 -0.008017667 0.013101066
0.051728018 0.19409853 0.05281963 -0.14557852 -0.17983994 -0.16359755 -0.18179409 -0.13114402
0.030645454 0.2510331 -0.19050147 0.084694676 -0.13846853 0.18271916 0.21426888 0.14895532
0.15625353 -0.1673777 -0.16958976 -0.11687233 -0.012571358 0.19142218 0.0950216 -0.03437297
0.0034163182 -0.19900742 0.17495564 -0.15660776 -0.10485394 0.11102371 0.13618983 0.08289416
-0.05440308 -0.058358632 -0.011632155 -0.09384686 0.22433145 0.12904443 -0.098934986 0.13618916
-0.11409568 -0.15421279 0.084623635 0.04590622 0.21284264 0.023383038 -0.02224857 -0.17061237
0.15960464 0.17621483 -0.08951547 -0.060826804 -0.06388403 0.009036857 0.14799736 0.05770796
-0.05173957 -0.23880412 0.081574775 -0.1303 -0.051585983 -0.012637391 0.18414909 0.22047865
-0.11327087 0.022503112 0.08350658 0.11982993 -0.058397654 0.102242276 0.00049697486 0.10251164
-0.14069848 -0.26032314 0.1585926 -0.07259489 -0.062116344 0.04886914 -0.0520789 -0.14473851
-0.07035322 -0.08121101 0.019771798 -0.120924436 0.24301954 0.21927118 -0.11641427 0.11571946

actor_layer_2.weight f4 [128, 256]
00000000: 9100 40be 9348 28bd 49f0 53bc 89c4 a63c
00000010: 1c36 b83d ef18 3c3c f1e3 363d 47e5 dc3d
00000020: d80a 79bd adb0 993d d3bc 25bd 8c1e 91be
00000030: a100 30bd e6cc 1ebd 2f4f bd3d efd5 f23d
00000040: f4eb 18bd c3ab 673c 6017 9fbe 06be 86bd
00000050: f7e8 94bd 7ad6 173e e48e 573d 482a 13be
00000060: 07ee 1f3e 1ecd 5cbd 15b6 413d b60d a8bc
00000070: 6e1b 23bd 97b0 8e3a 0ec0 453e 87d4 f0bd
00000080: 8b62 1abd 55f5 b13c 0fe4 97bd e428 123c
00000090: 007f 253d e0e4 ebbc bf90 c73d 775f 0f3e
000000a0: 8515 bf3c 9f87 283d 2339 873d 2048 c1bd
000000b0: 395a 8d3d b62d ce3d ee7b 433d e110 08bd
000000c0: 903f 2a3d b6cc e03c 6fcb 343c a326 e5bd
000000d0: 05dc 793d fb44 d2ba a289 4a3d 65ac bfbd
000000e0: dc3a d3bc e348 e23d c681 8ebd 7811 60be
000000f0: 6205 763c 1e3a eb3c 9378 e0bb d75b d63c
00000100: 6bb5 aebc 493e 1d3d 3314 073c 157e 76bc
00000110: 2283 b0bd b4fd 05be 4511 bc3d aef8 b4bd
00000120: 4bb1 d1bd 1138 9f3d 14dc fd3c edd2 c4bc
00000130: dbea d7bc b98b 56bd 24b2 5abb 3d16 e1bc
00000140: 117f 3f3c 86c0 b6be f0a4 03be 872b 6c3d
00000150: 212a 053e a1b7 6c3d 43aa 563d 546e 853d
00000160: b6d6 eabd eacc 693d 8d2f 3f3d 0ea3 033d
00000170: c341 75bc 8986 533b 3ccd 233c 4fb4 383c
00000180: 439f 613d 9d0f 9dbd 6862 cd3d 52e9 81bd
00000190: fa42 b2bd c7d8 a63d 3b15 343d 59f7 023e
000001a0: 6806 a13d 7741 4fbd 5af3 0bbe 3453 c43d
000001b0: e050 6dbe 9d41 c5bc 695c 1dbd 9c03 7cbd
000001c0: 6c31 f4bd 3987 4ebe 7e87 153a cdbd 0a3e
000001d0: 6cc7 3bbd d53b 083e 7586 23be 1039 febb
000001e0: b6f0 3e3d 1160 07bd a639 4dbd 63a8 873c
000001f0: bb5b f53c a669 0e3e 8f91 063e 561c 5ebd
00000200: 2047 373d 81da 35bd 97ab 16be 6628 6b3d
00000210: 6e29 ed3c fde3 303e 0b5e fd3d 3735 f0bd
00000220: 412a 043d 605e e3bc 503f b1bc a266 5fbc
00000230: 96dc 3c3d 1d58 29be 864c 54be 87e7 2abe
00000240: 488a 7f3d fd82 4e3d 56ab 0cb9 eda6 18bc
00000250: 68f8 3ebd 5e80 0cbd ad15 263e e7a4 9abb
00000260: fe09 a9bd 967a f2bc 25ca 513d ae8c 4dbd
00000270: 0d16 2fbd 3be5 b63c ac40 87bd 5147 283e
00000280: d1e6 3cbc ec57 e63b 3c63 573d dffc 213d
00000290: d17a 063e b45b 47bc 101c c4bd 55e7 2fbe
000002a0: 2b11 b23d 3159 953d db43 2cbd dbb4 2bbe
000002b0: fc2b efbd 4e41 9cbc 013a 493b 8eb1 d1bd
000002c0: 2869 b8bc 6c6e a13b dbf8 03bd 97a1 96bd
000002d0: c5fa 82be f82f 023c 78e4 793d b356 c0bc
000002e0: 036e 873c 6a5a 81bc 6926 893d 79cd d93c
000002f0: 1c1d 8ebc e11b f13d 1d11 e8bc fc36 463c
00000300: f1ac aebc 62b2 07be 3be4 8fbd 0675 df3d
00000310: 9af9 b1bd 3f6e edbd 94f7 033c b9a4 c63c
00000320: ec1b 093d 44ac 09bd 28b9 c43d 9645 6bbd
00000330: c609 38bd c1ca 2a3c 4108 95bc 6d80 cf3d
00000340: b172 a6bc 8bcb 653d 2328 6a3d 3a13 67bb
00000350: 7e36 913d fc1e 36be 892e fe3c 27db a8bd
00000360: e68f 5b3d dfae db3d fdb0 91bd 22f0 f8bd
00000370: 4f95 923d 4f65 053d f4fd aa3d 0305 193e
00000380: 0caa cf3d e1eb 85bd fea8 4fbe 5f59 eb3d
00000390: 7db5 98be cbad 94bd 0d04 433d 57d2 8bbb
000003a0: c877 1d3d aa6c 43bd b9ee 06bd ee00 ba3d
000003b0: 3fcb 87bd 6084 983c d6ce 4db9 b496 37be
000003c0: 230b 733c baf1 bcbd f642 003c 1024 b2bd
000003d0: 5930 b4bc 9544 a33d 348c e43d a94e ffbd
000003e0: 7d11 583d 3bc8 033c 948a 35bd 3387 0a3b
000003f0: 0ab5 823c 0885 b5b8 6020 423d c8e8 23bc
-0.18750216 -0.041084837 -0.012935706 0.020357387 0.089946955 0.011480554 0.044650976 0.10785919
-0.060801357 0.07504401 -0.04046328 -0.28343618 -0.04296935 -0.038769625 0.09243619 0.11857211
-0.037334397 0.014140072 -0.3107252 -0.06579213 -0.07270997 0.1482791 0.052626505 -0.14371598
0.15618144 -0.053906552 0.047292788 -0.02051435 -0.03982108 0.0010886368 0.19311544 -0.117592864
-0.037691634 0.021723429 -0.074165456 0.008920882 0.04040432 -0.02879566 0.09744405 0.1400126
0.023325691 0.041144963 0.06602695 -0.09437585 0.06901974 0.100673124 0.04772561 -0.033219222
0.041564524 0.027441364 0.0110348305 -0.1118901 0.061000843 -0.0016042286 0.049447663 -0.093590535
-0.025784902 0.11049058 -0.06958346 -0.21881664 0.015015932 0.028714236 -0.006850311 0.02616684
-0.021326741 0.038389478 0.008244562 -0.015044709 -0.086187616 -0.13085061 0.091829814 -0.088364944
-0.10238894 0.07774366 0.03098873 -0.024026359 -0.026357105 -0.052379344 -0.003337034 -0.027476424
0.01168801 -0.3569376 -0.12855887 0.0576587 0.13004352 0.05779231 0.052408468 0.06515184
-0.11466734 0.057080187 0.046676207 0.032137923 -0.014969292 0.0032276234 0.009997662 0.011273458
0.055083524 -0.076689936 0.10028535 -0.063433304 -0.08704181 0.08146816 0.04396556 0.12789668
0.0786255 -0.05059954 -0.1366705 0.09586182 -0.23175383 -0.024079138 -0.038418207 -0.06152688
-0.11923489 -0.20168771 0.0005704089 0.13548966 -0.04584448 0.13304074 -0.1596926 -0.007758267
0.04661628 -0.0330506 -0.050103806 0.016559785 0.029950967 0.13907489 0.13141464 -0.054226242
0.044745564 -0.044397835 -0.14713894 0.057411574 0.02895042 0.1727447 0.12371453 -0.117289
0.03226686 -0.027754962 -0.021636635 -0.013635309 0.046108805 -0.16537519 -0.20732316 -0.16689883
0.062387735 0.05041789 -0.00013415268 -0.009317142 -0.046623617 -0.034302108 0.16219206 -0.004719365
-0.08253859 -0.02959947 0.05121817 -0.05018299 -0.04274564 0.022326102 -0.06604132 0.16433455
-0.01152964 0.007029524 0.05258487 0.039547797 0.13132788 -0.01216786 -0.09575665 -0.1717809
0.08694681 0.072924025 -0.0420569 -0.1676821 -0.11678311 -0.019074108 0.003070474 -0.10238944
-0.02251108 0.0049264934 -0.03221975 -0.073550396 -0.25581947 0.007946007 0.0610089 -0.023478841
0.01653195 -0.015790183 0.06696779 0.026587235 -0.017347865 0.117728956 -0.028328473 0.01209807
-0.0213227 -0.13251641 -0.070259534 0.10910992 -0.08690186 -0.115932934 0.008054633 0.024248468
0.033473894 -0.03361155 0.09605628 -0.05743941 -0.044931196 0.010424317 -0.018192412 0.10131917
-0.020318361 0.056102317 0.057167184 -0.0035259263 0.07090472 -0.17785257 0.031028049 -0.08244925
0.05360403 0.107267134 -0.07113836 -0.12155177 0.071573846 0.03256732 0.08349219 0.14943318
0.10139856 -0.06539131 -0.20279309 0.114916556 -0.29825965 -0.07259711 0.047611285 -0.004267018
0.03844431 -0.047711052 -0.032942507 0.090822086 -0.06630563 0.018617809 -0.00019627376 -0.17928582
0.014834198 -0.09225793 0.007828465 -0.086982846 -0.02199571 0.07972065 0.11159554 -0.12466175
0.052751053 0.008043344 -0.04432161 0.0021137714 0.015955467 -8.6555316e-05 0.047394156 -0.01000423

actor_layer_2.bias f4 [128]
00000000: 0cc5 8d3d 2913 81bc e2e6 aabc 53bb 823d
00000010: a90a a0bd c049 9e3d 934e b23c 1b64 e7bd
00000020: 4cd0 8ebc 02f7 a13d cf73 7a3d 5665 b83d
00000030: 6aea 90bd a56b 65bd ec44 f6bd ef31 4b3c
00000040: 7b82 82bd 0b20 ddbd a2a3 bebc a3ea 00bd
00000050: 4885 c1bc 3245 733c db1b f0bb bd3a 1b3d
00000060: 86fd 3f3e 6a46 3fbd 55fb 1bbe 22e7 0b3d
00000070: d271 f4bc 16ea 8cbd 234c 9dbb 1d19 26bd
00000080: 4e89 cabd d5f5 a4bd 97bf 8bbd f0cb 1bbd
00000090: 03f4 0a3e d1ee 90bc f4a8 123d e972 a4bd
000000a0: 1b10 febb 9b19 103c f696 b8bd 4113 cc3d
000000b0: 5e88 30bd 519b 73bd 1cb5 0abe c677 f33b
000000c0: ce07 65bd 8113 b9bd 8357 a0bd fdea 18bd
000000d0: 4ea8 4bbb 9cbc 21bd f645 17bd 65bf 523d
000000e0: e149 72bd 9560 36bd 10de 353c b04e e4bc
000000f0: c681 4cba d8f4 83bd 9ecb 433c 0b10 803d
00000100: 0808 cbbc a55b 7a3d 3568 82bd 11f5 9abd
00000110: 1605 023d 122a dd3c 1a77 4fbc fb8f b1bd
00000120: 7852 673d 4694 c4bd 09bf 443d 1a57 793c
00000130: e058 2abd e00e 943c 6107 c13b 9ad5 e5bd
00000140: b83e d5ba 7acb dfbd de53 bfbd e3c7 5ebd
00000150: 1326 04bd 5b89 1e3c 515e 64bd c19e eabc
00000160: e20e 473d d92d 6bbd f9ac 16bd ef8b 29bc
00000170: 673c d83c 229d 3b3d 002f 14bd df28 f7bb
00000180: 096f aa3d 08f5 073e 38d2 033d 12a6 4c3c
00000190: 2879 e03c 79ab 99bc ab0c 86bc 007a ba3d
000001a0: b128 4cbd 8eb1 1cbd ede3 943b 3158 8fbd
000001b0: eb67 4f3d f84f a13d bd71 b2bb b311 10be
000001c0: b931 3fbc 4f59 393e e477 583e 90f6 c43c
000001d0: 62a2 1bbd 3b39 7bbd d415 443c b454 373b
000001e0: e7b3 04bd 1834 093d a13a ab3d 9476 9cbd
000001f0: 22a0 4bbd 2f27 a73d f2ca 1f3b 2a23 1e3d
0.06922349 -0.015756207 -0.020862047 0.063833855 -0.07814533 0.077289104 0.021765983 -0.112983905
-0.017433308 0.07908441 0.0611456 0.09003703 -0.07075961 -0.05601086 -0.120248646 0.012402042
-0.063725434 -0.10797127 -0.023271386 -0.031473767 -0.023623124 0.01484804 -0.0073275394 0.037897814
0.18749055 -0.04669801 -0.15232594 0.034155972 -0.02983943 -0.06880586 -0.004800336 -0.040551294
-0.0988947 -0.08054701 -0.06823652 -0.038036287 0.13569646 -0.017692002 0.035805658 -0.0802973
-0.0077533848 0.008795167 -0.090131685 0.0996461 -0.0430988 -0.059474293 -0.1354565 0.0074300496
-0.055915646 -0.09036923 -0.078291915 -0.037333477 -0.003107566 -0.039486513 -0.036931954 0.05145206
-0.059152488 -0.0445257 0.011100307 -0.027869552 -0.000780132 -0.064431846 0.011950402 0.0625306
-0.024784103 0.061122555 -0.06367532 -0.07566274 0.03174313 0.0269976 -0.012662673 -0.0867004
0.056475133 -0.095985934 0.048033748 0.015218521 -0.041588664 0.0180735 0.005890772 -0.11222382
-0.0016269302 -0.10927482 -0.09342168 -0.054389846 -0.032262873 0.009676303 -0.05575401 -0.028640153
0.048598178 -0.05741677 -0.036786053 -0.010348304 0.02639599 0.04580415 -0.036177635 -0.007542714
0.083219595 0.13277066 0.032182902 0.012490766 0.027401522 -0.018758522 -0.016363462 0.09105301
-0.049843494 -0.038255267 0.0045437724 -0.06999243 0.050636213 0.07876581 -0.0054456876 -0.14069252
-0.01166957 0.18100475 0.21139485 0.024043351 -0.037996657 -0.061333876 0.011968095 0.002797407
-0.03239813 0.033496946 0.08360792 -0.076398045 -0.04971326 0.081617706 0.002438244 0.038607754

actor_out.weight f4 [2, 128]
00000000: bea9 12be 34de 1d3e 0b96 9f3d 2982 d9bd
00000010: aa54 1fbe 792f 43be adb7 62be a454 e4bd
00000020: b6f3 093e 56e5 cb3d 9ee8 713e ceda 09bd
00000030: 9854 8b3a ae74 59be ebaa 96be 6e7c 9a3e
00000040: ad0b d33d a3ca 1abd 4306 553d 79c4 783e
00000050: 07f1 153e ff09 863e fbea febd bf99 193e
00000060: 83a5 a2bc 2535 88be a6a3 55bd be79 293e
00000070: c237 703e e21d 9d3d 1820 c7bd 89fb 7abe
00000080: 0540 04be be0e 11be 578a d43e a48c 34be
00000090: 619f bf3b d783 9e3e 2ab3 d03c 7ef0 e5bc
000000a0: f05e 043e 81d2 a13d a935 1b3d ed8b d4bc
000000b0: 9562 f13c eaa0 583c ed6b b53d df31 02be
000000c0: b82c 683e 5bb4 db3d 8412 433e 294d 6dbe
000000d0: 95be e53d ebfc bfbe 8707 fdbd 4539 a73e
000000e0: 63a0 68be 1924 88be 5bc9 f73d 9bc2 ab3c
000000f0: 5bee 13be 1dc0 5e3e 5b54 2bbd b4ab 213e
00000100: 7dba 1e3d a267 623e 6c08 22be 3d31 d93c
00000110: e5a7 11bd eeac 25be 5b21 103d e9a6 413c
00000120: d790 503e 8985 80bc 6428 1abd 5f5f f83d
00000130: b7a3 333e 1c1f 303d 4680 e33d e6d4 69be
00000140: db40 313d 911b c83d 3528 b53e e094 933e
00000150: 3db3 643e 091a 863d 8a0f 5b3e 719f 683e
00000160: 072b a83c 6deb 22be 8ba4 8cbe 46da 773d
00000170: 0a5d e0bd 39f7 1e3c 2d1a 443e 6feb 15bd
00000180: f0de b13e 6ddc 823c 3432 ae3d d44a 3e3e
00000190: 1983 623e 07d7 25be 3f7d 4b3e bedb 263c
000001a0: ab96 ff3d f2de c03d 7263 003e c04a 553d
000001b0: 1222 9f3d ebda 1c3e 8979 293e 2127 21be
000001c0: 09c2 963d 3c34 25bb 34eb fe3b 47e0 763e
000001d0: cb71 ccbd e8b3 34be 8ca6 343e 4036 9abd
000001e0: 843e f9ba c570 d83d 2739 50bd 397b 02be
000001f0: 5493 b2bd a8b2 873d 4234 85be 6ada ebbd
00000200: ae50 ccbc b8c4 003e d3a0 713e efd5 32be
00000210: 1007 5b3e 762b 0abe d4b5 6d3d da88 123e
00000220: 539c bfbe 8b83 32be d7bf 483e 245c d4bd
00000230: 43fb 033e b7d1 11be b80d 8d3d ff9c 63bd
00000240: 2f32 863e b7d1 793e 5b12 c63c afb1 0b3c
00000250: 4fa8 6b3e aedc 823d f7b5 adbc c426 b7bd
00000260: b612 15be 1e72 ddbc df16 843e d0ea 4cbd
00000270: 0c38 0f3e 97ca 7c3e 9c92 183e 55c1 d53e
00000280: 34e0 d73d 59ca d43d b751 81be bad2 5cbd
00000290: 0b21 ebbd d000 dc3d ddce e3bc 0d26 b03e
000002a0: 5171 133e f1fa 783e 88a9 a53e ecd5 f3bd
000002b0: 73f8 e33d 5228 cb3e fdc6 983e 01cb 593e
000002c0: 767b 38bd b33f d43e d442 9abe 2166 34bd
000002d0: 382b 22be a3ae e43d 4ba0 8a3b 0f8c 7a3e
000002e0: 42a5 533d 3944 f43e 14c9 9ebb 6e4c 093e
000002f0: 4cf4 533d 02d4 523e 312e b0bd ec7e abbd
00000300: 939d 3d3e f56b 63bd dcf4 283e 09b2 5f3e
00000310: 2b7e ebbd b15a b13d b8a2 1b3d 7cff 813e
00000320: 671b 473e 3982 353e 1f7a 96bd 3ff6 373e
00000330: 8df8 d4bb f3b7 433e 6bef 56be 1ffd de3d
00000340: c13d 083e ae9f 4a3e 1f76 a5be f9bf 68be
00000350: d594 de3d f61e 473e d672 8cbe 0b6d b1bc
00000360: 9cf1 0d3d 0da7 32ba 9369 5c3e 1167 4d3e
00000370: 88bf 9bbb 6e82 5fbe 0cbe 2f3e 286c de3c
00000380: 5012 69be 131a 02be 4f76 d33c fd90 c93d
00000390: 40bc 763e f99a 2b3e 058d 33bd 5e2c 23be
000003a0: b2ef 433e b95f ec3d 4e52 e9bd 8c6e 023e
000003b0: 047e 8bbe 3ca1 4d3d 6d9a 84be 8fc0 5f3e
000003c0: 0d27 b03c 2eb8 31be 7932 3cbe f19a f9bc
000003d0: f245 a8bd 56d2 0f3e 2e40 b03e b840 8b3c
000003e0: a951 663e e160 053e 21fe dfbd e37f 813e
000003f0: 24d9 1c3e 02d0 17bd 94d8 243d 06b3 09be
-0.14322564 0.15416795 0.0779229 -0.10620529 -0.1555964 -0.19061078 -0.22140379 -0.111489564
0.13471875 0.09955852 0.23623893 -0.033655934 0.0010630069 -0.21235916 -0.29427275 0.30173057
0.10304961 -0.037790906 0.052007925 0.24293698 0.14642726 0.261795 -0.12447163 0.15000056
-0.019854313 -0.26603046 -0.05215802 0.16550347 0.2345877 0.07671715 -0.09722918 -0.24510016
-0.12915047 -0.1416578 0.41511795 -0.17631775 0.005847857 0.3095996 0.025476057 -0.028068777
0.12926841 0.079014786 0.03789297 -0.025945628 0.029465953 0.013221959 0.08858476 -0.12714337
0.22673309 0.107277595 0.19050032 -0.23173966 0.11217991 -0.3749765 -0.12354951 0.3266088
-0.22717433 -0.2659004 0.120989524 0.020966819 -0.14446394 0.21752973 -0.041828495 0.15788156
0.038752068 0.22109845 -0.15823525 0.026512736 -0.035560507 -0.16179249 0.03518806 0.01181958
0.20367752 -0.015688675 -0.037636176 0.121275656 0.17542921 0.04299842 0.111084506 -0.2283512
0.04327474 0.09770883 0.35382238 0.2882452 0.22333999 0.065479346 0.21392646 0.22717072
0.02052833 -0.1591012 -0.27469286 0.060510896 -0.10955246 0.009702497 0.1915061 -0.03660148
0.347404 0.015974248 0.08505669 0.18583232 0.22120322 -0.16195308 0.19871996 0.010184227
0.124799095 0.094175234 0.12537935 0.05207324 0.0777017 0.15317886 0.16550268 -0.15737583
0.07361228 -0.0025208136 0.0077795032 0.24108993 -0.09982642 -0.17646754 0.17641658 -0.075298786
-0.0019015823 0.10568384 -0.050835755 -0.12742318 -0.08719507 0.06625873 -0.26016432 -0.115162686
-0.024940815 0.12575042 0.23596506 -0.17464422 0.21389413 -0.13493142 0.058034733 0.14310017
-0.37423953 -0.17432992 0.19604431 -0.10369137 0.12888817 -0.14240156 0.06887382 -0.055569645
0.26210162 0.24396406 0.024178674 0.00852625 0.23013423 0.063897476 -0.021204932 -0.08942941
-0.14557919 -0.027031954 0.257987 -0.050028622 0.13986224 0.24686657 0.14899677 0.41749063
0.1054081 0.10390157 -0.25257656 -0.053911902 -0.11480912 0.107423425 -0.027808601 0.3440403
0.14398696 0.24314477 0.32355905 -0.11906037 0.11131372 0.396792 0.29839316 0.21268846
-0.045039617 0.4145485 -0.3012911 -0.04404271 -0.15836799 0.11166122 0.004230534 0.2446749
0.051671274 0.477083 -0.0048457477 0.13408062 0.05174665 0.20588687 -0.0860256 -0.08373818
0.18517141 -0.055522878 0.16499656 0.21845259 -0.11498674 0.08659876 0.037996978 0.25390232
0.19444047 0.17725457 -0.073475115 0.17965029 -0.006499356 0.1911314 -0.20989768 0.10888123
0.13304807 0.19787475 -0.32316682 -0.22729482 0.10868231 0.19445404 -0.27431363 -0.021658441
0.034654245 -0.00068150536 0.21524648 0.20058848 -0.004753057 -0.21827099 0.17162341 0.027151182
-0.22760892 -0.12705259 0.02581325 0.098421074 0.24095249 0.16758336 -0.04383566 -0.15934893
0.19134405 0.11541695 -0.113926515 0.12737483 -0.2724458 0.050202593 -0.25899068 0.21850799
0.021502996 -0.17355415 -0.18378629 -0.03046939 -0.08216466 0.1404508 0.34423965 0.016998634
0.22492088 0.13025238 -0.10937143 0.25292882 0.15317208 -0.037063606 0.040245607 -0.13447198

actor_out.bias f4 [2]
00000000: c5f2 bcbc cd1a fabd
-0.02306498 -0.12212143
