p3_collab-compet/actor_1_weights.pth (torch_old, 159224 bytes, 6 tensors)

actor_layer_1.weight f4 [256, 24]
0	0x3e2431ca	0.16034618
1	0xbcbc0223	-0.022950238
2	0xbd06a5d4	-0.03287299
3	0xbd548761	-0.05188692
4	0x3c2e2206	0.010628229
5	0xbe894d1c	-0.26816642
6	0xbce810fb	-0.02832841
7	0x3ccdcd54	0.025122322
8	0x3e24615e	0.16052768
9	0xbbfb2cb0	-0.0076652393
10	0xbd567824	-0.05236067
11	0xbe28fed7	-0.16503464
12	0x3d82ff3a	0.06396337
13	0xbe92f6b0	-0.28703833
14	0x3c1ed731	0.00969486
15	0xbde50aae	-0.111836776
16	0x3e0f270e	0.13979742
17	0xbe076d2e	-0.13225242
18	0x3baf1a18	0.005343687
19	0xbe08c93e	-0.13358018
20	0x3c65ebf0	0.014033303
21	0xbe146085	-0.14489944
22	0x3d90e453	0.070747994
23	0xbe370a30	-0.1787498
24	0xbd4ca472	-0.049961515
25	0x3e0f882c	0.14016789
26	0xbda92d77	-0.08260625
27	0x3d2452d8	0.04011807
28	0xbdf17604	-0.11790088
29	0xbdc028f6	-0.09382813
30	0xbd97bbf9	-0.074089
31	0xbd579aae	-0.05263775
32	0xbd99a688	-0.075024664
33	0x3d6ec40e	0.05829244
34	0x3d877290	0.06613648
35	0xbcc37372	-0.02385876
36	0xbdd5e4bb	-0.104440175
37	0xbd3e3ed3	-0.046446633
38	0x3c9952d7	0.018716259
39	0xbc621049	-0.013797828
40	0xbd0a358b	-0.03374247
41	0x3d3ef217	0.046617594
42	0xbd9632e7	-0.073339276
43	0x3c64f1ae	0.013973637
44	0x3d4db597	0.050222006
45	0xbd89751d	-0.06711791
46	0xbce666ff	-0.028125284
47	0xbcc76a9f	-0.024342833
48	0xbe3e823f	-0.18604372
49	0x3d930ea6	0.07180528
50	0x3d8acdb3	0.06777515
51	0xbd60055a	-0.054692604
52	0xbe162356	-0.14661917
53	0x3b6ed8fc	0.003644525
54	0xbc759382	-0.014988782
55	0xbdde8480	-0.10865116
56	0xbdb0d6c0	-0.0863471
57	0x3d0a1982	0.033715732
58	0x3ba7f473	0.005125576
59	0xbe11a5e7	-0.14223443
60	0xbc72c915	-0.0148184495
61	0xbd114252	-0.03546364
62	0x3cc724f0	0.024309605
63	0xbdfaac98	-0.12239951
64	0xbd64fe5f	-0.05590665
65	0x3d4aa243	0.04947115
66	0xbd24e052	-0.04025299
67	0x3c6fe7ff	0.0146427145
68	0x3d8132db	0.06308528
69	0xbe08d102	-0.1336098
70	0x3bc8c43e	0.0061269095
71	0x3db7d763	0.08976629
72	0x3df953aa	0.12174161
73	0xbd1624de	-0.036656253
74	0xbc96ed66	-0.018423747
75	0xbbd776a6	-0.0065754233
76	0x3d4bde33	0.049772453
77	0xbe0e0b4d	-0.13871498
78	0x3bb0d118	0.0053960197
79	0xbc5dc644	-0.01353604
80	0x3db244ea	0.087045506
81	0xbd10d22d	-0.03535669
82	0xbd9a1017	-0.075226
83	0x3e0509ab	0.1299197
84	0x3d8edccf	0.0697571
85	0xbe04a3a1	-0.12953044
86	0xbd16a329	-0.036776695
87	0x3e4e9b93	0.20176534
88	0x3e2ff54c	0.17183417
89	0x3d86d067	0.06582718
90	0xbd293258	-0.041307777
91	0x3e9145f3	0.2837368
92	0x3d298c4c	0.041393563
93	0xbca2d29b	-0.019875815
94	0x3d61fe12	0.05517394
95	0x3ea06813	0.31329402
96	0xbdbb17d0	-0.09135401
97	0x3d1b7e56	0.03796228
98	0x3c1ea4de	0.009682862
99	0x3dc75408	0.097328246
100	0x3e028927	0.12747632
101	0xbdbcc369	-0.09216959
102	0xbdc4bbe3	-0.09606149
103	0x3ccd8daa	0.025091965
104	0xbd526f41	-0.05137563
105	0x3dcc3da7	0.09972697
106	0x3d1215de	0.035665385
107	0xbd78d16c	-0.060746595
108	0x3d9bdfb0	0.076110244
109	0x3daf9f53	0.085753106
110	0x3d6c20c8	0.05764845
111	0x3bd7167e	0.0065639606
112	0xba45d6a9	-0.00075469405
113	0x3decfe57	0.11571949
114	0xbc361ab9	-0.01111477
115	0xbe132608	-0.14369977
116	0xbe007a22	-0.1254659
117	0x3e87f054	0.26550543
118	0x3ce182fe	0.027528282
119	0xbd9a83b2	-0.0754465
120	0x3c54beb8	0.012984924
121	0x3d6019b3	0.05471201
122	0xbd237765	-0.039908785
123	0xba962f6a	-0.0011458222
124	0x3d7826a6	0.060583733
125	0xbdaa73fc	-0.083229035
126	0x3d1ce5ad	0.038304973
127	0x3c8bf0db	0.017082622
128	0x3bf9ea8b	0.0076268367
129	0x3d721a56	0.059107147
130	0x3b2de3da	0.0026533515
131	0xbc60c6e2	-0.013719292
132	0xbdda3a90	-0.10655701
133	0xbc1496aa	-0.009069124
134	0x3d8fdde3	0.070247434
135	0x3c48cab5	0.01225536
136	0x3d327796	0.043571077
137	0xbda3eb60	-0.080038786
138	0x3d908850	0.070572495
139	0x3d0e4ab0	0.034739196
140	0xbdec8e2d	-0.115505554
141	0x3e3bc48c	0.18336695
142	0x3da168fe	0.07881354
143	0x3c0bf674	0.008542646
144	0xbbcd22c5	-0.0062602484
145	0x3e00c13a	0.1257371
146	0x3d1089fb	0.03528784
147	0x3cefb0a2	0.02925903
148	0x3cdbb74c	0.026820801
149	0xbc749fe3	-0.014930698
150	0x3d807b45	0.06273512
151	0x3df34c98	0.118798435
152	0x3e05a702	0.1305199
153	0x3dc539e7	0.096301846
154	0x3c6f68ef	0.01461242
155	0xbd05d5bd	-0.03267454
156	0x3c2c8b2f	0.010531231
157	0xbcc853ed	-0.024454081
158	0xbbd94c76	-0.0066314293
159	0xbcc832c3	-0.024438268
160	0x3e15ce9f	0.14629601
161	0x3dfa7a48	0.122303545
162	0x3d1fdff0	0.039031923
163	0xbcaadd6d	-0.020857537
164	0x3e0cea37	0.13761221
165	0xbe7d8226	-0.24756679
166	0x3d1776e0	0.036978602
167	0x3c2256d6	0.009908399
168	0xbd17eaef	-0.037089285
169	0x3cf455b6	0.029826026
170	0xbd435e63	-0.047697436
171	0xbcae64f3	-0.02128837
172	0xbcbd5ff5	-0.023117045
173	0xbd40074f	-0.04688197
174	0xbca21767	-0.01978655
175	0xbd896c55	-0.06710116
176	0xbd4bcd3f	-0.049756285
177	0x3d73572e	0.059409313
178	0x3965f3b1	0.00021929924
179	0xbdcaebea	-0.09908278
180	0xbd863b4e	-0.0655428
181	0xbc5366c6	-0.012902921
182	0x3c5f5449	0.013630935
183	0xbdbb8be4	-0.091575414
184	0x3b1ddb05	0.0024086845
185	0x3cf3da79	0.029767262
186	0x3d112113	0.035431933
187	0xbd999fee	-0.07501207
188	0xbce7ff10	-0.028319865
189	0xbd1c3814	-0.038139418
190	0x3de55575	0.1119794
191	0xbdc189a6	-0.094500825
192	0xbdaceac7	-0.08443218
193	0x3e100e7e	0.14068028
194	0xbad14fa7	-0.0015969173
195	0xbda76471	-0.081734546
196	0xbaa6a058	-0.0012712581
197	0xbd5ccc98	-0.053906053
198	0x3a60b07c	0.000857122
199	0xbddb5687	-0.10709863
200	0x3a6a0501	0.0008927137
201	0x3dc82904	0.09773448
202	0xbb8f8a6c	-0.004380515
203	0xbe1632eb	-0.14667861
204	0xbdc225b0	-0.094798446
205	0x3dff6d69	0.1247204
206	0x3c81b432	0.015832994
207	0xbdf9b984	-0.121935874
208	0x3d90ab9d	0.07063983
209	0x3d04ce3b	0.03242324
210	0xbbd0624a	-0.006359373
211	0xbe646d9f	-0.22307442
212	0xbe64787c	-0.22311586
213	0x3e8c4a58	0.2740047
214	0xbdac1dea	-0.08404143
215	0xbe942513	-0.28934535
216	0x3d2a9e64	0.04165496
217	0xbde8d3d2	-0.113685265
218	0x3ce4a110	0.027908832
219	0x3d2abf72	0.041686483
220	0xbd08ba5f	-0.033380862
221	0x3ceb8201	0.028748514
222	0x3ca1a918	0.01973395
223	0x3d72cc9e	0.05927717
224	0xbd2bca8e	-0.041941218
225	0xbe253145	-0.16132076
226	0x3d4fc2f4	0.05072303
227	0x3cd34246	0.025788438
228	0xbdca2a04	-0.09871295
229	0x3dc4e854	0.096146256
230	0x3bb2b3e0	0.0054535717
231	0xbd365072	-0.044510312
232	0x3ccf04f4	0.025270917
233	0xbe4adcbc	-0.19810766
234	0xbcc59156	-0.024117153
235	0x3e56406d	0.20923014
236	0xbe30995f	-0.17246006
237	0x3db9573c	0.09049842
238	0x3d952ae4	0.07283571
239	0x3e3b80ff	0.18310927
240	0xbde8538b	-0.113440596
241	0xbdd14887	-0.102189116
242	0xbd88651c	-0.0665991
243	0xbd707646	-0.058706544
244	0xbe339e48	-0.17540848
245	0x3ddc86c8	0.10767895
246	0xbddf2f5a	-0.108977035
247	0xbb406799	-0.0029358624
248	0xbd4fdd14	-0.050747946
249	0xbdc586a6	-0.09644823
250	0x3d388ac7	0.045054223
251	0x3cee0a27	0.029057575
252	0x3d8da421	0.06916071
253	0x3d811cdf	0.06304335
254	0x3b71dd72	0.0036905673
255	0x3d4f041f	0.05054104

actor_layer_1.bias f4 [256]
0	0x3b3519fe	0.00276339
1	0x3e09bea0	0.13451624
2	0x3e5e30cb	0.216983
3	0xbd88115a	-0.066439345
4	0xbd282b88	-0.04105714
5	0xbe17602a	-0.14782777
6	0xbe4146b6	-0.1887463
7	0x3bbd22e8	0.0057719834
8	0xbe868ad0	-0.2627778
9	0xbe19bdca	-0.15013805
10	0x3de5d0b8	0.112214506
11	0x3d90f32c	0.07077631
12	0x3e411bb5	0.18858226
13	0xbe1329a4	-0.14371353
14	0xbc483b5e	-0.0122211855
15	0x3e84c7eb	0.25933775
16	0x3d037c64	0.03210105
17	0x3dae4ec7	0.08511119
18	0xbd272c51	-0.040813748
19	0xbe2617f2	-0.16220072
20	0x3e0cd13d	0.13751693
21	0xbdaa5c0e	-0.08318339
22	0x3d86fe69	0.06591494
23	0xbd4d4b11	-0.050120417
24	0x3d76a587	0.060216453
25	0xbdd7c857	-0.10536259
26	0x3e068946	0.13138303
27	0x3cd53f83	0.026031261
28	0xbd78e441	-0.060764555
29	0xbcc609ce	-0.024174597
30	0xbde571bb	-0.11203333
31	0xbda7129c	-0.08157846
32	0xbbe4507f	-0.0069676037
33	0x3e1045da	0.14089146
34	0xbe3098db	-0.1724581
35	0x3e1bd1a7	0.15216695
36	0xbdd3006f	-0.10302817
37	0x3e87e588	0.26542306
38	0xbdedadf4	-0.116054446
39	0x3d9142f3	0.07092848
40	0xbdcb0a7b	-0.09914108
41	0xbe7349e3	-0.23758654
42	0x3e121a50	0.1426785
43	0xbe080624	-0.13283592
44	0xbd0a76a5	-0.033804554
45	0xbda9f45c	-0.08298561
46	0xbe279b5d	-0.1636786
47	0xbd2b3741	-0.04180074
48	0x3e78f306	0.24311456
49	0x3dae289d	0.0850384
50	0xbe1bc97f	-0.15213583
51	0x3e395b5d	0.18101259
52	0xbe03aa56	-0.12857947
53	0xbe2b6de7	-0.16741143
54	0x3e18e943	0.14932732
55	0x3cb9cc0d	0.022680307
56	0x3d87cc85	0.06630806
57	0xbd85f7a2	-0.06541373
58	0xbde81eab	-0.113339745
59	0x3e54cf5e	0.2078223
60	0xbe0c04b5	-0.1367367
61	0x3dceb350	0.10092795
62	0xbd819380	-0.063269615
63	0xbdbf6e0c	-0.09347162
64	0x3e328fdc	0.1743769
65	0xbd872dc4	-0.06600526
66	0xbd86ad25	-0.065759934
67	0x3e60632d	0.21912833
68	0xbe38cfc9	-0.18048014
69	0xbcdc47d1	-0.026889713
70	0xbd17904b	-0.037002843
71	0xbdc57a61	-0.096424825
72	0xbe6e41e1	-0.23267318
73	0xbdfd92da	-0.12381525
74	0xbd99a4da	-0.07502146
75	0x3e172ad2	0.14762428
76	0x3e07d138	0.13263404
77	0x3e9081f8	0.28224158
78	0x3d3bfe41	0.045896772
79	0x3d30980f	0.043113764
80	0xbd94a90e	-0.07258807
81	0xbd36caaa	-0.04462687
82	0xbe60c830	-0.21951365
83	0xbe07eefe	-0.13274762
84	0x3d6e7520	0.058217168
85	0x3d48c15d	0.04901253
86	0xbde0b673	-0.109722994
87	0xbc71f8d0	-0.014768794
88	0xbdaffdae	-0.085933074
89	0x3e1e51bf	0.15460871
90	0x3d385841	0.04500604
91	0x3b889b2c	0.0041688886
92	0xbe1d7103	-0.15375142
93	0x3e2ec91b	0.17068903
94	0xbe1f2a06	-0.15543374
95	0xbe83a319	-0.2571037
96	0x3e54c385	0.2077771
97	0xbd7a2e98	-0.06107959
98	0x3e2ff612	0.17183712
99	0x3deb2075	0.114808
100	0x3db28b08	0.08717924
101	0xbd22ca70	-0.03974384
102	0x3c333e26	0.01094011
103	0x3dbcf01f	0.09225487
104	0xbd7a4fa9	-0.061111126
105	0x3e21c566	0.15797958
106	0x3e430649	0.19045366
107	0x3daa968a	0.08329494
108	0x3ddc638a	0.10761173
109	0xbd9ddc03	-0.077079795
110	0xbd48ca6c	-0.04902117
111	0xbdeaad16	-0.11458795
112	0xbe53c9c7	-0.2068244
113	0xbe806487	-0.25076696
114	0x3d098de1	0.033582572
115	0x3ceb0572	0.02868912
116	0x3e6eb094	0.23309547
117	0xbe80b7c6	-0.25140208
118	0xbdec524b	-0.11539134
119	0x3d3011c0	0.042985678
120	0xbd8d6c50	-0.069054246
121	0xbc06090b	-0.008180867
122	0x3ddb190a	0.10698135
123	0x3e1d17c5	0.15341099
124	0x3d8ca12c	0.068666786
125	0x3d2ce500	0.04221058
126	0x3b40905f	0.0029382927
127	0x3d125995	0.035729963
128	0x3d0814f4	0.033223107
129	0xbdfe4240	-0.1241498
130	0xbd6dd392	-0.058063097
131	0x3e58dde5	0.21178396
132	0xbe301286	-0.17194566
133	0x3d648b79	0.055797074
134	0x3e13d112	0.14435223
135	0x3d8ccd25	0.06875066
136	0x3e27aa34	0.16373521
137	0x3de5f379	0.11228079
138	0x3d8a2e75	0.06747142
139	0x3e0e0cc2	0.13872054
140	0x3d5abe75	0.05340429
141	0xbdcf6da1	-0.10128332
142	0x3def229f	0.11676525
143	0xbdd7627f	-0.105168335
144	0x3d5c435a	0.05377517
145	0xbe1f2e46	-0.15544996
146	0xbb85566b	-0.0040691397
147	0xbdf19a1f	-0.117969744
148	0xbb9df416	-0.004820357
149	0x3e3372a0	0.17524195
150	0x3d586d93	0.052838873
151	0x3e5746cc	0.210231
152	0x3e26341b	0.16230814
153	0xbe37675a	-0.17910519
154	0x3e707663	0.23482661
155	0x3ddb2ad0	0.10701525
156	0x3e355a9d	0.17710347
157	0xbb6774db	-0.0035317454
158	0x3b9b23e8	0.004734505
159	0x3e09bf7d	0.13451953
160	0xbe0668d7	-0.1312593
161	0x3d53252f	0.051549133
162	0xbd8a5bb7	-0.067557745
163	0x3d3970e7	0.045273688
164	0xbdb918ab	-0.09037908
165	0x3e7f2b1d	0.2491879
166	0xbcead100	-0.028664112
167	0x3e078638	0.13234794
168	0x3da96cb6	0.08272688
169	0x3e02a0ff	0.12756728
170	0xbcdcb16d	-0.026940072
171	0xbe125122	-0.14288762
172	0xbe0f3780	-0.13986015
173	0xbdeca6e2	-0.11555268
174	0xbe945b47	-0.2897589
175	0xbd58acee	-0.052899294
176	0xbcfc0fdf	-0.030769287
177	0x3e9a52cf	0.30141303
178	0xbdedda51	-0.11613906
179	0x3dc9d669	0.098553486
180	0xbdf045aa	-0.11732037
181	0x3d8210b9	0.06350846
182	0x3e5cb009	0.21551527
183	0x3d16d6bc	0.03682588
184	0x3e1193d0	0.14216542
185	0xbe7815e4	-0.242271
186	0xbea361e0	-0.3191061
187	0xbde4a39a	-0.11164017
188	0x3cd76fd7	0.026298447
189	0x3e46b8b4	0.19406396
190	0x3e3c2143	0.18372063
191	0x3e069092	0.13141087
192	0x3c9f9a50	0.019482762
193	0xbd9af39b	-0.07565995
194	0x3e70760f	0.23482536
195	0xbdff8e0d	-0.12478266
196	0xbe3cfd08	-0.18455899
197	0x3da8dc68	0.08245164
198	0x3da8a0b1	0.082337745
199	0x3e2e861e	0.17043349
200	0xbd2a0e5f	-0.04151761
201	0x3c0cc308	0.008591421
202	0x3daddfb4	0.084899336
203	0xbe1ae5ca	-0.1512672
204	0x3e71b13b	0.23602764
205	0x3e295686	0.16536912
206	0xbe058c0f	-0.1304171
207	0x3e1b79c3	0.15183167
208	0xbdb89b7e	-0.09014033
209	0xbdd5ea68	-0.104451
210	0xba0f3d31	-0.00054641353
211	0xbe2278d9	-0.15866412
212	0x3e08eb9a	0.13371125
213	0x3c91c9c1	0.0177964
214	0xbc8bf7a2	-0.017085854
215	0xbe87f94c	-0.26557386
216	0x3de43c21	0.11144281
217	0x3ddb0a3b	0.10695311
218	0x3dca0c12	0.098655835
219	0x3d5ab141	0.0533917
220	0xbe08c05f	-0.13354634
221	0x3d9b6ed3	0.075894974
222	0x3e52b8b9	0.20578279
223	0xbd5626c4	-0.052283064
224	0x3d2b8174	0.041871503
225	0xbe08a826	-0.13345394
226	0xb98fe196	-0.0002744316
227	0xbd580158	-0.052735656
228	0xbd243efd	-0.040099133
229	0xbc1585aa	-0.009126106
230	0x3e53c0c0	0.20678997
231	0x3ceefae2	0.029172365
232	0xbd0cfc62	-0.03442038
233	0xbde68e4f	-0.11257612
234	0x3d6d49c8	0.05793169
235	0x3de0a0b7	0.10968154
236	0xbe4c194d	-0.19931526
237	0x3e1efdac	0.15526456
238	0x3d578831	0.052620117
239	0x3dfecabb	0.124410115
240	0xbe5072d1	-0.20356299
241	0xbd5b57a1	-0.053550366
242	0xbd93e377	-0.0722112
243	0xbda0ad3a	-0.0784554
244	0xbc251b40	-0.010077298
245	0x3e7e6693	0.24843816
246	0x3d821a59	0.06352682
247	0xbdf9caaa	-0.12196858
248	0xb80a8641	-3.3026798e-05
249	0xbe31e5ba	-0.1737279
250	0xbda91b7a	-0.08257194
251	0xbe451650	-0.19246793
252	0x3e693869	0.22775425
253	0x3e30f7e2	0.1728206
254	0xbe42e805	-0.19033821
255	0x3db928ea	0.09041007

actor_layer_2.weight f4 [128, 256]
0	0xbe0abdff	-0.1354904
1	0xbde1b94f	-0.11021673
2	0x3d1c9265	0.03822555
3	0x3db5007f	0.08837985
4	0xbbb8f956	-0.0056449575
5	0x3bdd1036	0.0067463173
6	0x3a5881f0	0.0008259108
7	0x3e063259	0.13105144
8	0xbd325d4d	-0.04354601
9	0x3e012b73	0.12614231
10	0xbde60dd5	-0.11233107
11	0xbdd75820	-0.105148554
12	0xbd152bdf	-0.03641879
13	0xbdfceff7	-0.12350457
14	0x3daa1004	0.08303836
15	0x3da8636e	0.0822209
16	0x3dbbb99c	0.091662616
17	0xbdb64102	-0.08899118
18	0xbc719af6	-0.014746418
19	0xbe1fcb20	-0.1560483
20	0x3d4a1cf6	0.049344026
21	0x3d331b55	0.043727238
22	0x3c9248a5	0.017856905
23	0xbde90183	-0.113772415
24	0x3db712a6	0.08939104
25	0xbe29f6c0	-0.16598034
26	0xbe57b00c	-0.2106325
27	0xbe49af2c	-0.19695729
28	0x3d61a811	0.05509192
29	0xbd8b9dba	-0.06817193
30	0xbaa98093	-0.0012931995
31	0xbe0a70b6	-0.13519558
32	0x3c4abc56	0.012374004
33	0xbe1ff916	-0.15622362
34	0x3e3acf25	0.18243082
35	0xbb8891e7	-0.0041677835
36	0x3d853b5d	0.06505463
37	0xbd9103da	-0.07080813
38	0x3d949a03	0.07255938
39	0x3e0e0a3f	0.13871096
40	0x3d49e981	0.049294952
41	0xbc67c958	-0.014147125
42	0xbd843fc1	-0.064574726
43	0x3bc01fb4	0.0058631543
44	0x3e17e028	0.14831603
45	0x3e864304	0.26223004
46	0x3d64183b	0.05568717
47	0xbdc08de3	-0.09402063
48	0xbc9e85a4	-0.019350834
49	0xbcc159ca	-0.023602385
50	0xbc82dd72	-0.015974734
51	0xbd99f9e0	-0.07518363
52	0x3e1b6fe3	0.151794
53	0xbe1a9e80	-0.15099525
54	0xbe34d886	-0.17660722
55	0xbe6f3460	-0.23359823
56	0x3de8ec52	0.113731995
57	0x3e5013f6	0.20320114
58	0xbca53442	-0.02016652
59	0xbd249358	-0.04017958
60	0x3974ad5f	0.00023334239
61	0xbd5f91bb	-0.05458234
62	0x3da8a172	0.08233918
63	0xbcc553b8	-0.024087772
64	0xbd5a6d7c	-0.05332707
65	0x3bab30d2	0.0052243257
66	0xbcd116fb	-0.025523653
67	0x3c88e143	0.016708976
68	0xbd8f4797	-0.069960766
69	0xbad1919d	-0.0015988831
70	0xbd4b5393	-0.04964025
71	0xbe330349	-0.17481722
72	0xbb831992	-0.004000851
73	0xbbdbfc84	-0.006713452
74	0x3d08af9c	0.0333706
75	0x3d9e3947	0.077257685
76	0xbd40c9b5	-0.047067363
77	0xbdc98c36	-0.09841196
78	0x3d871ed4	0.06597677
79	0x3ba895c1	0.005144805
80	0x3d865fbe	0.0656123
81	0xbda33af2	-0.07970227
82	0x3d5a3d79	0.05328128
83	0xbd45edb3	-0.04832239
84	0x3daea6c1	0.085278995
85	0xbc90fac7	-0.017697705
86	0xbd9c7922	-0.07640292
87	0x3c6e9b3f	0.014563381
88	0xbcab9614	-0.020945586
89	0xbd458a8d	-0.048227835
90	0x3ddf28d2	0.10896458
91	0xbdf5b94c	-0.11998233
92	0xbdf29027	-0.11843901
93	0x3d85a983	0.065264724
94	0xbdcea819	-0.10090656
95	0x3e1d2782	0.15347102
96	0x3e0c7fb0	0.13720584
97	0xbe82c65e	-0.25541967
98	0x3d77a40a	0.060459174
99	0xbe4775f0	-0.19478583
100	0x3d3c2b49	0.045939717
101	0x3dbaedbe	0.09127377
102	0x3dd1f4d6	0.10251777
103	0x3d847c06	0.06468968
104	0x3df0a085	0.11749367
105	0x3d830f3a	0.063993886
106	0xbc6604e9	-0.014039257
107	0xbce18fac	-0.027534328
108	0x3d19e454	0.037571266
109	0x3d9fa4e3	0.077951215
110	0xbd41a0b2	-0.04727239
111	0xbda1c0e5	-0.0789812
112	0xbc64dc26	-0.013968503
113	0x3e1d7829	0.15377869
114	0xbdd5ce80	-0.104397774
115	0x3d04874a	0.032355584
116	0x3da43dbe	0.08019589
117	0xbda4d6d7	-0.0804879
118	0x3d21c715	0.0394965
119	0x3e1ab6ea	0.15108839
120	0x3debbb04	0.1151028
121	0xbbd1f9ce	-0.006407953
122	0xbda1c4d8	-0.07898873
123	0x3d917c44	0.0710378
124	0xbd3cef56	-0.046126686
125	0x3dd41fa3	0.10357597
126	0x3d29884f	0.04138976
127	0xbccc732d	-0.024957264
128	0xbd099cd2	-0.03359682
129	0x3bc8ec77	0.0061317044
130	0xbdf4c285	-0.11951164
131	0x3d3b461d	0.045721162
132	0x3b2ea6ea	0.0026649782
133	0x3e31beba	0.17357913
134	0xbc1ade72	-0.009452449
135	0xbd91cf95	-0.07119671
136	0xbd57366b	-0.05254213
137	0xbbd65d6c	-0.0065418985
138	0xbdbb0b5a	-0.091330245
139	0x3cc6e60c	0.024279617
140	0xbd546014	-0.05184944
141	0x3dadfb2c	0.08495173
142	0x3e1050a8	0.14093268
143	0x3dc96ed4	0.09835592
144	0x3db0d743	0.08634808
145	0x3de5042d	0.11182437
146	0x3bab8434	0.0052342657
147	0x3d8d1ab0	0.06889856
148	0xbcf630e7	-0.030052615
149	0xbce85e50	-0.028365284
150	0x3e0819b7	0.1329106
151	0xbd69290d	-0.056923915
152	0xbc84f31b	-0.016229203
153	0x3d903c6d	0.07042775
154	0x3d5a9fa2	0.053374894
155	0x3d88fa42	0.06688358
156	0x3c8f3f96	0.017486375
157	0x3d436e58	0.047712654
158	0x3dd99c1d	0.10625479
159	0x3e0b7b9b	0.1362137
160	0x3de9bb37	0.114126615
161	0xbd768f82	-0.060195453
162	0x3d35b5d3	0.044362854
163	0xbdcf1603	-0.1011162
164	0x3d47e724	0.048804417
165	0xbda03520	-0.07822633
166	0xbd97be6a	-0.074093655
167	0x3d0b8735	0.03406449
168	0xbdbf9d51	-0.093561776
169	0xbc03dc9a	-0.008048201
170	0xbd7ea270	-0.06216663
171	0xbd0becf4	-0.034161523
172	0xbd016db3	-0.031598758
173	0xbcce5ebc	-0.025191657
174	0x3d3269aa	0.0435578
175	0xbd747469	-0.05968133
176	0x3c9ce325	0.01915128
177	0xbd06259d	-0.032750715
178	0x3ddf9afd	0.109182335
179	0x3d13d5b4	0.036092475
180	0x3e1e1dc3	0.1544104
181	0x3cda4e0b	0.026648542
182	0x3dfef239	0.12448544
183	0x3db185e3	0.08668115
184	0x3dccc81a	0.09999104
185	0x3e109ca3	0.14122252
186	0x3d0403d9	0.032230232
187	0x3c8bf6e5	0.017085502
188	0x3d890c65	0.06691817
189	0x3dfcfa24	0.12352398
190	0xbdab983d	-0.083786465
191	0x3d3d18f4	0.046166375
192	0xbd80af4c	-0.06283435
193	0xbcbeac45	-0.023275504
194	0xbd25d43c	-0.040485606
195	0x3c8e4262	0.017365638
196	0xbd3f7dc3	-0.046750795
197	0x3d6b3854	0.057426766
198	0x3c3b6a4e	0.011438919
199	0xbc50b4af	-0.012738391
200	0x3ae67af1	0.0017584247
201	0x3d30a217	0.04312333
202	0x3b579e4e	0.0032900753
203	0x3db06f14	0.086149365
204	0x3c95470c	0.018222354
205	0x3db24b39	0.08705754
206	0xbd70ea9c	-0.05881749
207	0x3d4fab72	0.050700612
208	0x3d98c5d4	0.07459608
209	0x3d70cf4e	0.05879145
210	0x3ce0a266	0.027421188
211	0x3b847525	0.004042285
212	0x3da679c4	0.08128694
213	0x3e12f257	0.14350258
214	0x3d94507d	0.072419144
215	0xbe24c938	-0.16092384
216	0x3cc72236	0.024308305
217	0x3e234073	0.15942554
218	0xbb92ae33	-0.0044763326
219	0xbe01e6d7	-0.12685715
220	0x3e43b553	0.19112138
221	0x3eddad96	0.43296498
222	0x3d6c1a6e	0.057642393
223	0x3dd58c09	0.104271
224	0xbc867cb6	-0.016416889
225	0x3c3e5a37	0.011618189
226	0x3dc48d4d	0.095972635
227	0x3e3d8aed	0.18510027
228	0x3ce06401	0.027391436
229	0xbdaaef42	-0.08346416
230	0x3d31aada	0.043375827
231	0x3e3e93de	0.18611094
232	0xbdefe46a	-0.117134884
233	0x3cf6fe78	0.030150637
234	0x3bc5dccd	0.0060382844
235	0x3d626622	0.055273183
236	0x3e2d675b	0.16933958
237	0xbd3b5510	-0.04573542
238	0xbdd0c291	-0.101933606
239	0xbcc8e684	-0.02452398
240	0x3d8c75a9	0.068583794
241	0xbe45a56a	-0.19301382
242	0x3ea3e284	0.32008755
243	0xbd9656a2	-0.07340743
244	0xbb17183a	-0.0023055212
245	0x3d625693	0.055258345
246	0x3ded1abd	0.115773655
247	0xbd69aa71	-0.05704731
248	0x3df31cec	0.11870751
249	0x3d6642ef	0.056216177
250	0x3d18e49e	0.0373274
251	0xbd8d6dba	-0.06905694
252	0xbdcae2b6	-0.09906523
253	0xbcd90a88	-0.02649428
254	0xbc1de91b	-0.009638096
255	0xbd18a99e	-0.037271135

actor_layer_2.bias f4 [128]
0	0x3d29a24a	0.041414537
1	0xba354c62	-0.0006915984
2	0xbd5b9677	-0.05361029
3	0x3d6c57ac	0.057700798
4	0x3bcb0480	0.006195605
5	0xbd0af256	-0.033922516
6	0x3bad8e6d	0.0052965195
7	0xbd96fb81	-0.07372189
8	0xbb82a490	-0.0039869025
9	0x3e1c77ab	0.15280025
10	0x3d62e1cb	0.055391114
11	0x3dbd2a6d	0.09236608
12	0xbd4aa13f	-0.049470183
13	0x3d573cfa	0.052548386
14	0xbd98f91b	-0.07469388
15	0x3def9fb8	0.11700386
16	0xbd665b18	-0.056239218
17	0x3d16876d	0.036750246
18	0xbcb15594	-0.021647252
19	0xbaae029d	-0.0013275925
20	0xbcd6d506	-0.026224624
21	0xbc989163	-0.018624013
22	0x3e0d7a4c	0.13816184
23	0x3c9b46c6	0.018954646
24	0x3dc8b5e8	0.09800321
25	0xbd516515	-0.05112179
26	0xbdc9efce	-0.09860192
27	0x3cb0c3b1	0.021577688
28	0xbd246158	-0.040131897
29	0xbd927055	-0.07150332
30	0x3c29317c	0.010326739
31	0xbc5658b6	-0.013082674
32	0xbd6b1537	-0.05739328
33	0x3d8a0556	0.06739299
34	0xbd64171f	-0.055686112
35	0x3db1e51f	0.086862795
36	0x3d54d9e9	0.051965628
37	0x3c4de902	0.01256776
38	0xbc83b205	-0.016076097
39	0x3bebfbd4	0.007201651
40	0x3aba1ad9	0.0014198675
41	0x3d5d5868	0.05403939
42	0x3bcf700a	0.006330495
43	0x3d899a89	0.06718928
44	0xbd5be07b	-0.053680878
45	0xbd7fd166	-0.062455557
46	0xbbe54b8a	-0.0069975303
47	0x3d25523b	0.040361624
48	0x3a8c6229	0.0010710406
49	0xbb2a6eaa	-0.0026005902
50	0xbdf5fa63	-0.12010648
51	0x3cf12b00	0.02943945
52	0xbd219d5a	-0.039456703
53	0xb9d7b271	-0.00041140945
54	0xbd7d4eaf	-0.061842617
55	0x3e0b98fa	0.13632575
56	0x3da47012	0.08029188
57	0x3db1430f	0.086553685
58	0x3d10cac5	0.035349626
59	0x3da0f5ac	0.07859358
60	0x3c6a56c7	0.014302916
61	0xbd4b01b8	-0.049562186
62	0xbd83f8dc	-0.064439505
63	0x3d07a0aa	0.033112206
64	0x3e0947d6	0.1340631
65	0x3e2c2c75	0.16813834
66	0xbb8e555b	-0.0043436713
67	0xbba5c250	-0.0050585642
68	0x3c4a09df	0.012331455
69	0x3dea025a	0.1142623
70	0x3d70be99	0.058775518
71	0xbdd24cd4	-0.1026856
72	0x3db35788	0.0875693
73	0x3c8f2a92	0.017476354
74	0xba53b0db	-0.0008075365
75	0x3beb0288	0.0071719326
76	0xbdc62863	-0.09675672
77	0x3dde136e	0.1084355
78	0xbda3981b	-0.07987996
79	0xbd3ac0cc	-0.04559402
80	0xbda57221	-0.08078409
81	0xbce3282f	-0.027729122
82	0x3be2d559	0.0069224057
83	0xbdda54ce	-0.106607065
84	0xbc53fa79	-0.012938135
85	0x3d7ec6b0	0.062201202
86	0x3d5f5eac	0.054533646
87	0xbdea6318	-0.11444682
88	0x3ce081bb	0.02740561
89	0x3bbfec63	0.005857037
90	0x3e36d869	0.17855991
91	0x3ba66baa	0.0050787525
92	0x3dd4f13a	0.10397573
93	0x3c77ff8e	0.015136613
94	0x3e188247	0.14893447
95	0xbd5cf9bd	-0.053949106
96	0x3de1b3d3	0.11020627
97	0x3bb28ca8	0.0054488964
98	0x3dc22f28	0.094816506
99	0x3d227cd3	0.039669823
100	0x3dbd4e27	0.09243422
101	0x3d15f31e	0.036608808
102	0xbd744580	-0.059636593
103	0xbc502ec7	-0.012706465
104	0xbc1a35c4	-0.009412233
105	0x3d4e1354	0.0503114
106	0x3d16b183	0.036790382
107	0x3dabcbc1	0.08388472
108	0xbcb1688a	-0.021656293
109	0x3e059b1f	0.13047455
110	0x3cc3ac91	0.023885997
111	0xbd938fda	-0.07205172
112	0x3beeff19	0.0072935936
113	0x3df201d2	0.118167534
114	0x3dcc98e1	0.09990097
115	0xbd133de7	-0.035947707
116	0xbd53d5e5	-0.051717658
117	0xbda0b7bf	-0.07847547
118	0x3d880664	0.06641844
119	0xbc920560	-0.017824829
120	0x3d9ced65	0.07662467
121	0x3d5987f1	0.05310816
122	0x3ddd8ca4	0.10817841
123	0x3cff0a6a	0.031132895
124	0xbc528bfe	-0.01285076
125	0x3cb5033b	0.022096267
126	0x3e0dffc3	0.13867097
127	0xbdaffe04	-0.085933715

actor_out.weight f4 [2, 128]
0	0xbc5337aa	-0.012891689
1	0xbc228839	-0.009920173
2	0xbb2f29e2	-0.0026727845
3	0x3e01dcaa	0.12681833
4	0x3babe796	0.005246113
5	0x3cf75c8a	0.030195493
6	0x3e3c6c4f	0.18400691
7	0xbd5205ec	-0.05127518
8	0xbe5d2a01	-0.21598054
9	0x3d14ed16	0.036358915
10	0xbd9dcfc6	-0.07705645
11	0x3db79031	0.08963049
12	0xbc723f30	-0.014785573
13	0x3d1c40b5	0.038147647
14	0xbdcafc10	-0.09911358
15	0x3d15b85a	0.036552764
16	0xbde905f0	-0.113780856
17	0xbcf718c8	-0.030163184
18	0xbdac9f0e	-0.08428775
19	0x3cf3ae42	0.029746179
20	0xbd91991b	-0.07109281
21	0xbd2007d8	-0.03906998
22	0x3e2625c8	0.1622535
23	0x3af86400	0.0018950701
24	0xbe599f8d	-0.2125227
25	0xbe578fe0	-0.21050978
26	0xbba71d40	-0.0050999224
27	0xbd71f5a6	-0.05907216
28	0xbe6e0b41	-0.2324648
29	0xbbee8a47	-0.0072796675
30	0xbdc30afe	-0.09523581
31	0xbd96cab0	-0.07362878
32	0xbdc9f7a2	-0.09861685
33	0x3c454931	0.012041376
34	0xbd5a3070	-0.05326885
35	0x3df7983b	0.120895825
36	0xbdbeb280	-0.0931139
37	0xbc3e824e	-0.011627747
38	0xbc82095d	-0.015873605
39	0xbf0ff1f9	-0.56228596
40	0xbc9d6d5d	-0.019217188
41	0xbbc84d84	-0.006112756
42	0xbd8a301d	-0.06747458
43	0x3c1ec487	0.00969041
44	0xbd16da64	-0.036829367
45	0xbe82f33a	-0.25576192
46	0xbe0027e9	-0.12515225
47	0xbc19d555	-0.009389241
48	0xbbae232b	-0.005314251
49	0xbd4117b3	-0.047141742
50	0xbcc660f4	-0.024216153
51	0x3c60510e	0.0136912
52	0xbd4fef8f	-0.05076557
53	0xbd835096	-0.06411855
54	0xbcdf6ad7	-0.027272625
55	0xbdbd33a4	-0.09238365
56	0x3ddfe0f7	0.109315805
57	0xbaf52bc2	-0.0018705057
58	0xbc23c45c	-0.009995546
59	0xbd1a7c63	-0.03771628
60	0x3cd078fb	0.025448313
61	0xbe5cfcff	-0.21580885
62	0xbd010e39	-0.031507704
63	0xbc4d0c43	-0.01251513
64	0x3cea278b	0.028583309
65	0x3d404222	0.04693807
66	0xbea0e410	-0.31423998
67	0xbd1a0189	-0.03759912
68	0xbcafc036	-0.021453958
69	0x3c8a9a78	0.01691936
70	0x3e04e7e1	0.1297908
71	0xbe68c122	-0.22729924
72	0xbc33a4f1	-0.010964618
73	0xbdda0497	-0.10645407
74	0xbd1f5a5a	-0.038904525
75	0xbd5fe6c6	-0.054663442
76	0xbcdc0403	-0.026857382
77	0x3c55a02c	0.013038676
78	0x3ccbc3d3	0.02487365
79	0xbd924765	-0.07142524
80	0xbe79efd3	-0.24407892
81	0x3d8d0752	0.06886162
82	0xbd520cb7	-0.051281657
83	0xbe861320	-0.26186466
84	0xbe3bd117	-0.1834148
85	0x3d686730	0.056739032
86	0x3caf8f63	0.021430677
87	0xbd723b60	-0.059138656
88	0xb9c33d80	-0.0003723912
89	0xbd8cd7a9	-0.068770714
90	0xbcc81736	-0.02442513
91	0xbe024fc1	-0.12725736
92	0x3e08ce60	0.13359976
93	0xbc8b0465	-0.016969869
94	0x3d57f568	0.052724272
95	0xbd86e1c1	-0.06586028
96	0x3a8d14be	0.0010763628
97	0x3e2226e6	0.15835151
98	0xbdc2d8a3	-0.095139764
99	0x3e3c9259	0.18415202
100	0x3e96f170	0.29481077
101	0xbce453b5	-0.027871946
102	0xbd839357	-0.06424587
103	0xbe9b8ba4	-0.30379975
104	0x3b67a636	0.0035346872
105	0xbdb0c339	-0.08630986
106	0xbd433244	-0.04765536
107	0x3caaa0c3	0.02082861
108	0xbbecc8c6	-0.0072260825
109	0x3de14519	0.109995075
110	0xbde45d55	-0.11150614
111	0xbdf2cb76	-0.11855213
112	0xbde14489	-0.109994
113	0x3de4e410	0.11176312
114	0x3e755b6d	0.23960657
115	0x3d3b980d	0.045799304
116	0xbdb560c5	-0.08856348
117	0xbdb82124	-0.08990696
118	0xbc6862d0	-0.014183715
119	0x3d89c48b	0.06726941
120	0xbd3db066	-0.046310805
121	0xbe497b0f	-0.1967585
122	0x3df82569	0.121165104
123	0xbdc145b2	-0.094371215
124	0xbc37012a	-0.011169711
125	0xbdbdc557	-0.09266155
126	0x3d7303f7	0.059329953
127	0xbd801088	-0.06253153
128	0xbe462f1e	-0.19353911
129	0x3db10bdc	0.0864484
130	0x3da37b62	0.07982518
131	0xbd8ca3a9	-0.06867153
132	0xbe912cb6	-0.28354424
133	0xbe763864	-0.24044949
134	0xbe39febe	-0.18163583
135	0xbd6a0a30	-0.05713862
136	0xbdc1da16	-0.09465425
137	0x3db25318	0.08707255
138	0x3e0060a1	0.12536861
139	0xbe0d563e	-0.1380243
140	0xbd3b7c4f	-0.045772847
141	0x3d129961	0.035790805
142	0xbe269307	-0.16267024
143	0x3daa09b0	0.08302629
144	0x3e34d5e4	0.17659718
145	0x3ca402ad	0.020020807
146	0xbdc74119	-0.09729213
147	0xbed9f748	-0.42571473
148	0xbd5e8048	-0.054321557
149	0x3e24dbcc	0.16099471
150	0xbe102ed2	-0.1408036
151	0xbe14d3b4	-0.14533883
152	0xbe89eff4	-0.26940882
153	0xbdebaa43	-0.11507084
154	0xbcf02642	-0.029315118
155	0xbd9253a9	-0.07144863
156	0xbe0d4293	-0.13794927
157	0xbe182386	-0.14857301
158	0xbda1c299	-0.07898445
159	0xbf28866b	-0.65830106
160	0x3dcfa2ce	0.101384744
161	0x3dd1d491	0.10245622
162	0x3dc6443c	0.096809834
163	0x3e9f348f	0.31094787
164	0x3d8409b2	0.06447162
165	0xbd246e7c	-0.04014443
166	0xbef18772	-0.4717365
167	0xbd337fb2	-0.04382295
168	0x3d5bd231	0.05366725
169	0x3da06cfe	0.078332886
170	0xbd37e323	-0.04489435
171	0x3e823607	0.25431845
172	0xbf16cfbd	-0.58910733
173	0xbe0015b8	-0.12508285
174	0x3e2bda63	0.16782527
175	0xbdbf469d	-0.0933964
176	0xbea3b06f	-0.31970546
177	0x3e537b40	0.20652485
178	0xbe2e93e8	-0.1704861
179	0x3d2163f6	0.03940197
180	0x3e6bf5e9	0.23043026
181	0x3e2f0770	0.17092681
182	0xbea1aa0b	-0.31575045
183	0x3e98db36	0.29854745
184	0xbdc4b293	-0.09604373
185	0x3e1e79de	0.15476176
186	0xbe1d9afe	-0.15391156
187	0x3dc4de24	0.096126825
188	0xbb823064	-0.003973054
189	0xbcb43e59	-0.022002386
190	0xbd7ef6ba	-0.062247016
191	0xbd2b1e13	-0.041776728
192	0x3d757c0a	0.059932746
193	0x3de1ad52	0.11019386
194	0xbe6284d6	-0.22120985
195	0xbe0ae36c	-0.13563317
196	0x3e811c25	0.25216785
197	0x3d06ef3a	0.032942988
198	0x3d1ad91d	0.03780471
199	0xbca127ed	-0.019672358
200	0x3e5a49e5	0.21317251
201	0xbcff6d17	-0.031179948
202	0xbeaf3062	-0.342166
203	0x3e13468a	0.14382377
204	0xbdcf1d1f	-0.10112976
205	0x3dc48f29	0.09597618
206	0xbf069993	-0.52578086
207	0x3d8d548c	0.06900892
208	0xbdf19fab	-0.117980324
209	0xbecdbe10	-0.4018407
210	0x3e0602a2	0.13086942
211	0xbb602919	-0.0034204184
212	0xbd957b08	-0.07298857
213	0xbd1d7ec6	-0.03845098
214	0x3d080ff4	0.03321834
215	0xbe8b90c2	-0.2725888
216	0xbe979056	-0.29602307
217	0xbe2b494f	-0.16727184
218	0x3ebd2621	0.36943153
219	0xbda0c9c9	-0.078509875
220	0x3e0446c4	0.1291762
221	0xbe2ff0ae	-0.17181656
222	0x3db1af4f	0.086760156
223	0xbd44b9a7	-0.048028614
224	0x3d89e5a8	0.067332566
225	0x3d9ee8ce	0.07759248
226	0x3ebffb9f	0.3749666
227	0x3da63191	0.08114923
228	0x3e764643	0.2405024
229	0x3ddc926a	0.10770114
230	0x3e6f7ec3	0.233882
231	0x3d17178c	0.03688769
232	0x3e34f201	0.17670442
233	0x3d962061	0.073303945
234	0xbdf9ac5a	-0.121910766
235	0x3d66346b	0.056202333
236	0x3ceeb4fa	0.02913903
237	0x3e29325e	0.1652312
238	0xbdcd4050	-0.10022032
239	0x3e10874d	0.14114113
240	0xbdfba494	-0.1228725
241	0xbda248a1	-0.07924009
242	0xbd7a2234	-0.061067775
243	0xbe8c36ec	-0.27385652
244	0xbe049d64	-0.12950665
245	0x3c90b46f	0.017664162
246	0xbe53a285	-0.20667465
247	0xbe51ca74	-0.20487386
248	0xbdebb989	-0.115099974
249	0xbd0ee4e0	-0.03488624
250	0xbdce37d0	-0.10069239
251	0xbc87624c	-0.016526364
252	0x3d5539b1	0.052056972
253	0xbe1591cd	-0.146064
254	0x3d0f51d4	0.034990147
255	0xbebfd314	-0.37465727

actor_out.bias f4 [2]
0	0x3cad1f43	0.02113307
1	0x3d65fedd	0.05615126
