p3_collab-compet/critic_1_weights.pth (torch_old, 226026 bytes, 7 tensors)

critic_layer_1.weight f4 [256, 24]
0	0xbc8f4df2	-0.017493222
1	0xbcfd2632	-0.030902002
2	0xbb4759ec	-0.0030418588
3	0xbd221ae5	-0.03957643
4	0x3c9b7891	0.018978389
5	0xbe3be1b3	-0.18347816
6	0x3c7acc8b	0.015307556
7	0x3c807fb2	0.01568589
8	0x3d54821b	0.05188189
9	0x3cc67528	0.024225786
10	0x3cb77f2e	0.022399511
11	0xbd28b694	-0.041189745
12	0x3d658c72	0.056042142
13	0xbd3c22ae	-0.04593151
14	0xbcac37c4	-0.021022685
15	0x3d5fd416	0.05464562
16	0x3dd842f1	0.10559643
17	0x3d86d39c	0.0658333
18	0xbb6ec6dc	-0.0036434447
19	0xbd15757a	-0.036488988
20	0xbdf221b8	-0.118228376
21	0x3caa91c0	0.020821452
22	0x3c17862a	0.009248296
23	0xbcbf4c29	-0.023351746
24	0x3eb3ce92	0.35118538
25	0x3edf3108	0.43592095
26	0xbd0c74ba	-0.034291007
27	0x3e681c40	0.22667027
28	0xbe831904	-0.25605023
29	0xbf87e67d	-1.0617214
30	0xbd85c969	-0.065325566
31	0x3e8b7bc7	0.27242872
32	0x3f00c584	0.50301385
33	0x3edfed0f	0.4373555
34	0x3c34eeb1	0.011043237
35	0xbe9b6b7b	-0.3035544
36	0xbdd1658f	-0.10224449
37	0xbf2c5d88	-0.6733022
38	0x3da03c39	0.078239866
39	0xbe9191cf	-0.28431556
40	0x3ea2284d	0.31671372
41	0x3e94a5aa	0.29032642
42	0xbdf586fe	-0.11988638
43	0xbe92bbd3	-0.28658924
44	0x3e87f44c	0.2655357
45	0x3c4b9380	0.012425303
46	0xbe2b0f3e	-0.16705033
47	0xbe891ad7	-0.2677829
48	0x3ed9e9bb	0.42561135
49	0xbe5b1b26	-0.21397075
50	0x3b51dfd7	0.0032024288
51	0xbd872752	-0.06599297
52	0xbef49b7c	-0.47774875
53	0xbe8ea1a6	-0.27857703
54	0xbcd91ca6	-0.026502918
55	0xbcf2e19f	-0.0296486
56	0x3f0bed62	0.5465909
57	0xbdc62d44	-0.096766025
58	0x3b6b3e9e	0.0035895477
59	0xbdc5171e	-0.0962355
60	0xbeceb763	-0.40374288
61	0xbee1a613	-0.44072017
62	0xbd0b55b1	-0.03401727
63	0xbbfccb03	-0.0077146306
64	0x3ef788d1	0.4834657
65	0xbdb2f142	-0.087374225
66	0x3d87fc64	0.066399366
67	0xbd948041	-0.07251025
68	0xbe6fbec5	-0.23412617
69	0xbf6a5fe6	-0.9155258
70	0xbc88ee5b	-0.01671522
71	0xbcc0317c	-0.023461096
72	0x3d8dc7b2	0.069228545
73	0xbe9ca99c	-0.30598152
74	0x3ca18779	0.019717919
75	0x3da07c78	0.078362405
76	0xbf5063bb	-0.81402177
77	0xbec114f8	-0.3771131
78	0xbceeefb9	-0.029167043
79	0x3d6b084c	0.05738096
80	0x3dbef44c	0.0932394
81	0xbe201972	-0.15634707
82	0xbc0b9d04	-0.008521322
83	0x3e2a8b79	0.16654767
84	0xbe846c48	-0.25863862
85	0xbe0614ae	-0.13093826
86	0xbced08fb	-0.028934946
87	0x3e0135db	0.126182
88	0x3e1ae7b7	0.15127455
89	0xbe0b2050	-0.13586545
90	0xbb3d3fcd	-0.002887714
91	0xbc58d96a	-0.013235429
92	0x3ece483a	0.4028948
93	0x3f20b781	0.62780005
94	0x39d3a0bd	0.00040364816
95	0xbd49772c	-0.049185917
96	0xbdfe71bb	-0.12424036
97	0x3f10c658	0.5655265
98	0xbd426177	-0.04745623
99	0x3d1c4d7f	0.038159844
100	0xbef11993	-0.47089824
101	0xbc98e4ed	-0.018663848
102	0x3cd39aa1	0.025830569
103	0xbc80a0cd	-0.015701676
104	0x3dc56d9b	0.09640046
105	0x3f2f7721	0.6854115
106	0xbd56aebd	-0.052412737
107	0x3dbcbbe1	0.092155226
108	0x3d4e211b	0.05032454
109	0x3ee35547	0.44401
110	0x3b43c16c	0.0029869927
111	0x3d05c44e	0.032657914
112	0x3e8e63d3	0.27810535
113	0x3f373e9f	0.7157993
114	0xbd43a4ac	-0.047764465
115	0x3e78b6dc	0.24288505
116	0x3fa24686	1.2677772
117	0x3d56960c	0.05238919
118	0x3c7a2064	0.015266512
119	0x3e88376d	0.26604787
120	0x3e3a296b	0.18179862
121	0x3ea65524	0.32486832
122	0xbc79dc6e	-0.015250308
123	0x3da11677	0.07865613
124	0xbf031654	-0.51205945
125	0xbf1ead2d	-0.61982995
126	0xbd84e47c	-0.064888924
127	0x3d94bf3a	0.07263036
128	0xbcff10c0	-0.031135917
129	0x3e60a33d	0.2193727
130	0x3d82cd9e	0.063868746
131	0xbe0f8c11	-0.14018275
132	0xbe0cf254	-0.13764316
133	0xbcac2062	-0.021011535
134	0x3d398205	0.045290012
135	0xbe152505	-0.14564903
136	0x3e58859b	0.21144716
137	0x3e4e3c6d	0.20140238
138	0xbd26b87d	-0.040703285
139	0x3e805b42	0.25069624
140	0x3edaa9e3	0.42707738
141	0x3e8ae01b	0.27124104
142	0xbd3ccfdd	-0.04609667
143	0x3e54579d	0.20736547
144	0xbdef9743	-0.11698773
145	0x3d4dd015	0.05024727
146	0x3c0b4247	0.0084996885
147	0x3d7dd42a	0.061969914
148	0x3ddcbd27	0.107782654
149	0xbe557f3f	-0.20849322
150	0xbc032044	-0.008003298
151	0x3d759e2c	0.059965298
152	0x3cf2769f	0.029597579
153	0x3d8274de	0.06369947
154	0x3aba3ef3	0.0014209434
155	0xbc98e1da	-0.018662382
156	0xbd585f73	-0.052825402
157	0xbcdd32f7	-0.027001841
158	0xbb5263e4	-0.0032102996
159	0xbc069cb7	-0.008216075
160	0x3e7f4838	0.24929893
161	0x3cd42f58	0.025901482
162	0x3c4e010c	0.012573492
163	0x3b3d23e9	0.0028860515
164	0xbdfa0a50	-0.12208998
165	0xbdd26afc	-0.10274312
166	0xbc06713f	-0.008205711
167	0x3b5aff61	0.0033416378
168	0x3e794f40	0.24346638
169	0x3fc58542	1.5431292
170	0xbcb21982	-0.021740679
171	0xbc70df94	-0.014701743
172	0x3ee26cdd	0.4422368
173	0x3ce812f6	0.028329354
174	0xbd728547	-0.059209134
175	0x3d93b4a9	0.072121926
176	0x3ec4c9d3	0.3843523
177	0x3fbac988	1.4592752
178	0xbd1d9dbc	-0.038480505
179	0xbe62b790	-0.22140336
180	0x3d929d4f	0.071589105
181	0xbe3d682c	-0.1849677
182	0x3cf4ea9d	0.029897029
183	0xbe6d3ec6	-0.23168477
184	0x3f23345e	0.6375178
185	0x3f9deeda	1.2338517
186	0x3d77dfbb	0.0605161
187	0xbe9a0579	-0.300823
188	0xbef76c8d	-0.48325005
189	0xbdabe888	-0.08393961
190	0x3c7a8f76	0.015292993
191	0xbea4614f	-0.3210549
192	0x3dc78d56	0.097437546
193	0x3d5744ec	0.052555963
194	0x3bfb0a9b	0.0076611764
195	0xbccaa45e	-0.02473658
196	0xbe4f2a77	-0.20231043
197	0xbe85c05b	-0.26123318
198	0xbcb03924	-0.021511622
199	0xbc5e5699	-0.013570451
200	0x3db10d84	0.08645156
201	0x3d6319f2	0.055444665
202	0xbbebfa32	-0.0072014565
203	0x3cb78398	0.022401616
204	0xbd817349	-0.06320817
205	0xbde91d5b	-0.11382552
206	0xbc574c87	-0.013140804
207	0x3d71f3b5	0.059070308
208	0x3da589c7	0.080829196
209	0x3dfcbbab	0.12340482
210	0x3ce5abce	0.028036024
211	0xbd97d4d0	-0.07413638
212	0x3e0a9df0	0.13536811
213	0xbdd9ea62	-0.10640408
214	0xbceb8976	-0.02875207
215	0xbb6d333b	-0.0036193866
216	0x3e8660b6	0.2624566
217	0x3f02f77c	0.5115888
218	0x3c225018	0.009906791
219	0xbd913a39	-0.07091183
220	0xbe83fe0f	-0.2577977
221	0xbb861d9b	-0.0040928847
222	0xbd86d727	-0.06584006
223	0x3ca5cbb2	0.020238731
224	0x3ea1aa29	0.31575134
225	0x3eafa017	0.34301826
226	0x3be279f9	0.006911513
227	0xbd3853c7	-0.04500177
228	0xbee543fe	-0.44778436
229	0xbdf7492a	-0.12074502
230	0xbc81ba07	-0.015835775
231	0xbdf2a4d0	-0.11847842
232	0x3f1f755a	0.6228844
233	0x3f0de95c	0.55434203
234	0xbd4a45ce	-0.049382977
235	0x3e8696f5	0.26287046
236	0xbf4ec6bc	-0.80771995
237	0xbec48755	-0.383845
238	0x3d8b9d54	0.06817117
239	0x3e88718f	0.26649138
240	0xbd49041c	-0.049076185
241	0x3f7a8556	0.97859704
242	0x3c08c616	0.008348009
243	0xbdd51dce	-0.104060754
244	0x3ea46b97	0.32113335
245	0x3e8c7051	0.2742944
246	0xbcfbbdee	-0.030730214
247	0xbe168fac	-0.14703244
248	0x3e23c25d	0.15992112
249	0x3fa24e7c	1.2680202
250	0xbd4ba66e	-0.049719267
251	0xbd4633b6	-0.04838916
252	0x3e0c7603	0.13716893
253	0x3eb49e0b	0.35276827
254	0x3cc87da8	0.02447398
255	0x3d8c8edd	0.068631865

critic_layer_1.bias f4 [256]
0	0xbf133155	-0.5749715
1	0xbf0718b1	-0.5277205
2	0xbcaa9dad	-0.020827139
3	0xbe8fd317	-0.28090736
4	0xbf7bc9df	-0.98354906
5	0xbf38ba78	-0.7215953
6	0xbf4b4114	-0.79396176
7	0xbc8f1e27	-0.017470432
8	0xbf33f1be	-0.70290744
9	0xbf045199	-0.5168701
10	0xbe39e377	-0.18153177
11	0xbf469dbf	-0.7758445
12	0xbf617f02	-0.88084424
13	0xbf8b1bf8	-1.086791
14	0xbf18a01c	-0.5961931
15	0xbe15b59f	-0.14620064
16	0xbda54316	-0.08069436
17	0x3e71d1df	0.23615216
18	0xbea98aba	-0.33113652
19	0x3eb51456	0.35367078
20	0xbca0f672	-0.019648764
21	0xbd9f65b4	-0.0778307
22	0xbf84f354	-1.0386758
23	0xbf51f9dd	-0.82021886
24	0xbe790354	-0.24317676
25	0xbf2aa27f	-0.666542
26	0xbe210257	-0.15723549
27	0xbf32aae0	-0.69791985
28	0xbea5f349	-0.32412174
29	0xbfa0d0ce	-1.2563722
30	0xbecde5c0	-0.40214348
31	0xbfa2b7eb	-1.2712377
32	0xbef61bd0	-0.48068094
33	0x3c9f3170	0.019432753
34	0xbf50977f	-0.81481165
35	0xbc833ad5	-0.016019264
36	0xbeaf32ae	-0.34218353
37	0xbe89e019	-0.26928785
38	0xbefbc5cd	-0.49174348
39	0xbf177c76	-0.5917429
40	0xbf9389b8	-1.1526403
41	0xbf4ac960	-0.79213524
42	0xbf69a584	-0.9126818
43	0xbf947e91	-1.1601125
44	0xbf405d85	-0.751427
45	0xbec3f922	-0.3827601
46	0xbe8795a8	-0.26481366
47	0xbf22da35	-0.6361421
48	0xbf319909	-0.6937414
49	0xbeae4fc7	-0.3404524
50	0xbef0ff7d	-0.47069922
51	0xbf07b549	-0.53010994
52	0xbf4b846d	-0.7949894
53	0xbedf47c8	-0.43609452
54	0x3f27cf99	0.65551144
55	0xbeee9861	-0.4660063
56	0xbee1a3f6	-0.44070405
57	0xbeb00dea	-0.34385616
58	0xbf62414e	-0.883809
59	0xbdc28e6c	-0.09499821
60	0xbf1ade45	-0.60495406
61	0x3cca88e8	0.024723485
62	0xbdec6444	-0.11542562
63	0xbf007fc5	-0.5019496
64	0xbedb12bd	-0.42787734
65	0xbf1f251f	-0.6216602
66	0xbeed001f	-0.46289155
67	0x3e13f455	0.14448674
68	0xbebe97b5	-0.37225118
69	0xbf0a7395	-0.54082614
70	0xbed7bc3d	-0.42135802
71	0xbf17d90b	-0.59315556
72	0xbe472dda	-0.19451085
73	0xbf3e217e	-0.74269855
74	0xbef2caca	-0.4742034
75	0xbdb5a1e1	-0.088687666
76	0xbebe79b6	-0.37202233
77	0xbf07aaf1	-0.5299521
78	0xbda1b6d4	-0.078962
79	0xbe966f68	-0.2938187
80	0xbf99644d	-1.1983734
81	0xbf847ded	-1.035093
82	0xbf3a913e	-0.7287787
83	0xbf9ca423	-1.223759
84	0xbf2941f6	-0.66116273
85	0xbf05d48f	-0.52277464
86	0xbf85c8b2	-1.0451872
87	0xbe938428	-0.28811765
88	0xbec0f032	-0.37683254
89	0xbece682c	-0.40313852
90	0xbcf9a2c4	-0.03047312
91	0xbed833fb	-0.42227158
92	0xbf36364f	-0.7117662
93	0xbe0e498b	-0.13895242
94	0x3cdc7c1b	0.026914647
95	0xbf6b4d98	-0.91915274
96	0x3f1eb7e7	0.6199936
97	0xbf030539	-0.51179844
98	0xbe832a1e	-0.2561807
99	0xbf02c428	-0.5108056
100	0xbd898b00	-0.06715965
101	0xbdfbddd0	-0.12298167
102	0xbf4daa13	-0.8033764
103	0x3f378792	0.7169124
104	0x3de40a34	0.111347586
105	0x3edb89ca	0.42878562
106	0x3d370a0b	0.044687312
107	0xbeac92fa	-0.33705884
108	0xbe9c03af	-0.3047156
109	0x3ca079ea	0.019589383
110	0xbf6867c5	-0.9078334
111	0xbf3dc4f4	-0.7412865
112	0xbe739909	-0.23788847
113	0xbee694fd	-0.45035544
114	0xbe57abbd	-0.21061607
115	0xbf0e8a2f	-0.556796
116	0x3e4dadd2	0.20085838
117	0xbf80932a	-1.0044911
118	0xbf3fb240	-0.7488136
119	0xbe77dbeb	-0.24204986
120	0xbdfc0add	-0.123067595
121	0xbf0d4c4d	-0.5519455
122	0xbefbf9c4	-0.49213994
123	0x3e65dabc	0.22446722
124	0xbf29b251	-0.66287714
125	0x3cf8ace9	0.030355887
126	0xbf2337cf	-0.6375703
127	0xbf2a2fec	-0.6647937
128	0xbe6b1bf4	-0.22959882
129	0xbf202654	-0.62558484
130	0xbf4d4398	-0.80181265
131	0xbf1b663d	-0.6070288
132	0xbf5f7431	-0.8728667
133	0x3db571de	0.08859609
134	0xbe8181e9	-0.25294426
135	0xbedec416	-0.43508977
136	0xbed56687	-0.41679785
137	0xbf60787d	-0.8768385
138	0xbe2b5a4f	-0.16733669
139	0xbf31a51e	-0.69392574
140	0xbef6a95b	-0.48176083
141	0xbf1a24ba	-0.6021229
142	0xbddd4e8f	-0.108059995
143	0xbeb0683f	-0.34454533
144	0xbf83cf51	-1.0297643
145	0xbf17792d	-0.59169275
146	0xbf02417d	-0.5088118
147	0xbeb6921a	-0.35658342
148	0xbf005a81	-0.501381
149	0x3e5eabf8	0.21745288
150	0xbb19d289	-0.0023471436
151	0xbe6a5646	-0.22884473
152	0xbe039b03	-0.12852101
153	0xbf78bdbb	-0.97164506
154	0xbeb89164	-0.36048424
155	0xbeb425cf	-0.35185096
156	0xbeb166b7	-0.34648678
157	0xbee6b454	-0.45059454
158	0xbed1f663	-0.4100829
159	0xbe865b25	-0.26241413
160	0xbf6c8aa8	-0.9239907
161	0xbeb143e0	-0.34622097
162	0xbf19cc74	-0.60077596
163	0xbea1a681	-0.31572345
164	0xbf6337f8	-0.88757277
165	0xbed81e21	-0.42210487
166	0xbe7803e6	-0.24220237
167	0xbe9e42d3	-0.30910358
168	0xbe564f45	-0.20928676
169	0xbe4e012d	-0.20117636
170	0xbd5e915c	-0.054337844
171	0xbf5b02c6	-0.85551107
172	0xbe7c2cd7	-0.2462648
173	0xbf51cd1e	-0.8195361
174	0xbf10ccf5	-0.5656274
175	0xbf54431c	-0.829149
176	0x3e9edfdb	0.31030163
177	0xbdae6a14	-0.085163265
178	0xbeb19461	-0.34683517
179	0x3e92b3fc	0.28652942
180	0xbf5512bd	-0.8323172
181	0xbdc4c509	-0.09607894
182	0xbea43b59	-0.3207653
183	0xbf269db3	-0.6508438
184	0x3dc456c8	0.09586865
185	0xbf0612ca	-0.5237242
186	0xbf3d6ed8	-0.7399726
187	0x3e504b1e	0.20341155
188	0xbea0551f	-0.31314942
189	0x3e348456	0.17628607
190	0x3eaf9347	0.3429205
191	0x3e1e4d4d	0.15459175
192	0xbee067bc	-0.43829143
193	0xbf63a2b3	-0.88920134
194	0x3ed4bd47	0.41550657
195	0xbf41292d	-0.75453454
196	0xbe18a70a	-0.1490747
197	0xbeb459dd	-0.3522481
198	0xbcf8ae2e	-0.030356493
199	0xbf226107	-0.634293
200	0xbda01c62	-0.078179136
201	0xbef73821	-0.4828501
202	0xbefd7d48	-0.49509645
203	0xbeb2b297	-0.34901878
204	0xbe52435c	-0.20533508
205	0xbdeeb2ea	-0.11655219
206	0xbf468137	-0.77540916
207	0xbee94913	-0.45563564
208	0xbf234b52	-0.63786805
209	0xbe922a15	-0.2854773
210	0xbeb9435d	-0.36184207
211	0xbf46a966	-0.7760223
212	0xbdf64399	-0.12024612
213	0xbf3be7a2	-0.7340032
214	0xbf1e2f50	-0.61790943
215	0x3da9c5e5	0.082896985
216	0xbed6d331	-0.41958
217	0xbec67daa	-0.3876775
218	0xbe888f49	-0.26671818
219	0xbf39c1e9	-0.7256151
220	0xbf473970	-0.7782202
221	0xbf1fcff1	-0.6242667
222	0x3f237537	0.6385073
223	0xbf5f02ad	-0.8711346
224	0xbef5c1b0	-0.47999334
225	0xbf8ad90e	-1.084749
226	0xbec74273	-0.38917884
227	0xbf8e7f3d	-1.113258
228	0x3d3b098d	0.045663405
229	0xbf3a8897	-0.7286467
230	0x3d178bab	0.036998432
231	0xbe50d65e	-0.20394275
232	0xbf4669f8	-0.77505445
233	0xbf1603ad	-0.5859936
234	0x3d634494	0.055485323
235	0xbd9e4399	-0.07727737
236	0xbf706fef	-0.939208
237	0xbebbab03	-0.3665391
238	0xbeb2fc6c	-0.34958208
239	0x3d4e69c4	0.050393835
240	0xbf0c98e6	-0.54920805
241	0xbc088d7f	-0.008334517
242	0x3cbf82aa	0.023377735
243	0xbe7b53b6	-0.24543652
244	0xbf2d8975	-0.6778787
245	0xbeb91b02	-0.36153418
246	0xbe6f9244	-0.2339564
247	0xbe191565	-0.14949568
248	0xbf10d261	-0.5657101
249	0xbeab9a90	-0.3351636
250	0xbf242a20	-0.6412678
251	0xbf2d56f1	-0.6771079
252	0xbec60a39	-0.38679674
253	0xbea9b0c9	-0.3314269
254	0xbf2538e2	-0.6453992
255	0x3e229203	0.15876012

critic_layer_2.weight f4 [128, 258]
0	0x3db4710e	0.08810626
1	0xbe988400	-0.29788208
2	0x3e3efffd	0.1865234
3	0xbf0c01e7	-0.546904
4	0xbf010ead	-0.5041302
5	0xbec2c3fb	-0.38040146
6	0x3dae6b37	0.08516543
7	0xbd1778d6	-0.036980473
8	0x3d117008	0.035507232
9	0xbf04677a	-0.5172039
10	0xbed28184	-0.41114438
11	0xbd5941e3	-0.05304135
12	0xbd1cd9ff	-0.038293835
13	0xbe504641	-0.203393
14	0xbd87bea3	-0.06628158
15	0x3db9ab78	0.09065908
16	0xbe42ffab	-0.19042842
17	0xbdecd722	-0.11564471
18	0x3e76f4bc	0.24116796
19	0x3d000441	0.031254057
20	0xbe39dddc	-0.18151039
21	0x3e9b1527	0.30289575
22	0x3d63bd2b	0.055600327
23	0x3d42954b	0.047505658
24	0xbe8e832d	-0.27834454
25	0xbf14c972	-0.5811988
26	0xbf0606c0	-0.5235405
27	0xbe08700b	-0.13323991
28	0xbfaafb9a	-1.3358033
29	0xbe9374fd	-0.28800192
30	0x3e1a1950	0.15048718
31	0x3c19b2fe	0.009381054
32	0xbcc2a6a3	-0.0237611
33	0xbd9e1ff5	-0.07720939
34	0xbdada339	-0.08478398
35	0xbdcdc9e6	-0.10048275
36	0x3d68add4	0.0568064
37	0xbdeb4144	-0.11487058
38	0xbd810c66	-0.06301193
39	0x3da9d73f	0.08293008
40	0xbe8f9e0a	-0.28050262
41	0xbe703618	-0.23458135
42	0xbe4cbc08	-0.19993603
43	0x3d3f1c38	0.04665777
44	0xbe6a7b5e	-0.22898623
45	0xbe766844	-0.24063212
46	0x3ebb2efa	0.36559278
47	0xbe8e5f5b	-0.27807125
48	0x3ead6fd3	0.33874378
49	0xbe4a9a46	-0.19785413
50	0xbedf1b18	-0.43575358
51	0x3d49e414	0.049289778
52	0x3e1859a2	0.14877942
53	0xbdbc7ee2	-0.092038885
54	0xbe67eb77	-0.22648416
55	0xbf019439	-0.50616795
56	0xbde50c7f	-0.11184024
57	0xbe2c332c	-0.16816396
58	0x3edef716	0.43547887
59	0xbe772256	-0.24134192
60	0x3e2446d4	0.16042644
61	0xbd52eab9	-0.05149338
62	0xbccacd0d	-0.024755979
63	0xbd8b9daf	-0.06817185
64	0x3e0b2a1a	0.13590279
65	0xbeb3a0be	-0.35083574
66	0x3eaae39f	0.33376786
67	0x3de92833	0.113846205
68	0x3c8d6067	0.017257882
69	0x3d9ab517	0.075540714
70	0xbce35979	-0.027752625
71	0xbe90f8ea	-0.28314906
72	0x3d2fc735	0.042914588
73	0xbd389571	-0.045064393
74	0x3e1322ce	0.14368746
75	0x3c2151ca	0.00984616
76	0xbea368d5	-0.31915918
77	0x3d9c0e12	0.07619871
78	0xbd889c90	-0.06670487
79	0x3d962af5	0.07332412
80	0x3e5dd066	0.21661529
81	0x3b04950d	0.0020230443
82	0xbd58cd50	-0.052930176
83	0xbe278fdd	-0.16363473
84	0xbd0aacb5	-0.033856113
85	0x3e25e710	0.16201425
86	0x3dc5d6a3	0.09660079
87	0xbdb70f6d	-0.08938489
88	0x3ea1f6d8	0.3163364
89	0x3d855264	0.065098554
90	0x3da43f77	0.080199175
91	0xbe280f09	-0.16411985
92	0xbd9647f8	-0.07337946
93	0xbea4b7e9	-0.32171562
94	0xbeecb536	-0.46232003
95	0x3d9580b6	0.0729994
96	0x3ec2aa39	0.38020495
97	0xbe00e08d	-0.1258566
98	0xbce8dfd9	-0.028427051
99	0x3c152a4c	0.009104323
100	0x3d409e7d	0.047026146
101	0xbe18136c	-0.14851159
102	0xbf766629	-0.96249634
103	0xbe842ea7	-0.25816843
104	0xbe9da7e1	-0.30792144
105	0x3f009386	0.502251
106	0xbefc02a5	-0.49220768
107	0xbe8c685c	-0.2742337
108	0x3e7486d0	0.23879552
109	0x3d85630b	0.065130316
110	0xbe586963	-0.21133952
111	0xbe98f9fa	-0.29878217
112	0xbd952e39	-0.07284207
113	0xbe52b3f3	-0.20576458
114	0x3e636ef5	0.22210295
115	0x3da27860	0.07933116
116	0x3d555ee0	0.052092433
117	0xbec97687	-0.39348242
118	0xbe3a0d14	-0.18169051
119	0xbe826c76	-0.25473374
120	0xbeaf505e	-0.34241003
121	0x3c46d1a1	0.01213494
122	0xbf1a3594	-0.60238004
123	0xbc587550	-0.013211563
124	0xbdf960dc	-0.121766776
125	0x3e7c7d0a	0.24657074
126	0xbcd53c19	-0.026029633
127	0xbdca2bce	-0.09871636
128	0x3dd3f485	0.10349373
129	0xbec7ec95	-0.39047685
130	0x3b24aa34	0.0025125863
131	0x3e3da334	0.18519288
132	0xbd93b9de	-0.07213186
133	0x3d56c6e5	0.052435774
134	0xbe1c94f1	-0.15291192
135	0xbac46339	-0.0014983184
136	0x3eebd07f	0.46057507
137	0x3e4ac0b9	0.1980008
138	0x3bfc68f7	0.0077029425
139	0x3d6b101e	0.057388417
140	0x3dfcd4eb	0.123452984
141	0xbeb6bc04	-0.3569032
142	0xbe2f2a3b	-0.17105953
143	0x3cecee1f	0.028922139
144	0x3d8a7b88	0.06761843
145	0xbce0718f	-0.027397899
146	0xbd1c3d41	-0.038144354
147	0x3da4a4c7	0.08039241
148	0xbeab9ddc	-0.33518875
149	0x3d9182e8	0.071050465
150	0xbdaf64ec	-0.08564171
151	0x3bc645fb	0.006050823
152	0x3c9634cc	0.018335722
153	0xbcff7c99	-0.031187342
154	0x3e92d046	0.28674525
155	0x3e022cb0	0.1271236
156	0xbcf7e980	-0.030262709
157	0xbcb339fe	-0.021878239
158	0xbe0363b9	-0.1283101
159	0x3c7f613f	0.01558715
160	0xbe38536a	-0.1800057
161	0xbe572a09	-0.21012129
162	0xbe53f6eb	-0.2069966
163	0xbcdebd54	-0.027189888
164	0xbd8dfa9c	-0.069325656
165	0xbd8108e0	-0.06300521
166	0xbe1af0e6	-0.15130958
167	0xbd89cbef	-0.0672835
168	0xbd95726e	-0.07297216
169	0xbcc95b87	-0.024579776
170	0x3e977556	0.29581708
171	0xbe05bf36	-0.13061222
172	0x3d248ce8	0.04017344
173	0x3d88cbc5	0.06679491
174	0x3e823a1c	0.2543496
175	0xbd5b2fdc	-0.05351244
176	0xbdeb01ca	-0.114749506
177	0xbe467b5b	-0.19382994
178	0xbe881fc0	-0.26586723
179	0xbd93d082	-0.07217504
180	0xbdbbf1ea	-0.09177001
181	0xbde802ab	-0.11328634
182	0x3d5e2db8	0.05424282
183	0x3cfae92d	0.030628765
184	0x3d0763f7	0.03305432
185	0x3e6be25f	0.23035572
186	0xbe5c0a5c	-0.21488327
187	0x3e80338d	0.2503933
188	0xbe07b286	-0.13251695
189	0xbe2d165f	-0.16903065
190	0x3d26cb00	0.04072094
191	0x3ea81429	0.3282788
192	0x3cd2bc70	0.02572462
193	0x3e282c80	0.16423225
194	0xbe67dd03	-0.22642903
195	0x3e68fc49	0.22752489
196	0xbee0a3c7	-0.43874952
197	0x3c4ad413	0.012379664
198	0xbeeaabc9	-0.45834187
199	0xbe176c65	-0.14787443
200	0xbe504db9	-0.20342149
201	0x3e1305a9	0.14357628
202	0x3d3d6a24	0.0462438
203	0x3e1fbd45	0.15599544
204	0xbf284660	-0.65732384
205	0x3d24f7a5	0.040275235
206	0xbd996365	-0.07489661
207	0xbe2844a3	-0.16432433
208	0xbbc6dfb1	-0.0060691466
209	0x3d6586fd	0.056036938
210	0x3e38da67	0.18052064
211	0x3e62af1d	0.22137113
212	0xbe78bd05	-0.24290855
213	0xbc96b1a5	-0.018395254
214	0x3bd1fee2	0.006408558
215	0xbde40886	-0.11134438
216	0x3c88ad39	0.016684161
217	0xbe41e702	-0.18935779
218	0xbe92ba8b	-0.28657946
219	0xbe7d3bcb	-0.2472984
220	0x3d720171	0.059083406
221	0x3e5caf62	0.21551278
222	0x3de2d637	0.110760145
223	0x3e0eb255	0.13935216
224	0xbe4246ab	-0.1897227
225	0xbdffb30c	-0.12485322
226	0x3e34f5d5	0.17671902
227	0xbe301d44	-0.17198664
228	0xbe3db4a6	-0.18525943
229	0xbcafbf71	-0.021453591
230	0xbef4e31f	-0.4782953
231	0x3e54a195	0.20764764
232	0x3db7c609	0.08973319
233	0xbe4ef42b	-0.2021033
234	0xbeae5d2f	-0.34055468
235	0xbde4dea6	-0.11175279
236	0xbd3c1cbe	-0.04592585
237	0x3e1cc6f3	0.15310268
238	0x3ebfe078	0.37475944
239	0xbda23400	-0.079200745
240	0x3bae8091	0.005325385
241	0x3e5d9ac1	0.21641065
242	0xbdfb9398	-0.12284011
243	0xbde5f471	-0.11228264
244	0xbdc70e63	-0.09719541
245	0xbd8f42a5	-0.06995133
246	0xbef0c832	-0.47027737
247	0xbe6b5ad1	-0.22983862
248	0xbe504c24	-0.20341545
249	0xbee4ac69	-0.4466279
250	0xbd27fede	-0.041014545
251	0xbcd89069	-0.026436048
252	0x3cee525f	0.029092012
253	0xbe879f75	-0.26488844
254	0xbd806e59	-0.06271047
255	0xbe0462c5	-0.12928303

critic_layer_2.bias f4 [128]
0	0xbcf22e02	-0.029562954
1	0xbddf176f	-0.108931415
2	0xbc1bd112	-0.009510295
3	0xbf266294	-0.6499417
4	0xbcce4f88	-0.025184408
5	0xbf6700ff	-0.90235895
6	0x3e81ce7d	0.2535285
7	0x3df5ee8a	0.12008388
8	0xbf3c0a7a	-0.73453486
9	0xbf0127ba	-0.5045124
10	0xbd99c3c7	-0.07508045
11	0xbccb0244	-0.024781354
12	0x3e186398	0.14881742
13	0xbf1602ea	-0.58598197
14	0x3dc4f2fd	0.09616659
15	0xbe3e375e	-0.18575808
16	0xbe1298f1	-0.14316155
17	0x3f0ab3cd	0.54180604
18	0x3e6ece19	0.23320808
19	0x3dcdbfa9	0.10046322
20	0x3d9860be	0.07440327
21	0x3e9e7256	0.30946606
22	0xbea13fdc	-0.31494033
23	0xbe85137f	-0.25991437
24	0xbd56b7fd	-0.05242156
25	0xbf28a4ba	-0.6587635
26	0xbe91479c	-0.28374946
27	0xbe877db0	-0.2646308
28	0x3cfd06dd	0.030887062
29	0xbf14b774	-0.5809243
30	0x3de907db	0.113784514
31	0x3e91b7de	0.28460592
32	0xbcede676	-0.029040556
33	0xbefb1025	-0.49035755
34	0xbdb440d1	-0.08801425
35	0x3f119dc9	0.56881386
36	0x3e6a479d	0.22878881
37	0x3e8950f2	0.2681957
38	0x3eb347f9	0.35015848
39	0xbc48a70b	-0.012246857
40	0xbe2cbb85	-0.16868408
41	0xbe9431f1	-0.28944352
42	0x3dba820d	0.091068365
43	0xbdf70f74	-0.12063494
44	0xbd4fac4b	-0.05070142
45	0xbeb2d437	-0.34927532
46	0x3e485ba9	0.19566216
47	0xbf4173cd	-0.7556732
48	0xbf023f77	-0.5087809
49	0x3edb2cd0	0.42807627
50	0xbc521010	-0.012821212
51	0xbe861a60	-0.26191998
52	0x3e542460	0.20717001
53	0xbe8b6eaa	-0.27232867
54	0x3ddce78a	0.1078635
55	0xbefd602c	-0.49487436
56	0xbf0a3dc1	-0.5400048
57	0xbf363bdf	-0.71185106
58	0xbe1d0730	-0.15334773
59	0x3e11fd68	0.14256823
60	0xbd1890be	-0.037247412
61	0x3e25b0f4	0.16180784
62	0x3c7f805a	0.015594566
63	0x3e41c2d2	0.18921974
64	0x3e32a5d9	0.17446078
65	0xbf01c95e	-0.50697887
66	0xbe86630a	-0.26247436
67	0x3f32bc68	0.69818735
68	0x3da6adcf	0.0813862
69	0xbea65ef1	-0.3249431
70	0xbe13f8a0	-0.14450312
71	0x3e92fcd0	0.28708506
72	0xbf28e40f	-0.6597299
73	0xbf39d4f2	-0.72590554
74	0xbb6be3d1	-0.0035993943
75	0xbeab5a87	-0.33467504
76	0xbe51d576	-0.20491585
77	0xbeee90a8	-0.4659474
78	0xbe178e43	-0.14800362
79	0x3e1a0c0b	0.15043657
80	0xbe7dab51	-0.24772383
81	0xbec5b49d	-0.3861436
82	0x3e1b6404	0.15174872
83	0xbe85bfaa	-0.2612279
84	0xbe3ee7a3	-0.1864305
85	0xbf3f188e	-0.7464684
86	0x3d61883c	0.055061564
87	0x3c9a68e0	0.018848836
88	0xbe08ebc1	-0.13371183
89	0x3eeb1b54	0.45919287
90	0xbe36b5ed	-0.17842837
91	0xbe4b121b	-0.19831125
92	0xbe8106a6	-0.25200385
93	0x3dd74f4e	0.10513173
94	0xbf3610ff	-0.71119684
95	0xbd5d068a	-0.053961314
96	0x3e41bacb	0.18918912
97	0xbd0adf17	-0.03390416
98	0xbf586af1	-0.8453818
99	0xbd6e5926	-0.058190487
100	0x3e9ba041	0.30395702
101	0x3e047e50	0.1293881
102	0xbde442ff	-0.11145591
103	0x3e457522	0.19282964
104	0x3cad491d	0.021153027
105	0xbe327a98	-0.17429578
106	0x3e4218a8	0.18954718
107	0x3d32bdb3	0.043637943
108	0xbde709ac	-0.11281142
109	0x3db7449f	0.08948635
110	0x3e396eac	0.18108624
111	0xbf0de25e	-0.55423534
112	0x3d304046	0.043030046
113	0xbc9eea1e	-0.019398745
114	0xb9d7173d	-0.0004102531
115	0xbe196e81	-0.1498356
116	0x3e20e2b6	0.15711483
117	0xbd051946	-0.032494806
118	0xbe5f1a81	-0.21787454
119	0x3e646149	0.22302736
120	0x3e4f3788	0.20236027
121	0xbf108eba	-0.56467783
122	0x3da742d4	0.08167043
123	0x3b01867e	0.0019764001
124	0x3e478389	0.1948377
125	0x3ea09436	0.31363076
126	0xbf18a836	-0.5963167
127	0xbc9df1d4	-0.019280352

critic_layer_3.weight f4 [128, 128]
0	0x3d88c685	0.066784896
1	0x3e2401cd	0.16016312
2	0x3bb1f970	0.0054313466
3	0x3eb82018	0.35961986
4	0x3e4532ed	0.19257708
5	0xbe650dcb	-0.22368543
6	0x3d019f5e	0.031646125
7	0xbec5ddf5	-0.38645902
8	0x3f16cc14	0.5890515
9	0x3f2161f3	0.63040084
10	0x3d37f2c2	0.044909246
11	0xbee7a80f	-0.45245406
12	0xbe85d7ef	-0.26141307
13	0xbf3a6909	-0.7281652
14	0x3e2c0f1b	0.16802637
15	0x3e6ecd67	0.23320542
16	0xbd9646a7	-0.073376946
17	0xbd446750	-0.04795009
18	0x3e0cdd66	0.13756332
19	0xbd6cb2ca	-0.057787694
20	0xbc9e540f	-0.019327192
21	0xbe4987ed	-0.19680758
22	0x3e85f47d	0.26163092
23	0x3deae447	0.11469322
24	0xbbe42b48	-0.0069631673
25	0x3eb8070b	0.35942873
26	0x3ec25d2e	0.37961715
27	0x3dd15bc8	0.10222584
28	0xbe5d1666	-0.21590576
29	0xbe28d1f6	-0.16486344
30	0x3e2b9569	0.16756214
31	0xbb150fe3	-0.0022745065
32	0x3f020da6	0.50802076
33	0x3edce199	0.43140867
34	0x3c9618ae	0.018322315
35	0x3e778f29	0.24175705
36	0xbe250243	-0.16114144
37	0x3c15d057	0.00914391
38	0x3ea33cb2	0.31882244
39	0x3d72a207	0.059236553
40	0x3e233763	0.15939097
41	0x3ec1bf19	0.37841108
42	0x3ccff8de	0.025387224
43	0x3e2b9254	0.16755038
44	0x3d3f2482	0.046665676
45	0xbd855e40	-0.065121174
46	0xbe21320a	-0.15741745
47	0x3f3bf310	0.7341776
48	0x3ef2682d	0.47345105
49	0x3bdb8d6d	0.006700209
50	0x3dd94a64	0.10609892
51	0xbf1b0586	-0.60555303
52	0x3e7a32d0	0.24433446
53	0xbed2af6b	-0.41149458
54	0xbe8f98e3	-0.2804633
55	0x3e9e97a2	0.30975062
56	0x3e27ba97	0.16379772
57	0xbe6c0451	-0.23048522
58	0x3e010595	0.12599786
59	0xbdfc6a87	-0.12325006
60	0xbe39e10d	-0.18152256
61	0xbe48d29c	-0.19611591
62	0xbeda9fa3	-0.42699918
63	0x3e8c16e2	0.27361208
64	0xbd01ce76	-0.031691037
65	0xbdac8cb2	-0.08425273
66	0xbd8006e0	-0.06251311
67	0xbdc2f5a4	-0.095195085
68	0x3e180259	0.14844646
69	0xbdcd8010	-0.100341916
70	0x3d04684a	0.03232602
71	0x3c3e9272	0.011631595
72	0x3e6e4c11	0.23271205
73	0x3df3dfad	0.11907897
74	0xbe6b9e17	-0.23009525
75	0x3e5cca16	0.21561465
76	0x3ec61824	0.38690293
77	0xbe07f6a6	-0.13277683
78	0x3e1082c7	0.14112388
79	0x3e410857	0.18850838
80	0x3f0b8eb7	0.5451464
81	0xbc8fad82	-0.01753879
82	0xbe63455b	-0.22194426
83	0x3f063417	0.5242323
84	0xbd552cf2	-0.052044816
85	0xbf11c114	-0.5693524
86	0xbd568157	-0.05236944
87	0xbe3fb5bd	-0.18721671
88	0x3df0c8e4	0.11757067
89	0xbe208bae	-0.15678284
90	0x3df4a638	0.11945766
91	0xbcb0ccb2	-0.021581981
92	0x3c2c0c4a	0.010500977
93	0xbbe9586b	-0.007121136
94	0xbeddb47a	-0.43301755
95	0xbdca87b0	-0.098891616
96	0xbe26964a	-0.16268268
97	0x3e79827a	0.24366179
98	0x3efed948	0.49775147
99	0xbea44f17	-0.3209159
100	0x3ba1d6a4	0.0049389172
101	0x3d5fb7a3	0.05461849
102	0xbe27b44f	-0.16377376
103	0x3ea25fe9	0.317138
104	0x3e6d4b04	0.23173147
105	0xbf008ad3	-0.5021183
106	0x3e68d345	0.22736843
107	0xbed833ea	-0.42227107
108	0x3e0ec78a	0.13943306
109	0xbe095fb7	-0.13415419
110	0x3db7e7fa	0.08979793
111	0xbe36fb68	-0.17869341
112	0xbe8796bc	-0.2648219
113	0x3dbfa7b4	0.09358159
114	0x3ef2e85d	0.47442904
115	0xbe005b4d	-0.12534828
116	0x3e775767	0.24154435
117	0x3e938090	0.28809023
118	0xbf05a92d	-0.52211267
119	0xbd8b3ad3	-0.06798329
120	0x3bf5db83	0.0075029745
121	0x3d2a502a	0.041580357
122	0x3e4a2d8e	0.1974394
123	0xbca4e6e0	-0.020129621
124	0x3e8ba16c	0.27271593
125	0xbecf3a4a	-0.4047416
126	0x3f19d389	0.600884
127	0x3bedf8e0	0.007262334
128	0x3dce8339	0.100836225
129	0x3e968061	0.2939482
130	0x3da2064a	0.07911356
131	0x3ee4a4b6	0.44656914
132	0xbdaf1fa1	-0.085509546
133	0x3daf55c0	0.085612774
134	0x3e444001	0.1916504
135	0xbdce031e	-0.10059188
136	0x3e861ec5	0.2619535
137	0x3ea4d5e4	0.32194436
138	0xbddc7c09	-0.10765845
139	0xbea29a4f	-0.31758353
140	0x3d123936	0.03569909
141	0xbe43b32c	-0.19111317
142	0x3da759a0	0.081713915
143	0xbe18f865	-0.14938505
144	0xbbb084c2	-0.0053869197
145	0x3e3c714d	0.18402596
146	0x3e82e25e	0.2556333
147	0xbe92f9a9	-0.287061
148	0xbe445dfa	-0.19176474
149	0xbe149fad	-0.14514036
150	0x3e861a51	0.26191953
151	0xbca05f4d	-0.019576693
152	0xbd7c54d8	-0.06160435
153	0x3ea06e36	0.31334084
154	0x3c36b25b	0.011150922
155	0x3e08aa04	0.13346106
156	0xbf2f7c8e	-0.6854943
157	0xbeaa647e	-0.33279794
158	0x3d56886d	0.0523762
159	0xbd0a8d77	-0.033826318
160	0x3ea2b013	0.3177496
161	0x3ec41387	0.38296148
162	0xbec49fac	-0.3840307
163	0x3dcf17d9	0.101119705
164	0xbda7c6c6	-0.0819221
165	0x3d735339	0.05940554
166	0xb9dc234a	-0.00041987962
167	0xbe93636a	-0.28786784
168	0x3dda3a14	0.10655609
169	0xbd05fc07	-0.032711055
170	0xbd3fd991	-0.046838347
171	0xbda0dd67	-0.07854729
172	0xbea41f63	-0.32055196
173	0x3e134cd0	0.1438477
174	0x3e1d35ce	0.15352556
175	0x3e8d47af	0.27593753
176	0x3ea53afc	0.32271564
177	0xbebe4a7d	-0.37166205
178	0x3f0f2c95	0.559274
179	0xbd1d5087	-0.038406875
180	0x3e352eba	0.17693606
181	0xbe18dc83	-0.14927869
182	0xbda89f33	-0.0823349
183	0x3ec9c2a7	0.3940632
184	0xbe216164	-0.15759808
185	0xbe569bc6	-0.2095786
186	0x3d9d537a	0.076819375
187	0xbd930164	-0.071779996
188	0x3e3f22c6	0.18665609
189	0xbbea77ac	-0.0071553793
190	0xbd7d3a5a	-0.061823227
191	0xbef41ae1	-0.47676757
192	0x3e1ec4ce	0.15504763
193	0xbd30eb69	-0.043193255
194	0x3e177d45	0.1479388
195	0x3ea47721	0.32122138
196	0x3d35f43d	0.044422377
197	0xbd40a270	-0.047029912
198	0xbe611483	-0.21980481
199	0xbe212371	-0.15736176
200	0x3b279fb8	0.0025577378
201	0x3e5071c3	0.20355897
202	0x3d5aa7c8	0.053382665
203	0xbd9e9d57	-0.07744854
204	0x3e0e4bd7	0.13896118
205	0xbb8716d3	-0.004122594
206	0x3e888e00	0.26670837
207	0xbd8daa83	-0.06917288
208	0x3ed32fe3	0.41247472
209	0xbe24acd5	-0.16081555
210	0xbed4636d	-0.41482106
211	0x3e837b24	0.25679886
212	0x3e467229	0.19379486
213	0xbe31e00e	-0.17370626
214	0xbe155b92	-0.14585713
215	0xbdee391d	-0.11631987
216	0xbed4cd73	-0.41562995
217	0x3defe8a5	0.11714295
218	0x3dfaad6f	0.12240111
219	0x3e57b1f3	0.21063976
220	0xbde9d26a	-0.114170864
221	0xbdacd0e0	-0.08438277
222	0xbea5c55f	-0.32377145
223	0x3c8e9bfa	0.01740836
224	0xbe2fe0e0	-0.17175627
225	0xbecd19cd	-0.40058747
226	0x3ea64112	0.3247152
227	0xbd9a998f	-0.0754882
228	0xbcb6c853	-0.022312319
229	0x3d8ec9c0	0.069720745
230	0xbcce77ab	-0.025203547
231	0xbdb6924c	-0.08914623
232	0x3e39afcb	0.18133466
233	0xbe5d2b95	-0.21598656
234	0x3d0ecebe	0.034865133
235	0xbebded52	-0.37095124
236	0x3e16a830	0.14712596
237	0xbe9137c8	-0.2836287
238	0xbf01abe1	-0.5065289
239	0xbe98c476	-0.29837388
240	0xbe4d144a	-0.20027271
241	0x3e1d3d56	0.15355429
242	0x3eb69c58	0.35666156
243	0xbe1bd941	-0.15219595
244	0xbdd7a039	-0.10528607
245	0xbda1c958	-0.078997314
246	0x3e22fccf	0.15916751
247	0x3d67eca6	0.05662217
248	0x3c31ac7c	0.010844346
249	0x3da169ab	0.07881483
250	0x3d86a291	0.06573976
251	0xbdfd8a25	-0.123798646
252	0xbd4d0920	-0.05005753
253	0x3bb40c53	0.005494633
254	0x3e974967	0.2954819
255	0x3d92d92a	0.07170327

critic_layer_3.bias f4 [128]
0	0xbf0811ef	-0.53152364
1	0xbf01edd7	-0.5075354
2	0xbe163e84	-0.14672285
3	0xbeebf776	-0.46087235
4	0xbed30767	-0.41216585
5	0xbdd1331e	-0.10214828
6	0xbeb35c96	-0.35031575
7	0xbb41777c	-0.002952068
8	0xbe4608a9	-0.19339241
9	0xbe3ea137	-0.18616186
10	0xbdc57716	-0.096418545
11	0xbf1fe2dc	-0.62455535
12	0xbe8201fd	-0.25392142
13	0x3c5b7928	0.013395585
14	0x3e9f3db9	0.31101778
15	0xbe80ebfc	-0.25180042
16	0x3e1fe2b0	0.15613818
17	0xbf00151d	-0.50032216
18	0xbeedc2ba	-0.46437627
19	0xbe30d48d	-0.17268582
20	0xbea2f4e9	-0.31827477
21	0xbf1624c5	-0.58649856
22	0x3e6b3332	0.22968748
23	0xbe72eb1b	-0.23722498
24	0x3e6f42a4	0.23365265
25	0xbc93c4ef	-0.018038241
26	0xbe9769fa	-0.2957304
27	0xbf0fa16e	-0.561057
28	0xbe8a09f9	-0.26960734
29	0x3ed5201f	0.4162607
30	0xbf238a5f	-0.6388301
31	0xbf39aaf3	-0.7252647
32	0xbd155fd1	-0.03646833
33	0xbf2a8330	-0.66606426
34	0xbefb037e	-0.49026102
35	0x3f4af294	0.79276395
36	0x3e8020a6	0.2502491
37	0x3e0f38df	0.13986538
38	0xbf85d449	-1.0455409
39	0x3dea9484	0.11454108
40	0xbe9ade45	-0.30247703
41	0xbf0fcd8e	-0.56173027
42	0xbe046d02	-0.12932208
43	0xbe65ac72	-0.22429064
44	0xbe956f82	-0.29186636
45	0xbed3852b	-0.41312537
46	0xbed5dcc5	-0.41769996
47	0xbe9bf251	-0.3045831
48	0xbdcaa42f	-0.09894597
49	0xbe55235d	-0.20814271
50	0x3ed7bf5e	0.4213819
51	0xbf2830a4	-0.6569922
52	0xbf169a77	-0.58829445
53	0x3f2b468e	0.6690453
54	0x3e2dc0a5	0.1696802
55	0x3ee6bd89	0.4506648
56	0x3d3b06de	0.045660846
57	0xbe3cbdd0	-0.18431783
58	0xbd3f39c0	-0.046685934
59	0xbd978fff	-0.07400512
60	0x3f22b40e	0.6355599
61	0xbebb3752	-0.36565644
62	0xbe6125e0	-0.21987104
63	0xbe485413	-0.19563322
64	0xbe61dbbb	-0.22056477
65	0x3e98943d	0.29800597
66	0xbf104d7a	-0.5636822
67	0xbdd0ee8a	-0.10201748
68	0xbf04d74b	-0.5189101
69	0xbe251310	-0.16120553
70	0xbec7aa6f	-0.38997218
71	0xbf210f17	-0.6291365
72	0xbd661fde	-0.056182735
73	0x3cd0ab37	0.025472267
74	0xbe4ccc7f	-0.19999884
75	0xbeca6f3b	-0.39537987
76	0xbdcfd35b	-0.10147735
77	0x3e1b4e37	0.15166555
78	0xbec457c5	-0.38348213
79	0xbe03fe7d	-0.12890048
80	0x3ecae0c0	0.39624596
81	0xbc9b9197	-0.018990321
82	0xbf03ba49	-0.51456124
83	0xbeac9473	-0.33707008
84	0xbf0ee015	-0.5581067
85	0xbf18a66d	-0.59628946
86	0xbef0dcda	-0.47043496
87	0x3ee2d842	0.44305617
88	0xbf108759	-0.56456524
89	0xbe82dd71	-0.2555957
90	0xbf5a8444	-0.8535807
91	0x3e7288e9	0.2368504
92	0xbf1977b1	-0.5994826
93	0xbeda7571	-0.42667726
94	0x3ee67e5a	0.45018274
95	0xbf6cb571	-0.9246436
96	0x3d8ab59e	0.06772922
97	0xbd50a3df	-0.05093753
98	0xbf5ed00a	-0.8703619
99	0xbe748db6	-0.23882183
100	0x3d9351bc	0.07193324
101	0x3e9f3c50	0.31100702
102	0x3f29858f	0.6621942
103	0xbf88094a	-1.0627835
104	0xbe56d353	-0.20979051
105	0xbe3e0fd2	-0.18560722
106	0xbea2c6c7	-0.3179228
107	0xbe33552a	-0.17512956
108	0x3ec2a606	0.3801729
109	0xbc6d1cb7	-0.014472178
110	0xbfa36004	-1.2763677
111	0xbf1b0f85	-0.60570556
112	0x3e18a7fd	0.14907832
113	0x3e5b4f47	0.2141696
114	0xbe9cd6bf	-0.30632588
115	0xbcc8cf3a	-0.024512876
116	0xbe7db4a3	-0.24775939
117	0x3d9dcfb2	0.0770563
118	0xbecef5d2	-0.4042192
119	0xbdbbed52	-0.09176125
120	0x3f27e73b	0.65587205
121	0xbf63ff3e	-0.89061344
122	0xbec70131	-0.38868096
123	0x3e5c7ca0	0.21531916
124	0xbf62bf9a	-0.8857361
125	0xbea5eff5	-0.32409635
126	0xbcffc359	-0.031221079
127	0xbec5b3e8	-0.3861382

critic_out.weight f4 [1, 128]
0	0xbc8a1280	-0.016854525
1	0xbceccaba	-0.028905261
2	0xbcbec154	-0.023285545
3	0xbcbfd0f2	-0.023415063
4	0x3d1699ca	0.03676776
5	0xbcae58f1	-0.021282645
6	0x3c9513c3	0.0181979
7	0x3d08eca7	0.033428814
8	0xbc663462	-0.014050575
9	0xbcc19a16	-0.023633044
10	0x3caae513	0.020861184
11	0xbcb7d8f4	-0.022442318
12	0xbcd0e844	-0.025501378
13	0xbcb71f41	-0.02235377
14	0x3c9129f9	0.01772021
15	0x3cc04dda	0.023474623
16	0xbd1293c5	-0.035785455
17	0x3cc75e12	0.024336848
18	0xbcaa0822	-0.020755831
19	0xbcb507b1	-0.022098394
20	0x3cabe006	0.020980846
21	0xbc7090b4	-0.014682937
22	0x3c725716	0.014791271
23	0xbd191f11	-0.037383143
24	0x3c250815	0.010072728
25	0x3d0f7835	0.035026748
26	0xbc6fe476	-0.014641872
27	0x3c02da56	0.007986626
28	0xbc9fc5a9	-0.019503431
29	0x3c75ea29	0.015009441
30	0xbcbcaa99	-0.023030566
31	0xbd088ccd	-0.033337403
32	0x3cc10492	0.02356175
33	0xbcea2a8b	-0.02858474
34	0xbcc3a22a	-0.023881037
35	0xbd0ac7f6	-0.033882104
36	0xbcd576cb	-0.026057621
37	0x3cb3c2ec	0.021943532
38	0xbcbbd766	-0.022929858
39	0xbc50b329	-0.012738028
40	0x3cac7275	0.021050671
41	0x3e32a4a7	0.17445622
42	0x3c89d624	0.016825743
43	0x3dc68ae3	0.09694459
44	0xbc9221a7	-0.017838312
45	0xbc92f289	-0.017937915
46	0xbc4b7068	-0.012416936
47	0xbcca051c	-0.02466064
48	0x3ca8491b	0.020542672
49	0x3d85e9da	0.06538744
50	0x3cc74414	0.024324454
51	0xbccbd16f	-0.02488014
52	0xbc982d9c	-0.018576436
53	0x3cd96d92	0.026541505
54	0x3c642a6f	0.013926133
55	0xbc77e311	-0.01512982
56	0x3cde9186	0.027169
57	0x3bf8d1a4	0.0075933505
58	0x3cb34919	0.021885442
59	0xbcfabdec	-0.03060814
60	0x3c41150a	0.011784801
61	0xbcd29185	-0.025704155
62	0x3d015ada	0.031580783
63	0x3c8923d1	0.016740711
64	0xbce97d92	-0.02850226
65	0x3c912226	0.017716479
66	0xbc9d6f78	-0.019218192
67	0x3cd28c6c	0.025701724
68	0xbb6b7475	-0.0035927568
69	0xbca29d3f	-0.019850371
70	0xbcd62cfd	-0.026144499
71	0x3c63ab72	0.013895856
72	0xbcaa1c2c	-0.020765387
73	0x3d09a634	0.03360577
74	0xbcf7df7b	-0.030257931
75	0x3cc1a600	0.023638725
76	0xbcc5e591	-0.024157317
77	0xbd0e14ad	-0.034687687
78	0xbd2b0c8c	-0.041760013
79	0x3c3d2468	0.011544324
80	0x3c51fe96	0.012817046
81	0xbcb60bfb	-0.02222251
82	0xbcdb4202	-0.026764873
83	0xbcf17b4a	-0.029477734
84	0x3c99477b	0.018710842
85	0xbc9dcd40	-0.01926291
86	0xbc811217	-0.015755696
87	0x3c59febb	0.013305361
88	0xbc62df21	-0.013847143
89	0x3ce27317	0.02764277
90	0x3cfd69a8	0.03093417
91	0xbcacd28d	-0.021096492
92	0xbc425135	-0.011860182
93	0xbc8dabc0	-0.01729381
94	0xbce8e2bf	-0.028428433
95	0x3d09d6c3	0.03365208
96	0xbd06c268	-0.032900244
97	0x3cd9f130	0.026604265
98	0xbcaf673e	-0.021411534
99	0xbce0225f	-0.02736014
100	0xbc9ed56a	-0.019388873
101	0xbca56841	-0.020191314
102	0xbcdaf1db	-0.026726654
103	0xbcd9c18c	-0.026581548
104	0x3c26a951	0.010172204
105	0x3c0fee6d	0.0087848725
106	0x3c421e9b	0.011848117
107	0xbcc6ce90	-0.024268419
108	0xbc9f10fe	-0.019417282
109	0x3bb8dde1	0.0056416844
110	0xbcd051f7	-0.025429709
111	0xbcb9eb74	-0.02269528
112	0x3c8b3365	0.01699228
113	0x3be9b895	0.0071325996
114	0xbccc4cb3	-0.024938917
115	0x3d2742aa	0.04083506
116	0xbd1c4184	-0.038148418
117	0xbd084b76	-0.03327509
118	0x3cae62b2	0.021287296
119	0xbcd4faab	-0.025998434
120	0xbc8fce69	-0.017554479
121	0x3cfaa986	0.030598413
122	0x3cf4d74d	0.02988782
123	0xbcf89aea	-0.030347306
124	0xbcac62c2	-0.021043185
125	0xbca556fe	-0.020183083
126	0x3d172d10	0.03690821
127	0xbc4070cc	-0.011745643
