p3_collab-compet/critic_0_weights.pth (torch_old, 226026 bytes, 7 tensors)

critic_layer_1.weight f4 [256, 24]
0.008221828 -0.30928 0.0983732 -0.114858754 0.014035648 -0.14916092 0.116722725 -0.05959701
0.17124806 -0.23139414 0.11211256 0.054791193 0.019061703 -0.7345192 0.06869013 0.15062779
0.19669153 -0.13287556 -0.11122319 -0.012455958 -0.36062062 0.121032625 -0.09833145 0.0006808601
0.132507 -0.21762651 0.028256753 0.18423519 -0.1539532 -0.7057834 -0.0027768824 0.22999313
0.28072983 -0.06865572 0.094692074 -0.20331213 -0.17235066 -0.4097152 0.16188829 -0.18407133
0.36846325 -0.008843954 -0.038082026 -0.20115 0.64443773 0.47750244 -0.08524669 -0.18234512
-0.0048456867 0.22647107 0.0071405787 -0.050885763 -0.06925964 -0.06050055 -0.02256404 -0.0145416865
0.06658445 0.2576574 0.011044403 -0.1347228 -0.09358005 -0.026889466 -0.026562724 -0.046201155
0.055517238 0.20954815 0.0023885814 -0.046968978 -0.027813667 -0.28240457 -0.08072598 0.0020808652
0.327131 0.43839353 -0.19585574 0.2958781 -0.11616639 -0.3659304 -0.24474089 0.27489662
0.3799705 0.6061794 0.034472268 0.081511684 -0.06518055 -0.5108069 0.01405873 0.041146293
0.3517793 0.54731786 0.051524695 0.1671344 0.06068597 -0.34616372 0.05481617 0.1311834
0.08704245 0.10899061 -0.05916236 -0.00671544 -0.5201618 -0.42407995 0.014124149 -0.060575455
0.032534894 0.09412111 -0.021277605 0.120829605 -0.11657479 0.17611328 0.03412217 0.061331708
0.013830362 0.076400094 0.0026728017 0.15194261 0.87946075 0.74216133 0.065704 0.17510357
0.17082523 -0.28317556 -0.029886212 -0.04298086 -0.10656846 -1.0637659 -0.079525575 -0.04900732
0.234477 -0.243885 -0.03286889 -0.0853908 -0.12844549 -1.1326952 -0.051446583 -0.09085694
0.38543144 -0.16773595 -0.017956149 0.5283502 0.26349697 0.25606814 -0.023349443 0.48501822
0.07049686 0.88730556 0.015092888 -0.13050798 0.11854814 0.1547199 -0.0014097176 -0.13251245
0.20540805 0.92871016 -0.017638184 -0.052041154 0.033587568 -0.16460967 -0.022269122 -0.041594233
0.21855369 0.9563857 -0.14622456 0.21778905 0.13785553 -0.7227191 -0.16700292 0.21824461
0.1495484 0.29110852 -0.07253943 -0.27925152 0.04718759 -0.71088815 -0.11000835 -0.1924255
0.19476758 0.14669521 -0.021079825 -0.15019251 0.032494962 -0.79267615 0.04729815 -0.16047363
0.25199446 0.18371704 0.09862358 0.55145097 0.06618192 -0.5677575 0.053399563 0.5312177
0.70799065 -0.53286356 0.046414457 -0.07306136 0.048053842 0.075580396 0.017241798 -0.06189624
0.45615733 -0.48902357 -0.18737756 -0.025580106 0.10278207 -0.22393575 -0.19331627 0.011089115
0.2978698 -0.4913029 -0.025053719 -0.54650086 0.052670352 -0.686661 -0.08184122 -0.47598082
0.030282326 0.10102039 0.04006397 -0.010873469 0.0042707054 -0.33133027 -0.03568404 0.0802768
0.14404519 0.114142105 -0.0027383706 -0.120803095 -0.019369056 -0.26239026 -0.025485788 -0.19427633
0.38980883 0.12704918 -0.041025057 0.03448939 -0.14097774 0.29719645 0.076528154 0.038110152
0.3691091 -0.26928097 0.013337702 0.029375643 -0.1582556 0.6494753 -0.025740435 -0.013594788
0.42667517 -0.2515896 -0.0155439535 -0.09426871 -0.42371163 0.46520364 0.0586488 0.022752827
00000000: d9b4 063c f359 9ebe e377 c93d 113b ebbd
00000010: c6f5 653c a4bd 18be 530c ef3d ff1b 74bd
00000020: a75b 2f3e 96f2 6cbe 459b e53d bb6c 603d
00000030: 4a27 9c3c 7309 3cbf 69ad 8c3d 2c3e 1a3e
00000040: 8169 493e 8810 08be fcc8 e3bd 1314 4cbc
00000050: 44a3 b8be f4df f73d 0062 c9bd bf7b 323a
00000060: eaaf 073e 7cd9 5ebe b57a e73c 26a8 3c3e
00000070: e8a5 1dbe 39ae 34bf 5bfc 35bb 5283 6b3e
00000080: d2bb 8f3e 5f9b 8cbd ebed c13d 0e31 50be
00000090: b17c 30be 31c6 d1be 0bc6 253e 327d 3cbe
000000a0: 37a7 bc3e 3be6 10bc e6fb 1bbd 44fa 4dbe
000000b0: dff9 243f 337b f43e d195 aebd aeb8 3abe
000000c0: 91c8 9ebb 08e8 673e 84fb e93b 976d 50bd
000000d0: 00d8 8dbd 6dcf 77bd 39d8 b8bc 4140 6ebc
000000e0: 6e5d 883d aceb 833e 95f3 343c c6f4 09be
000000f0: e6a6 bfbd 4c47 dcbc 129a d9bc 6c3d 3dbd
00000100: 0b66 633d ca93 563e bf89 1c3b 8b62 40bd
00000110: 7dd9 e3bc 5597 90be aa53 a5bd 205f 083b
00000120: b77d a73e 1e75 e03e 688e 48be 567d 973e
00000130: a5e8 edbd 3b5b bbbe 5b9d 7abe 40bf 8c3e
00000140: 7e8b c23e 932e 1b3f cb32 0d3d 99ef a63d
00000150: 617d 85bd 3ec4 02bf 9656 663c 0489 283d
00000160: 6b1c b43e 061d 0c3f 8f0b 533d 4825 2b3e
00000170: da91 783d 5f3c b1be ec86 603d f154 063e
00000180: 5043 b23d 7836 df3d 3b54 72bd 320d dcbb
00000190: 5329 05bf 0221 d9be fa68 673c f81d 78bd
000001a0: 4f43 053d 92c2 c03d 5f4e aebc 8375 f73d
000001b0: c3be eebd 0a57 343e b0c3 0b3d f536 7b3d
000001c0: be98 623c a777 9c3d 2c2a 2f3b d896 1b3e
000001d0: 5724 613f 49fe 3d3f d28f 863d 5a4e 333e
000001e0: cfec 2e3e 63fc 90be eed3 f4bc b30c 30bd
000001f0: 9140 dabd 7b29 88bf 4ede a2bd e6bb 48bd
00000200: bd1a 703e fdbc 79be 87a1 06bd 5fe1 aebd
00000210: 3787 03be 28fc 90bf a7b9 52bd 3413 babd
00000220: 4557 c53e f9c2 2bbe c618 93bc f541 073f
00000230: 13e9 863e 5d1b 833e 5547 bfbc 4f54 f83e
00000240: a860 903d 7526 633f 2948 773c e2a3 05be
00000250: 5ec9 f23d e56e 1e3e 46c6 b8ba 58b1 07be
00000260: 7d56 523e f3bf 6d3f f47d 90bc 1b29 55bd
00000270: 1e93 093d 708f 28be bc6d b6bc b75e 2abd
00000280: 8acc 5f3e b1d5 743f e4bb 15be 1804 5f3e
00000290: 002a 0d3e 1e04 39bf d002 2bbe 847b 5f3e
000002a0: 3723 193e 2d0c 953e 8d8f 94bd 0efa 8ebe
000002b0: c647 413d c4fc 35bf 0f4c e1bd 310b 45be
000002c0: 2771 473e 4537 163e 99af acbc 11cc 19be
000002d0: 7019 053d d3ec 4abf b4bb 413d 3353 24be
000002e0: 6b05 813e 5220 3c3e 29fb c93d e42b 0d3f
000002f0: 638a 873d 8e58 11bf 80b9 5a3d e2fd 073f
00000300: e03e 353f bf69 08bf 161d 3e3d 32a1 95bd
00000310: 1bd4 443d e5c9 9a3d ac3e 8d3c e986 7dbd
00000320: 748d e93e 4c61 fabe e7df 3fbe 5f8d d1bc
00000330: 687f d23d 6a4f 65be b3f4 45be 1faf 353c
00000340: 6482 983e 0e8c fbbe 753d cdbc 7be7 0bbf
00000350: debc 573d 04c9 2fbf 5f9c a7bd c2b3 f3be
00000360: a412 f83c c7e3 ce3d 1e1a 243d a226 32bc
00000370: 46f1 8b3b 1fa4 a9be 6e29 12bd 2a68 a43d
00000380: 9580 133e 56c3 e93d 3c76 33bb 9d67 f7bd
00000390: dbab 9ebc 0458 86be 92c7 d0bc 60f0 46be
000003a0: 0695 c73e 2e19 023e e409 28bd bf44 0d3d
000003b0: 785c 10be 222a 983e cbba 9c3d 6419 1c3d
000003c0: defb bc3e 32df 89be 6086 5a3c 30a5 f03c
000003d0: c20d 22be 0344 263f 9bdd d2bc acbc 5ebc
000003e0: 2b75 da3e 5ad0 80be 11ac 7ebc f40f c1bd
000003f0: bbf0 d8be 2c2f ee3e b939 703d 2364 ba3c

critic_layer_1.bias f4 [256]
-0.2914647 -0.31975648 -0.5640367 -0.31479532 -0.32047862 -0.66678953 -0.64992845 -0.6110239
-0.5669597 -0.7828148 -0.08436651 -0.3114107 0.2684773 -0.6774478 -0.46187145 0.06910043
-0.31704366 -0.5126698 -0.015084648 -0.44559836 0.21050535 -0.074183986 -1.2265835 -0.5883648
-0.78117424 -0.079406634 -0.63740546 -0.24364479 -0.48970658 -0.37219104 -0.78558993 -0.37510875
-0.5017675 -0.35251734 -0.84301794 -0.6247922 -0.24124296 -0.2454181 -0.4795697 -0.46756476
-0.30023506 -0.19997452 0.05229692 -0.61836857 -0.47969118 -0.5505123 -0.7530246 -0.4599975
-0.4223814 -0.33611462 -0.52728814 0.09822394 -0.35140714 -0.2944245 -0.42016447 0.032272216
-0.45605966 -0.038392868 -0.7081495 0.40316245 -0.69685787 -0.5975865 -0.39716107 -0.59904003
-0.25014308 0.034937266 -0.66361046 -0.34870875 -1.0313292 -0.38496706 -0.5943241 -0.39653668
0.033626482 -0.8139942 -0.7019072 0.33752078 -0.35454896 0.2130809 -0.88601583 -0.5042162
-0.27238145 0.3405629 -0.76792675 -0.9056194 -0.30600846 -0.10175143 -0.5828528 -0.10107664
-0.50650245 -0.21329243 -0.6765427 -0.4838946 -0.542193 -0.4785894 0.0031047754 -0.8086734
-0.21491341 -0.9191495 -0.049295474 -0.38587922 0.07341616 0.15339823 -0.45380145 0.32452396
-0.16693415 0.049153082 -0.2201975 0.39555135 -0.29692632 -0.19718166 0.76367205 -0.7284594
-0.6435258 -0.5154476 -0.074033536 -0.20665008 -0.22435515 -0.6963197 0.19997405 -0.12853527
-0.6926405 -0.07596201 -0.013611954 0.28822348 -0.4654328 -0.37182385 -0.33874553 0.06998871
-0.4216895 -0.9738189 -0.47797677 -0.8237691 -0.8455276 -0.47803628 -0.025164865 -0.13753927
-0.027561467 -0.6959692 0.023743402 -0.61745477 -0.35021147 -0.3292819 -0.08557778 -0.06202348
-0.38818723 -0.7761238 -0.32980046 -0.4996399 -0.19060327 0.07710864 -0.1314839 0.22691222
-0.099519536 -0.47704953 0.22725321 0.32543054 0.24620755 -0.37227523 -0.105102 -0.5762006
-0.6461958 0.2555594 -0.02198195 0.13521944 -0.91649306 -0.55361503 -0.59912246 -0.3792792
-0.5405439 0.18473682 -0.62306094 -0.88047135 -0.8397431 -0.07136331 -0.44519097 -0.7876612
-0.3133277 -0.0019860417 -0.7474282 0.25572369 -0.772854 -0.51352036 0.06758533 0.3092505
0.07479143 -0.69477737 -0.15580796 -0.8171508 -0.618159 0.17381121 0.14739923 -0.2291256
-0.8376909 -0.16526808 -0.11648694 -0.6353274 -0.22788331 -0.33651042 -0.3207247 -0.8110479
0.16642424 -0.2231111 -0.462126 -0.10270757 -0.012613759 0.0054110037 -0.37871122 -0.29134342
-0.010537279 -0.48638147 -0.14270276 -0.099878214 -0.03468345 -0.30375716 -0.57586676 -0.5326208
-0.059690397 -0.07210106 -0.25005332 -0.7810115 -0.6298267 -0.1370882 0.35533583 -0.6025287
-0.30984318 -0.03402767 -0.13462982 -0.98082525 -0.16210993 -0.17432389 0.15355144 0.2344513
-0.4892748 -0.4820567 -0.3571739 -0.037055988 -0.3924297 -0.46416324 0.56127137 -0.20619737
0.01191814 -0.45264244 -0.36344877 0.098563395 -0.6365915 -0.30977833 -0.011733529 -0.30487826
-0.33234912 -0.6722088 -0.6030919 -0.31594753 0.13175648 0.48101 -0.5124221 -0.6804111
00000000: dc3a 95be 1fb7 a3be b664 10bf da2c a1be
00000010: c615 a4be b8b2 2abf b661 26bf 106c 1cbf
00000020: 4524 11bf 8d66 48bf 59c8 acbd 3971 9fbe
00000030: db75 893e 386d 2dbf 6a7a ecbe 8784 8d3d
00000040: 8c53 a2be 543e 03bf 9925 77bc 7825 e4be
00000050: b78e 573e c6ed 97bd b000 9dbf 139f 16bf
00000060: 09fb 47bf f29f a2bd 012d 23bf 057e 79be
00000070: d2ba fabe d38f bebe 6c1c 49bf 410e c0be
00000080: d673 00bf 277d b4be 06d0 57bf 62f2 1fbf
00000090: 6508 77be e24e 7bbe 298a f5be a664 efbe
000000a0: 69b8 99be 1fc6 4cbe 4c35 563d 674d 1ebf
000000b0: 159a f5be 60ee 0cbf 38c6 40bf cb84 ebbe
000000c0: 6042 d8be 3717 acbe 5bfc 06bf a229 c93d
000000d0: a3eb b3be cfbe 96be cc1f d7be df2f 043d
000000e0: a780 e9be d741 1dbd 4949 35bf 4f6b ce3e
000000f0: 4765 32bf 6efb 18bf b258 cbbe b05a 19bf
00000100: c112 80be 611a 0f3d 60e2 29bf f489 b2be
00000110: 9802 84bf 671a c5be a025 18bf db06 cbbe
00000120: ecbb 093d ed61 50bf 31b0 33bf 86cf ac3e
00000130: 7187 b5be e131 5a3e efd1 62bf 5014 01bf
00000140: 9575 8bbe 435e ae3e d996 44bf acd6 67bf
00000150: 24ad 9cbe 0e63 d0bd d735 15bf 4501 cfbd
00000160: 25aa 01bf 5569 5abe e731 2dbf 08c1 f7be
00000170: 29cd 0abf ab09 f5be 7d79 4b3b 3805 4fbf
00000180: 4312 5cbe 624d 6bbf 0dea 49bd f691 c5be
00000190: 365b 963d 6d14 1d3e aa58 e8be 0128 a63e
000001a0: c9f0 2abe be54 493d 747b 61be b585 ca3e
000001b0: ba06 98be fde9 49be 0380 433f 517c 3abf
000001c0: 1bbe 24bf 60f4 03bf e59e 97bd 149c 53be
000001d0: 5bbd 65be 0242 32bf ffc5 4c3e c09e 03be
000001e0: e350 31bf f891 9bbd ac04 5fbc 0792 933e
000001f0: 354d eebe b25f bebe 0e70 adbe 3e56 8f3d
00000200: b0e7 d7be 324c 79bf 5fb9 f4be 88e2 52bf
00000210: 7f74 58bf 2cc1 f4be 8c26 cebc 18d7 0cbe
00000220: 96c8 e1bc 0a2b 32bf 8681 c23c 8411 1ebf
00000230: eb4e b3be a397 a8be 6743 afbd 550c 7ebd
00000240: 7ac0 c6be 0db0 46bf 9bdb a8be cdd0 ffbe
00000250: 812d 43be 22eb 9d3d b7a3 06be ad5b 683e
00000260: e6d0 cbbd d63f f4be 11b5 683e d59e a63e
00000270: d51d 7c3e dc9a bebe b83f d7bd e281 13bf
00000280: 176d 25bf afd8 823e 7e13 b4bc f776 0a3e
00000290: 4a9f 6abf b7b9 0dbf 1760 19bf e230 c2be
000002a0: 1661 0abf a62b 3d3e ec80 1fbf 9266 61bf
000002b0: 67f9 56bf ed26 92bd 12f0 e3be 2aa4 49bf
000002c0: 7d6c a0be 4028 02bb 7457 3fbf 37ee 823e
000002d0: c2d9 45bf 1276 03bf 2d6a 8a3d 1556 9e3e
000002e0: 402c 993d eedc 31bf 1f8c 1fbe cb30 51bf
000002f0: ab3f 1ebf 91fb 313e d3ef 163e e79f 6abe
00000300: e972 56bf 093c 29be b490 eebd d1a4 22bf
00000310: 3e5a 69be 184b acbe 0736 a4be d6a0 4fbf
00000320: 1e6b 2a3e 3c77 64be c79b ecbe 5958 d2bd
00000330: f1a9 4ebc ca4e b13b 70e6 c1be f72a 95be
00000340: 8da4 2cbc fe06 f9be ac20 12be f38c ccbd
00000350: 3c10 0ebd 0f86 9bbe 016c 13bf d659 08bf
00000360: eb7d 74bd b8a9 93bd fd06 80be 5ff0 47bf
00000370: 533c 21bf d960 0cbe 94ee b53e 523f 1abf
00000380: c4a3 9ebe 9960 0bbd 66dc 09be 5d17 7bbf
00000390: 2500 26be f681 32be 973c 1d3e 0014 703e
000003a0: 3a82 fabe 23d0 f6be 7fdf b6be 05c8 17bd
000003b0: 8cec c8be cea6 edbe 7baf 0f3f 6725 53be
000003c0: 4d44 433c c0c0 e7be f515 babe 9bdb c93d
000003d0: a9f7 22bf 449b 9ebe fd3d 40bc 0119 9cbe
000003e0: aa29 aabe e015 2cbf 3b64 1abf e0c3 a1be
000003f0: 2ceb 063e f146 f63e 182e 03bf 6c2f 2ebf

critic_layer_2.weight f4 [128, 258]
0.23143458 -0.038962156 0.1270524 -0.2707784 -0.49570897 0.57650465 -0.21397457 0.016140774
-0.057277918 0.008036409 0.096231684 0.107613385 0.101613194 0.25185263 0.01220149 -0.12624787
-0.07837285 0.008862423 -0.4223482 -0.35262623 -0.39496726 0.15088546 0.16913891 0.13289669
-0.06456745 0.16415562 0.0005544915 -0.10246926 0.14993307 -0.25766328 0.2125975 -0.7172008
0.0073998543 -0.012118177 -0.33194435 0.14909665 0.23571847 0.28211594 0.11962614 0.1574181
-0.05443174 -0.02941397 -0.0083662635 0.019724725 -0.55541223 -0.10355268 -0.36161402 -0.05418617
-0.043077454 -0.02105839 -0.030552588 -0.20563425 0.088266246 -0.30206937 0.05827813 0.3372928
0.1432144 0.03259747 0.26220804 0.027636392 -0.7308356 -0.10623221 0.15573102 0.24750334
0.0105346795 0.021308346 -0.51134557 -0.26921904 -0.47919363 -0.009177179 -0.014510615 -0.23391923
0.08259094 0.04171354 -0.07974083 -0.037214708 0.09168486 -0.5308153 0.030891666 -0.45290628
-0.04447146 0.08327571 -0.1338603 0.12175139 0.06506836 -0.038476136 -0.07375254 -0.18569647
-0.17589104 -0.4069254 -0.10725692 0.03546408 -0.104205325 -0.12505251 0.07694293 -0.061116867
-0.31788915 -0.10325077 -0.14661445 0.13628218 0.2639154 0.35186008 0.1206871 -0.25846273
-0.7336018 0.010661527 0.32456598 -0.3483285 0.059563022 -0.18064651 0.19392686 -0.0045440486
0.066939116 0.07387381 0.052534014 -0.1606156 -0.07536732 -0.2646986 0.102610566 -0.5631043
-0.12734893 -0.2009638 -0.018632585 -0.2900569 0.038808726 0.06890827 -0.55459654 0.06329565
0.36554512 -0.38521484 0.018796667 0.19989024 0.02717926 0.12218048 0.2965953 0.16006827
0.21616408 -0.21590997 0.13858691 0.108898945 -0.06786709 -0.30027995 -0.064637765 -0.055995952
0.11239145 -0.20668103 -0.06892473 -0.073197946 0.1361975 0.006538284 0.045195043 -0.026871808
-0.070080444 0.3890158 -0.055506177 -0.30651143 0.25155595 0.02028315 -0.091477476 0.023514008
0.119137205 -0.82972485 -0.083997145 0.14451899 0.39836034 0.10696434 0.076334335 -0.012260551
-0.023523562 -0.21086155 0.27510798 0.03346396 0.047371823 -0.43391797 -0.8235145 -0.16174637
0.080474995 0.44215235 -0.02967053 -0.4790359 -0.21631697 -0.05263845 -0.41646543 -0.05813465
-0.24812232 0.117130145 -0.2773644 0.1135945 -0.069766805 -0.33417365 -0.024484694 -0.24394803
-0.14279409 0.17855778 -0.10183736 0.16119096 -0.20961204 -0.09171809 -0.13672824 -0.2210594
-0.20903893 -0.005376469 -0.2027427 0.2814199 -0.20728447 -0.43869495 -0.4305164 -0.2786542
-0.22056608 -0.13296668 -0.2279013 -0.103228286 0.74574286 -0.14899229 -0.048733518 -0.29196274
-0.27340302 0.32814813 -0.24723803 -0.16866526 -0.0009825464 0.13989909 -0.033309482 -0.93234
-0.38393041 0.16174169 -0.14874585 -0.0790349 -0.33297607 -0.14825478 0.22039239 -0.15772848
0.09419492 0.13111804 -0.081513874 -0.15185472 -0.10489983 -0.12875333 -0.6153439 0.39698794
-0.2511157 0.014633772 -0.19635086 0.031114694 -0.19045235 0.18258655 -0.060570724 -0.441755
0.07478772 0.16392227 0.27217013 -0.20483515 -0.17064156 -0.3251013 -0.49954015 0.09871237
00000000: 30fd 6c3e c896 1fbd 061a 023e 77a3 8abe
00000010: 91cd fdbe cf95 133f 261c 5bbe a839 843c
00000020: 409c 6abd 24ab 033c 1e15 c53d 6864 dc3d
00000030: 941a d03d d4f2 803e c2e8 473c 1f47 01be
00000040: f281 a0bd b233 113c 063e d8be 6d8b b4be
00000050: 2639 cabe b881 1a3e c032 2d3e 1216 083e
00000060: f03b 84bd 6918 283e 4b5b 113a 67db d1bd
00000070: 0e88 193e 71ec 83be 29b3 593e 799a 37bf
00000080: 7a7a f23b 518b 46bc 9cf4 a9be cbac 183e
00000090: 2f60 713e 8071 903e 8dfe f43d 3632 213e
000000a0: d1f3 5ebd 91f5 f0bc a712 09bc bf95 a13c
000000b0: 7f2f 0ebf 6d13 d4bd 7925 b9be 51f2 5dbd
000000c0: fc71 30bd a582 acbc 6c49 fabc c991 52be
000000d0: efc4 b43d d6a8 9abe 0cb5 6e3d a4b1 ac3e
000000e0: cca6 123e ed84 053d 2240 863e b765 e23c
000000f0: 0b18 3bbf 4690 d9bd f477 1f3e 8471 7d3e
00000100: a699 2c3c d78e ae3c 8be7 02bf 14d7 89be
00000110: de58 f5be e15b 16bc eebd 6dbc 8688 6fbe
00000120: 7025 a93d d1db 2a3d 294f a3bd 736e 18bd
00000130: 46c5 bb3d 83e3 07bf 8510 fd3c 55e3 e7be
00000140: b527 36bd 758c aa3d ad12 09be cb58 f93d
00000150: 8f42 853d 2799 1dbd 920b 97bd 3727 3ebe
00000160: c81c 34be 8758 d0be 84a9 dbbd c842 113d
00000170: 9a69 d5bd c40d 00be 4194 9d3d ae55 7abd
00000180: 5ec2 a2be 2475 d3bd 1922 16be 8e8d 0b3e
00000190: eb1f 873e 0127 b43e cc2a f73d 3a55 84be
000001a0: 54cd 3bbf afad 2e3c 832d a63e 1d58 b2be
000001b0: 5bf8 733d 66fb 38be c394 463e 3ee6 94bb
000001c0: 6017 893d 274b 973d e82d 573d 6a78 24be
000001d0: 2e5a 9abd 9386 87be 7d25 d23d 9a27 10bf
000001e0: c267 02be 74c9 4dbe 5da3 98bc 5782 94be
000001f0: e6f5 1e3d c71f 8d3d 0afa 0dbf 26a1 813d
00000200: bb28 bb3e e13a c5be 78fb 993c 07b0 4c3e
00000210: 0aa7 de3c c239 fa3d 57db 973e f0e8 233e
00000220: 1e5a 5d3e 8117 5dbe bae9 0d3e 6906 df3d
00000230: e7fd 8abd 4bbe 99be ce60 84bd 035c 65bd
00000240: 7d2d e63d 31a4 53be 6928 8dbd cee8 95bd
00000250: 5c77 0b3e 1a3f d63b 701e 393d 4422 dcbc
00000260: 5686 8fbd 142d c73e 725a 63bd 11ef 9cbe
00000270: f1cb 803e d928 a63c 8b58 bbbd 73a0 c03c
00000280: 35fe f33d d968 54bf b206 acbd c9fc 133e
00000290: e3f5 cb3e 1f10 db3d 2d55 9c3d 7ae0 48bc
000002a0: 7cb4 c0bc 17ec 57be f4da 8c3e 8111 093d
000002b0: f508 423d 7f2a debe d9d1 52bf d7a0 25be
000002c0: 13d0 a43d cb61 e23e 9d0f f3bc 3244 f5be
000002d0: 3282 5dbe 6a9b 57bd f53a d5be 991e 6ebd
000002e0: c713 7ebe eee1 ef3d b502 8ebe 3ca4 e83d
000002f0: e6e1 8ebd cf18 abbe 2094 c8bc 83cd 79be
00000300: 9d38 12be dad7 363e 1b90 d0bd 3e0f 253e
00000310: 8aa4 56be b2d6 bbbd 7d02 0cbe 655d 62be
00000320: 4d0e 56be 172d b0bb c89b 4fbe 4516 903e
00000330: 6142 54be a09c e0be a56c dcbe c3ab 8ebe
00000340: 13dc 61be 6b28 08be f55e 69be 5a69 d3bd
00000350: 01e9 3e3f 6f91 18be cc9c 47bd 247c 95be
00000360: 7bfb 8bbe 0803 a83e f72b 7dbe 96b6 2cbe
00000370: c9c8 80ba b541 0f3e 866f 08bd d6ad 6ebf
00000380: 8792 c4be 9d9f 253e d550 18be 0ddd a1bd
00000390: d77b aabe 1ad0 17be 8bae 613e 9383 21be
000003a0: 44e9 c03d cf43 063e bff0 a6bd ce7f 1bbe
000003b0: b9d5 d6bd ead7 03be 2e87 1dbf 0142 cb3e
000003c0: 3d92 80be 7dc2 6f3c 3310 49be 3ee4 fe3c
000003d0: f105 43be f8f7 3a3e 0219 78bd b62d e2be
000003e0: 4e2a 993d 3ddb 273e e259 8b3e 4ec0 51be
000003f0: a9bc 2ebe ad73 a6be bac3 ffbe b629 ca3d

critic_layer_2.bias f4 [128]
0.047814887 -0.048159186 -0.024126202 -0.18109871 0.033732243 0.38427728 -0.322908 -0.29135978
-0.04639765 -0.11933931 -0.30095994 -0.3809252 0.039707147 0.008340511 -0.4563365 0.056105174
0.033977274 -0.25013974 -0.316616 -0.10114228 -0.2692407 0.2724214 -0.22785966 -0.05802998
0.019787256 -0.39200458 -0.13712974 -0.23727015 0.571735 -0.3924756 -0.57490045 0.55518204
0.03482641 0.04644197 0.4070954 0.08308781 -0.4092427 0.0073963352 -0.2785488 -0.78796965
-0.048896614 0.068492666 -0.200382 -0.34858578 0.069929175 -0.046850026 -0.16470169 -0.22228329
-0.29647303 0.29155988 0.09517896 -0.53705573 -0.071526825 -0.44468275 0.11675369 -0.49068537
0.34228638 0.072928436 -0.03563101 -0.40040627 0.0103547955 -0.0746642 -0.11322649 -0.14086372
-0.13116962 -0.49420244 -0.11718281 -0.013861429 -0.3223763 -0.7054959 -0.4034826 -0.34983608
-0.89484006 0.02425139 -0.15476525 0.01629249 -0.029109428 -0.15452081 -0.11630489 0.35088956
-0.1606808 -0.24943377 0.21889262 -0.4962704 0.03869468 -0.28385338 -0.051795486 0.27028748
-0.32342508 -0.15527435 -0.15069562 0.06259927 0.14675555 0.015260282 0.1309015 0.09208899
-0.17530006 -0.08746024 -0.06669131 0.052523877 0.025739241 -0.29622075 0.09814961 -0.29368058
-0.115967356 -0.38598537 -0.14988306 -0.46935463 0.13888085 0.43425712 0.016753983 0.23409007
0.12331099 -0.09320583 0.02823129 -0.08301504 0.028720913 -0.4729841 0.08911372 0.062496383
0.48276788 -0.042095244 0.018036775 -0.47367755 0.21177231 -0.7680664 -0.13216414 -0.23122525
00000000: 8bd9 433d 9142 45bd 50a4 c5bc f171 39be
00000010: d22a 0a3d febf c43e 3354 a5be 1c2d 95be
00000020: 760b 3ebd 2b68 f4bd 6c17 9abe a108 c3be
00000030: f6a3 223d a3a6 083c f0a4 e9be 8ace 653d
00000040: c12b 0b3d 5112 80be 7e1b a2be af23 cfbd
00000050: ebd9 89be d17a 8b3e 0b54 69be d8b0 6dbd
00000060: e218 a23c d3b4 c8be bd6b 0cbe f2f6 72be
00000070: 3a5d 123f 90f2 c8be ad2c 13bf 6920 0e3f
00000080: 23a6 0e3d ef39 3e3d cf6e d03e f129 aa3d
00000090: 4288 d1be f55c f23b f39d 8ebe 61b8 49bf
000000a0: d147 48bd e245 8c3d f030 4dbe d679 b2be
000000b0: 0737 8f3d d0e5 3fbd 8fa7 28be 3b9e 63be
000000c0: 50cb 97be 5647 953e 30ed c23d 7c7c 09bf
000000d0: a87c 92bd 75ad e3be 8f1c ef3d 1d3b fbbe
000000e0: 2940 af3e 815b 953d d2f1 11bd 0d02 cdbe
000000f0: 29a7 293c 8be9 98bd 4ae3 e7bd 943e 10be
00000100: 5451 06be 1a08 fdbe 8bfd efbd 0c1b 63bc
00000110: 820e a5be 619b 34bf 4595 cebe b71d b3be
00000120: 3d14 65bf daaa c63c c87a 1ebe d477 853c
00000130: e576 eebc b43a 1ebe 4231 eebd cca7 b33e
00000140: 8289 24be 916b 7fbe 6325 603e 2717 febe
00000150: 507e 1e3d 3b55 91be 8127 54bd 1f63 8a3e
00000160: f997 a5be 3d00 1fbe f44f 1abe 0c34 803d
00000170: 1647 163e 4306 7a3c 0b0b 063e 2799 bc3d
00000180: dc81 33be 5b1e b3bd 7495 88bd 4723 573d
00000190: 1adb d23c 3faa 97be aa02 c93d 4d5d 96be
000001a0: 4b80 edbd e09f c5be f27a 19be 404f f0be
000001b0: c836 0e3e f356 de3e a63f 893c 4fb5 6f3e
000001c0: 798a fc3d b3e2 bebd 4e45 e73c ca03 aabd
000001d0: 1f48 eb3c f92a f2be 4181 b63d 35fc 7f3d
000001e0: 5a2d f73e 106c 2cbd dcc1 933c dd85 f2be
000001f0: d7da 583e 00a0 44bf 0956 07be 50c6 6cbe

critic_layer_3.weight f4 [128, 128]
-0.27678022 0.03869265 0.1622426 0.35293722 0.3558215 0.037104763 0.17953251 0.12773842
0.62338316 0.08872831 -0.056227792 -0.085792236 -0.007030226 0.339311 -0.012217751 0.48809135
-0.36264825 -0.15880896 0.3547311 0.078958616 0.0982789 -0.09727005 -0.12068558 -0.11164915
0.17828585 0.41076556 0.21517637 -0.0074551995 -0.34066185 0.10674896 0.19046044 -0.29210687
0.2365874 -0.18592247 -0.14701188 0.047386475 -0.12656942 -0.038179282 -0.09846655 0.1188118
-0.13795707 0.4739378 -0.074913755 0.2484352 -0.30248407 -0.062104482 0.24227716 0.21166861
0.25535142 -0.3158185 0.49096742 -0.014311005 0.389174 0.010294226 -0.37926093 0.43457282
-0.21518199 0.028575959 -0.38781023 -0.03265153 -0.14010173 0.24946277 0.51550746 0.28906643
0.24120073 0.011042532 -0.06710769 0.2979864 0.43833593 -0.10050442 0.31839263 -0.25901297
-0.057110053 0.43599844 0.13337462 0.02828643 -0.15872084 -0.28899416 -0.0034847097 -0.12916195
-0.19987255 0.095901445 -0.15359998 0.18589917 0.343497 -0.2534781 0.2608536 -0.102708235
0.021424007 0.14718762 -0.16628039 -0.026226673 -0.2178546 0.19286032 -0.63354564 0.22973076
0.048192184 0.23104563 0.4437637 -0.1307338 -0.08687562 0.20686302 -0.083146825 -0.05617011
0.592945 -0.45252106 -0.042466383 0.107049085 -0.14620891 -0.39712673 0.2242353 -0.20048773
-0.055428 0.34247625 -0.0013563657 0.06296344 -0.010028323 0.65205383 0.10326305 0.38263315
-0.2231357 -0.03866082 0.013302835 0.11203948 -0.08935966 -0.1462339 0.42955238 0.080091454
0.04714111 -0.032422747 0.08629117 0.38733575 0.39795655 -0.13263232 0.109344095 0.22458026
0.51255524 -0.1334618 -0.16405769 -0.16932675 0.05523175 0.13850622 0.007991347 0.41074952
-0.20365989 -0.08875463 0.18975137 0.29393896 0.20092139 -0.42508245 -0.19886605 0.0406618
0.20004475 0.24496625 0.14828783 0.012123186 -0.082432374 0.03167535 0.08766344 -0.110801004
0.1883751 0.0634427 -0.1655025 -0.17912368 -0.13650076 -0.10427691 0.31378657 0.084839396
0.01652096 -0.05542865 -0.26614717 0.084635794 -0.013598228 0.014321748 0.07734808 -0.3667874
0.36632314 -0.3025276 0.24890739 0.090602934 0.46763307 -0.077645175 0.07382042 0.3181843
-0.26289672 -0.11734503 0.019193785 -0.097717986 0.1265593 0.15187742 0.5209379 -0.014072083
0.18949291 -0.085272714 -0.113029554 -0.29090208 0.18490784 -0.24643885 0.061064266 0.2756803
0.03392537 0.68218154 0.016647754 -0.027662175 -0.049902767 -0.18119702 -0.021972608 0.03613542
-0.10745384 -0.11897292 0.022277731 0.17408803 0.19965678 0.24351612 0.2510011 -0.18889363
-0.040861588 0.08318579 0.045525152 0.15635283 -0.34802985 -0.29272825 -0.42552832 -0.14458346
0.03677587 0.2594389 0.29414114 -0.2206957 -0.20616071 -0.27462378 -0.11157966 -0.115334
0.5082215 -0.40792546 0.25268826 0.28686726 -0.056273703 -0.25991985 0.35585764 0.27799997
0.123784795 0.18354425 0.2166398 0.18738732 -0.37590772 0.37274215 -0.1445399 0.28870463
-0.36740476 -0.32679915 -0.30058542 -0.031616483 0.023598598 -0.25236905 0.23793618 0.28405365
00000000: 23b6 8dbe 2f7c 1e3d ed22 263e 30b4 b43e
00000010: 3c2e b63e 2afb 173d 5fd7 373e dccd 023e
00000020: 0a96 1f3f 30b7 b53d 1d4f 66bd d7b3 afbd
00000030: cf5d e6bb 2cba ad3e f62c 48bc 1ce7 f93e
00000040: 08ad b9be d19e 22be 519f b53e 0eb5 a13d
00000050: 7346 c93d 8535 c7bd 002a f7bd 4fa8 e4bd
00000060: 9190 363e dd4f d23e 3257 5c3e bf4a f4bb
00000070: 3b6b aebe 339f da3d 1008 433e 088f 95be
00000080: f843 723e 7662 3ebe 488a 16be 5218 423d
00000090: 6a9b 01be e161 1cbd d5a8 c9bd 9a53 f33d
000000a0: 9e44 0dbe faa7 f23e 626c 99bd cc65 7e3e
000000b0: 31df 9abe 4561 7ebd 8117 783e a8bf 583e
000000c0: 6cbd 823e f6b2 a1be 1560 fb3e b578 6abc
000000d0: d141 c73e 1da9 283c 7d2e c2be 5480 de3e
000000e0: ab58 5cbe 2118 ea3c 108f c6be 9cbd 05bd
000000f0: d476 0fbe 2b73 7f3e 4cf8 033f 8400 943e
00000100: 53fd 763e bceb 343c c26f 89bd ac91 983e
00000110: 916d e03e 43d5 cdbd 5c04 a33e 599d 84be
00000120: 3bec 69bd 303b df3e 5b93 083e f1b8 e73c
00000130: b787 22be 0bf7 93be ba5f 64bb 0843 04be
00000140: 64ab 4cbe fa67 c43d 5049 1dbe 5a5c 3e3e
00000150: d7de af3e e2c7 81be 9a8e 853e b258 d2bd
00000160: 6681 af3c 5ab8 163e 6845 2abe 52d9 d6bc
00000170: 4715 5fbe 2d7d 453e 0c30 22bf 8a3e 6b3e
00000180: 2b65 453d 3a97 6c3e ff34 e33e 15df 05be
00000190: d8eb b1bd e6d3 533e e248 aabd a112 66bd
000001a0: 3ecb 173f d7b0 e7be 3bf1 2dbd 8d3c db3d
000001b0: cab7 15be 3254 cbbe f09d 653e a84c 4dbe
000001c0: 7808 63bd 0c59 af3e 15c8 b1ba faf2 803d
000001d0: d64d 24bc 00ed 263f 947b d33d 7ee8 c33e
000001e0: af7d 64be cf5a 1ebd 22f4 593c f474 e53d
000001f0: 3302 b7bd 57be 15be 4aee db3e fd06 a43d
00000200: 0917 413d b7cd 04bd 6db9 b03d df50 c63e
00000210: f6c0 cb3e c4d0 07be ccef df3d 5ef8 653e
00000220: d236 033f 36aa 08be bdfe 27be fe63 2dbe
00000230: b03a 623d 93d4 0d3e 24ee 023c c34d d23e
00000240: 388c 50be fdc4 b5bd 2f4e 423e 2b7f 963e
00000250: 56be 4d3e 68a4 d9be 8ba3 4bbe fd8c 263d
00000260: 88d8 4c3e 6fd8 7a3e c4d8 173e 54a0 463c
00000270: 4ed2 a8bd 03be 013d e488 b33d a3eb e2bd
00000280: 67e5 403e 3fee 813d 7d79 29be 336c 37be
00000290: dbc6 0bbe 228f d5bd a2a8 a03e 47c0 ad3d
000002a0: f756 873c 2709 63bd 7144 88be 8855 ad3d
000002b0: 1acb 5ebc c4a5 6a3c ac68 9e3d 8fcb bbbe
000002c0: b58e bb3e e6e4 9abe 94e1 7e3e 088e b93d
000002d0: 9a6d ef3e 6f04 9fbd 292f 973d 0de9 a23e
000002e0: 669a 86be 9752 f0bd 493c 9d3c 5e20 c8bd
000002f0: c398 013e c185 1b3e 305c 053f 988e 66bc
00000300: 6e0a 423e 76a3 aebd 0a7c e7bd 1ef1 94be
00000310: 7b58 3d3e 775a 7cbe 861e 7a3d f825 8d3e
00000320: 54f5 0a3d 73a3 2e3f df60 883c c99b e2bc
00000330: d866 4cbd b68b 39be e6ff b3bc bc02 143d
00000340: c210 dcbd 13a8 f3bd ca7f b63c 2244 323e
00000350: d472 4c3e 4a5c 793e 3783 803e 556d 41be
00000360: 7b5e 27bd 505d aa3d 9578 3a3d f51a 203e
00000370: f830 b2be 7ae0 95be d9de d9be b00d 14be
00000380: 4ba2 163d 2dd5 843e ab99 963e 0efe 61be
00000390: cb1b 53be 7d9b 8cbe e083 e4bd 3b34 ecbd
000003a0: ce1a 023f 9bdb d0be 5b60 813e 44e0 923e
000003b0: 417f 66bd 3714 85be f932 b63e 0356 8e3e
000003c0: e282 fd3d 06f3 3b3e d3d6 5d3e 76e2 3f3e
000003d0: fa76 c0be 0fd8 be3e 4402 14be 18d1 933e
000003e0: 7a1c bcbe 3852 a7be 55e6 99be 4980 01bd
000003f0: d951 c13c 8436 81be 8ba5 733e 7b6f 913e

critic_layer_3.bias f4 [128]
-0.28644377 -0.19931482 -0.035940204 0.2751783 -0.39795497 -0.1993186 -0.4030037 0.26910704
-0.38237855 -0.10581426 -0.515376 -0.4826611 0.09835991 0.3338663 -0.028789483 -0.31709108
0.00915017 -0.47701958 -0.19698918 -0.14902468 -0.5237987 0.2224274 0.21187739 -0.31508905
-0.32728675 0.2156914 -0.14233045 -0.6369189 0.8090565 -0.10877376 0.8973672 0.58731794
-0.3531464 -0.29270256 -0.399957 -0.2710608 -0.4566801 0.24053809 0.25693408 -0.6603498
0.56552094 0.46349007 -0.30390966 -0.29894406 -0.036948346 0.0027489502 -0.318746 -0.5206446
-0.86290944 -0.55554163 -0.22558247 -0.051464703 -0.47934344 -0.18147509 -0.4144981 -0.4394599
-0.037337214 -0.13380428 0.38183343 -0.042406477 -0.17239492 -0.29371834 0.3989809 -0.48552108
-0.49193034 -0.46726954 -0.45026842 -0.26037416 -0.3747116 -0.18755127 0.19443451 -0.3539733
-0.3633651 -0.31513157 -0.096993886 -0.23233718 -0.2467218 -0.34970242 -0.4903727 0.02057279
-0.40585214 -0.10143336 -0.084965885 -0.37352696 -0.38687703 -0.17731895 -0.359508 -0.2467863
0.2868316 -0.42533776 -0.4243579 -0.11467911 -0.4500817 -0.037641026 -0.061716534 -0.6264821
-0.4322526 -1.1205268 -0.097236685 0.2748295 -0.20501861 0.5806762 -0.038691867 -0.5380289
-0.1560646 -0.12478596 -0.5225907 -0.4533727 -0.16325708 -0.012838636 -0.35102355 0.2329134
-0.42979106 -0.12880048 -0.9661254 -0.6887399 -0.40285668 0.080371544 -0.12628345 -0.46531606
0.85919774 -0.19693716 -0.61341524 -0.04398761 -0.102137916 -0.31175783 0.031506106 0.22312419
00000000: c2a8 92be 2f19 4cbe 0936 13bd 2ce4 8c3e
00000010: c1c0 cbbe 2d1a 4cbe 8056 cebe 66c8 893e
00000020: 1fc7 c3be 26b5 d8bd aeef 03bf 5b1f f7be
00000030: ec70 c93d 86f0 aa3e ecd7 ebbc c359 a2be
00000040: 98ea 153c e93b f4be 88b7 49be ed99 18be
00000050: ac17 06bf 02c4 633e 63f6 583e 5a53 a1be
00000060: 2192 a7be 35de 5c3e 13bf 11be 1e0d 23bf
00000070: 541e 4f3f c7c4 debd dbb9 653f 785a 163f
00000080: 9bcf b4be 1cdd 95be 2ac7 ccbe 7bc8 8abe
00000090: f9d1 e9be 9e4f 763e dd8c 833e af0c 29bf
000000a0: fbc5 103f 924e ed3e 0c9a 9bbe 320f 99be
000000b0: 2657 17bd bb27 343b ad32 a3be f748 05bf
000000c0: a2e7 5cbf fa37 0ebf 17ff 66be a7cc 52bd
000000d0: 816c f5be 9bd4 39be 1839 d4be e300 e1be
000000e0: e8ee 18bd fd03 09be ac7f c33e 6ab2 2dbd
000000f0: 4b88 30be 4062 96be 3947 cc3e 3896 f8be
00000100: 4bde fbbe f43d efbe 9589 e6be c34f 85be
00000110: 33da bfbe 710d 40be d719 473e fd3b b5be
00000120: fe0a babe ed58 a1be bba4 c6bd cce9 6dbe
00000130: a4a4 7cbe 320c b3be 2112 fbbe 4588 a83c
00000140: dacb cfbe 4bbc cfbd 9802 aebd ed3e bfbe
00000150: bf14 c6be 1993 35be 6f11 b8be 8cb5 7cbe
00000160: 97db 923e dfc5 d9be 7045 d9be e2dc eabd
00000170: 1c71 e6be 7a2d 1abd 7aca 7cbd 2261 20bf
00000180: 3650 ddbe 6c6d 8fbf 0724 c7bd 74b6 8c3e
00000190: 66f0 51be 32a7 143f 5d7b 1ebd 43bc 09bf
000001a0: 66cf 1fbe c88f ffbd 81c8 05bf 7720 e8be
000001b0: dd2c 27be 2459 52bc 5cb9 b3be da80 6e3e
000001c0: 930d dcbe 46e4 03be ff53 77bf 4251 30bf
000001d0: 3b43 cebe d699 a43d 7350 01be e83d eebe
000001e0: 62f4 5b3f e5a9 49be c808 1dbf 5a2c 34bd
000001f0: af2d d1bd b99e 9fbe 8c0c 013d ab7a 643e

critic_out.weight f4 [1, 128]
0.025468033 0.021769427 0.01068585 0.021488912 -3.664678e-06 -0.02336266 -0.018588927 0.041105267
0.0006225106 -0.020309413 0.0068464484 -0.0012981745 0.01777275 -0.01623264 0.017123304 -0.02161303
-0.033963993 -0.008679599 -0.03379227 -0.014406252 -0.03114928 0.02131493 -0.029729428 0.04081994
0.12661722 0.02958116 0.021026328 -0.00051061483 -0.016347378 -0.020181317 0.021398481 0.015409875
-0.011546519 -0.01810109 -0.008575462 -0.0139833065 -0.0024949848 0.025111217 -0.013317753 0.030020662
0.013630515 0.010121889 0.0079570655 -0.001548366 0.014300491 0.021778006 0.029217115 -0.025497066
-0.068774015 -0.019150166 0.015444044 0.01178636 0.0019938909 0.020162676 0.0362843 -0.0238676
0.025192235 0.015808817 -0.04053444 0.023867175 -0.020235732 0.010304886 0.02535289 -0.015614843
0.0056947726 -0.045077823 -0.03136574 -0.018424258 0.010598866 -0.013673247 0.017227544 -0.02840056
-0.011780147 -0.021776965 0.011872414 0.0066661127 -0.031924922 -0.021828441 0.0010419482 0.019878536
0.061175194 -0.03675339 -0.025949411 -0.029758487 -0.01600323 -0.03635212 0.011279074 -0.012149775
-0.029963823 -0.023661546 0.020695867 0.0036174746 -0.032201406 0.03639539 -0.018875754 0.041976523
-0.013917087 0.031646263 0.0025025723 -0.021194806 0.011643141 -0.027434075 0.022617072 5.547317e-05
0.01579739 0.039923217 -0.022073846 0.002358129 0.04044727 -0.04932624 -0.035177805 0.029862339
-0.012418943 -0.014824932 0.019357812 -0.012551741 -0.001424496 0.02560616 0.027910268 0.0182336
-0.030638076 0.020105697 -0.019953225 -0.017210938 -0.011776574 -0.031790197 0.020032344 -0.018007977
00000000: 56a2 d03c cc55 b23c b413 2f3c 8409 b03c
00000010: b0ee 75b6 0d63 bfbc ce47 98bc ff5d 283d
00000020: fb2f 233a ed5f a6bc 2c58 e03b 8227 aaba
00000030: 2998 913c 50fa 84bc 2c46 8c3c cf0d b1bc
00000040: d41d 0bbd e034 0ebc c369 0abd 3308 6cbc
00000050: c62c ffbc a69c ae3c 218b f3bc cf32 273d
00000060: f2a7 013e 3054 f23c 683f ac3c c8da 05ba
00000070: f0ea 85bc 4a53 a5bc de4b af3c b379 7c3c
00000080: 9c2d 3dbc bd48 94bc 1880 0cbc 3d1a 65bc
00000090: e682 23bb 0ab6 cd3c b432 5abc e4ed f53c
000000a0: 8652 5f3c 48d6 253c 5a5e 023c 8bf2 caba
000000b0: 9b4c 6a3c ca67 b23c bb58 ef3c 39df d0bc
000000c0: 64d9 8cbd cfe0 9cbc 0409 7d3c 941b 413c
000000d0: f0ab 023b 322c a53c d99e 143d fc85 c3bc
000000e0: f25f ce3c 7e81 813c 7107 26bd 1885 c33c
000000f0: 68c5 a5bc d3d5 283c ddb0 cf3c 66d5 7fbc
00000100: 379b ba3b 86a3 38bd 5d79 00bd 78ee 96bc
00000110: dea6 2d3c c105 60bc c720 8d3c 4ba8 e8bc
00000120: 8501 41bc 9b65 b2bc 8384 423c 686f da3b
00000130: b5c3 02bd 8fd1 b2bc fb91 883a 50d8 a23c
00000140: d792 7a3d b98a 16bd dc93 d4bc 12c8 f3bc
00000150: 3519 83bc f6e5 14bd ddcb 383c da0f 47bc
00000160: b176 f5bc dcd5 c1bc 618a a93c 2713 6d3b
00000170: 9fe5 03bd 5513 153d 53a1 9abc 93ef 2b3d
00000180: 7e04 64bc 839f 013d 3202 243b bba0 adbc
00000190: dfc2 3e3c 6dbd e0bc 7047 b93c ddab 6838
000001a0: 8769 813c 8786 233d 36d4 b4bc d78a 1a3b
000001b0: 09ac 253d 500a 4abd 9a16 10bd dda1 f43c
000001c0: d378 4bbc 46e4 72bc 4694 9e3c d1a5 4dbc
000001d0: 27b6 baba 02c4 d13c 13a4 e43c a15e 953c
000001e0: b4fc fabc b4b4 a43c f274 a3bc f4fd 8cbc
000001f0: 88f2 40bc 7036 02bd df1a a43c 7785 93bc
