p2_continuous-control/checkpoint_actor.pth (torch_old, 60409 bytes, 8 tensors)

fc1.weight f4 [128, 33]
0	0x3e7f49ba	0.24930468
1	0xbeb12324	-0.34597123
2	0x3e383d05	0.17992027
3	0x3df0077b	0.11720177
4	0xbd6a8572	-0.05725617
5	0x3d21e481	0.03952456
6	0x3e881e81	0.26585773
7	0xbc8cc31c	-0.01718288
8	0xbe2f0bba	-0.17094317
9	0x3d33b277	0.04387137
10	0x3dd0f496	0.10202901
11	0xbd8fe6dc	-0.07026455
12	0x3ca9067f	0.02063298
13	0xbe4f5983	-0.2024899
14	0x3e88cb65	0.26717678
15	0xbe4ee4d5	-0.2020448
16	0xbe1e6898	-0.15469587
17	0x3cc02ff6	0.02346037
18	0xbd901821	-0.07035852
19	0xbc77202f	-0.015083357
20	0x3bcd6f7c	0.0062693935
21	0x3e22873e	0.15871903
22	0xbd822f4b	-0.06356677
23	0xbd9235f5	-0.07139198
24	0x3e1a884d	0.15091057
25	0xbcb6c84b	-0.022312304
26	0x3e5ae675	0.21376975
27	0x3df1b613	0.11802306
28	0xbe733341	-0.2375002
29	0x3d7cd73e	0.06172871
30	0xbd7d8a3c	-0.06189941
31	0x3db35f79	0.08758444
32	0x3f068311	0.5254374
33	0x3e372cdd	0.17888208
34	0x3e12e949	0.14346804
35	0x3e2f9e2a	0.17150179
36	0xbd837c7d	-0.06420229
37	0xbd2d8e2e	-0.04237192
38	0xbe21f4e7	-0.15816079
39	0x3db0354b	0.08603915
40	0xbd7f2a11	-0.062295977
41	0x3dd0ad23	0.10189273
42	0x3d556112	0.052094527
43	0x3dada5be	0.084788784
44	0x3e00c5d5	0.12575467
45	0x3d826c29	0.06368286
46	0x3cc74543	0.024325019
47	0x3e1f09de	0.15531108
48	0xbd2ecee9	-0.042677794
49	0xb9e038e9	-0.0004276701
50	0x3e20b9c0	0.15695858
51	0x3f2d80f7	0.6777491
52	0x3e83ce05	0.25743118
53	0xbe11bfc7	-0.14233314
54	0x3dadf0f8	0.08493227
55	0xbce43c13	-0.027860677
56	0x3dfeb4a2	0.12436797
57	0x3df374f1	0.11887539
58	0xbe31c05a	-0.17358533
59	0x3d7b227c	0.061312184
60	0x3e07b770	0.1325357
61	0x3e23be4c	0.15990561
62	0xbd162a28	-0.036661297
63	0xbe54c7c0	-0.20779324
64	0x3d7f9d32	0.062405773
65	0xbe6fcec9	-0.23418726
66	0x3e01d7a4	0.12679917
67	0x3eb10dec	0.34580934
68	0xbe8f77eb	-0.28021178
69	0xbf14a990	-0.5807123
70	0x3f92807f	1.1445464
71	0x3ef9781a	0.48724443
72	0x3e0140c9	0.1262237
73	0x3dac5589	0.08414752
74	0xbe52126c	-0.2051484
75	0xbd61c793	-0.05512197
76	0x3df9fd2a	0.1220649
77	0x3d34e31b	0.044161897
78	0x3d6a19dd	0.05715357
79	0xbe26bf52	-0.1628392
80	0xbe424d22	-0.18974736
81	0x3e0c79f1	0.13718392
82	0xbdc1d612	-0.09464659
83	0xbdae11d1	-0.08499492
84	0xbe8e4ea9	-0.27794388
85	0xbe1421a2	-0.14465955
86	0x3d495246	0.049150728
87	0xbc98c9c1	-0.018650891
88	0x3e14cc27	0.14531003
89	0x3d551b0e	0.052027754
90	0xbd81d3c2	-0.06339218
91	0xbc0737a6	-0.008253014
92	0x3e6c28b3	0.230624
93	0xbd41e4f2	-0.04733748
94	0xbdafd8ea	-0.08586295
95	0x3d957853	0.07298341
96	0xbcd0440e	-0.025423076
97	0x3d250c16	0.04029473
98	0x3e5f60f9	0.21814336
99	0xbe4d1924	-0.20029122
100	0x3e51de6d	0.20495005
101	0x3e2d31a0	0.16913462
102	0xbe8806d9	-0.26567724
103	0x3d38e326	0.0451385
104	0x3f51fb59	0.8202415
105	0x3d893a4d	0.06700573
106	0x3d97028f	0.07373535
107	0xbdd1c01b	-0.10241719
108	0x3d370d5f	0.044690486
109	0xbc80d0d0	-0.01572457
110	0x3e0ce795	0.13760217
111	0xbc8f96ac	-0.0175279
112	0x3daae0aa	0.083436325
113	0x3d65dc07	0.056118038
114	0x3e5a2f93	0.2130721
115	0xbdaafc9a	-0.08348961
116	0x3e44bac0	0.19211864
117	0xbd117407	-0.035511043
118	0xbd37b7d7	-0.044853058
119	0xbe40e5d7	-0.18837677
120	0x3d534fcf	0.051589783
121	0x3d824aef	0.06361949
122	0x3dace305	0.08441738
123	0x3d7ca469	0.06168023
124	0x3e2e99d7	0.17050873
125	0x3def2685	0.11677269
126	0xbe5a969f	-0.2134652
127	0xbe6217f3	-0.22079448
128	0x3d24468a	0.040106334
129	0x3e739657	0.23787819
130	0xbd01ecdb	-0.031720024
131	0x3f47c748	0.78038454
132	0xbdf9aa3b	-0.12190672
133	0x3e3a1fb6	0.1817616
134	0x3e04959d	0.12947698
135	0x3e50e67b	0.20400421
136	0x3d7da6a2	0.06192649
137	0x3efeb0e9	0.49744347
138	0x3e988692	0.2979017
139	0x3b8e0c8b	0.0043349913
140	0x3d1a6d02	0.037701614
141	0x3d92c560	0.071665525
142	0xbc1f35cd	-0.009717417
143	0x3c2cab65	0.0105389105
144	0x3d58529f	0.05281317
145	0xbcf9c062	-0.030487243
146	0xbe54d8f4	-0.20785886
147	0xbdb219df	-0.08696341
148	0x3d29173e	0.04128193
149	0xbe648466	-0.22316131
150	0x3e10e02e	0.14148018
151	0xbe2dd119	-0.16974296
152	0x3d07c5dd	0.03314768
153	0xbc1aea91	-0.009455339
154	0xbcf1bc5e	-0.029508766
155	0xbdbaf6f9	-0.091291375
156	0xbd438637	-0.04773542
157	0xbd8f2116	-0.069887325
158	0x3e33bccc	0.17552489
159	0xbe31cd89	-0.17363562
160	0xbca21965	-0.0197875
161	0xba6d4f00	-0.00090526044
162	0x3dbc67be	0.09199475
163	0x3d73d476	0.05952879
164	0x3f97c5e0	1.1857262
165	0xbdb34933	-0.08754196
166	0x3dd562e9	0.10419256
167	0x3df81f7f	0.121153824
168	0xbf22d329	-0.63603455
169	0xbe319ba4	-0.17344528
170	0x3c84e51d	0.016222531
171	0xbdb7dd0c	-0.08977708
172	0x3d3f4a4c	0.046701714
173	0xbe1281f3	-0.14307384
174	0xbe5a043c	-0.21290678
175	0x3d04688a	0.03232626
176	0x3c49e6b5	0.012323071
177	0x3d6f3844	0.05840327
178	0x3c223023	0.009899172
179	0xbd728594	-0.05920942
180	0xbd5c0fbd	-0.053725947
181	0xbdf94c1a	-0.12172718
182	0xbd19c397	-0.037540045
183	0x380f9d6e	3.4240475e-05
184	0xbdddb4cb	-0.10825499
185	0x3d00428e	0.03131347
186	0x3dc4b8ba	0.09605546
187	0xb7c0cafe	-2.298271e-05
188	0x3d38881b	0.045051675
189	0x3ccf3999	0.02529602
190	0xbd8a2311	-0.0674497
191	0xbdc818fe	-0.09770392
192	0x3e9d752b	0.30753455
193	0x3cce436f	0.02517864
194	0xbbf3f5b0	-0.0074450597
195	0xbe9b5b55	-0.30343118
196	0xbdade429	-0.08490784
197	0xbfe57f01	-1.7929384
198	0xbcb3222b	-0.021866878
199	0xbe0467f7	-0.12930284
200	0xbe340a96	-0.17582163
201	0xbe485b7f	-0.19566153
202	0xbd921919	-0.07133693
203	0x3e359616	0.17733034
204	0x3dca3aae	0.098744735
205	0x3ca4a52b	0.02009829
206	0x3e263b0c	0.16233462
207	0xbdbe41ce	-0.09289895
208	0x3dc7352e	0.0972694
209	0xbd8cf38c	-0.068823904
210	0xbde8bc56	-0.11364047
211	0x3df21b29	0.11821587
212	0x3d93f218	0.0722391
213	0x3e14b5f8	0.1452254
214	0x3e5723eb	0.21009795
215	0x3e2359c2	0.15952209
216	0xbd0a4f99	-0.033767316
217	0x3ea3611f	0.31910035
218	0xbe15bf0d	-0.14623661
219	0x3e00e84b	0.12588613
220	0x3c999855	0.018749395
221	0xbdef2a4c	-0.11677989
222	0x3d14af4a	0.03629998
223	0x3cec317e	0.028832193
224	0xbd9b8311	-0.07593358
225	0x3bc7fed2	0.006103375
226	0xbe8c21ec	-0.2736963
227	0xbc0db8a0	-0.008649975
228	0x3d24c426	0.040226124
229	0x3d8a9529	0.06766731
230	0x3ecda321	0.4016352
231	0xbe040605	-0.12892921
232	0x3d17ac3a	0.037029482
233	0xbe2e4874	-0.17019826
234	0xbd758c2c	-0.05994813
235	0xbe39d52a	-0.18147722
236	0xbe12d976	-0.14340767
237	0x3e565f18	0.20934713
238	0x3db2cc6a	0.08730395
239	0xbd32648c	-0.04355292
240	0x3e36af16	0.17840227
241	0xbd460b75	-0.04835077
242	0xbbcdca7b	-0.006280241
243	0xbb8a41a4	-0.0042192508
244	0x3e5f2459	0.2179121
245	0xbe9d05ae	-0.30668396
246	0xbd850bcd	-0.064963914
247	0xbd89f110	-0.06735432
248	0xbdc6944a	-0.09696253
249	0x3e0b786a	0.13620153
250	0xbd481bd4	-0.048854664
251	0x3c65cabe	0.014025388
252	0xbdc3eda0	-0.09566808
253	0xbcf4d12c	-0.029884897
254	0x3d514a1f	0.051096078
255	0xbd9d0015	-0.07666031

fc1.bias f4 [128]
0	0xbe16bff6	-0.14721665
1	0xbe403060	-0.18768454
2	0xbdf027ee	-0.11726366
3	0x3e7cced6	0.24688277
4	0xbd434045	-0.047668714
5	0xbf01aac7	-0.5065121
6	0x3d99a626	0.075023934
7	0x3dad3414	0.08457199
8	0xbe3c5399	-0.18391265
9	0x3e1c1740	0.15243244
10	0xbe322252	-0.17395905
11	0xbd148451	-0.036259
12	0x3d1353ee	0.035968713
13	0xbe834654	-0.25639594
14	0x3d75f150	0.060044587
15	0x3e16005b	0.14648573
16	0xbef54afa	-0.47908765
17	0x3cb1a75c	0.021686248
18	0x3c7d167a	0.015447253
19	0xbe67c9b3	-0.22635536
20	0xbed595bc	-0.417158
21	0x3dfd83e1	0.123786695
22	0x3e4ba1db	0.19885962
23	0xbe49450a	-0.19655243
24	0xbd09c4e7	-0.033635046
25	0xbdf6f3d3	-0.120582245
26	0x3ddff1c0	0.10934782
27	0x3ddea388	0.10871035
28	0xbea4b286	-0.32167453
29	0x3d0f7f8f	0.03503376
30	0x3e1fe103	0.15613179
31	0xbdb938d4	-0.09044042
32	0xbd9c05e8	-0.07618314
33	0x3df91d8e	0.1216384
34	0xbcd3b168	-0.02584143
35	0xbe977172	-0.2957874
36	0x3e1bf59a	0.15230408
37	0xbeaef578	-0.34171653
38	0x3c63dc44	0.013907496
39	0xbe3aacef	-0.18230031
40	0xbd93fcb3	-0.07225933
41	0x3e85274e	0.2600655
42	0x3e8d0118	0.27539897
43	0xbde8b167	-0.11361962
44	0x3df1da85	0.118092574
45	0xbe58c658	-0.21169412
46	0xbe7d1512	-0.24715069
47	0xbe78b752	-0.24288681
48	0xbe8c7221	-0.27430823
49	0xbe9b4138	-0.30323195
50	0xbd88eee3	-0.06686189
51	0x3c4c99f3	0.012487876
52	0x3e008db5	0.12554057
53	0xbdc1e0aa	-0.094666794
54	0x3ea08474	0.31351054
55	0xbe2a013e	-0.16602036
56	0xbe0e0f12	-0.13872936
57	0xbeac0dd6	-0.33604306
58	0x3dcf7b7d	0.101309754
59	0x3d55eb89	0.052226577
60	0xbe3bd423	-0.18342642
61	0xbde27446	-0.11057334
62	0x3e1b8587	0.15187655
63	0x3c9cebae	0.01915535
64	0x3ddadd26	0.10686712
65	0xbd1e2f28	-0.03861919
66	0xbd5844cf	-0.052799996
67	0xbe5b1a13	-0.21396665
68	0xbe411638	-0.18856132
69	0xbed8f5f7	-0.42375156
70	0xbeb504ec	-0.35355318
71	0x3c5713f3	0.013127315
72	0xbdca8985	-0.09889511
73	0x3de736ac	0.11289725
74	0xbe0f6f48	-0.14007294
75	0xbe5cc3b3	-0.21559028
76	0x3e1700a9	0.14746346
77	0x3dd155dd	0.10221455
78	0x3e0c11b1	0.13678624
79	0xbd5cdee4	-0.053923503
80	0xbe9c12b6	-0.30483025
81	0x3e0d73be	0.13813683
82	0xbd8d6792	-0.0690452
83	0xbe5f5c4f	-0.21812557
84	0xbead247f	-0.33816907
85	0x3e8f34e9	0.27970055
86	0xbef8c3f6	-0.48587006
87	0xbe92ef2d	-0.28698102
88	0x3dedbe4f	0.11608564
89	0x3c7e7d27	0.015532768
90	0x3ead7a97	0.3388259
91	0x3daf83a0	0.08570027
92	0xbd60ec58	-0.054912895
93	0x3ebe09d8	0.37116885
94	0xbe50c580	-0.2038784
95	0x3e41c9d4	0.18924648
96	0xbad361d1	-0.0016127174
97	0x3e7b873b	0.24563305
98	0xbdc5d34d	-0.09659443
99	0x3d568dfb	0.052381497
100	0x3d9e6472	0.07734002
101	0xbd9c81cd	-0.07641945
102	0x3dd79b34	0.105276495
103	0x3eaa5d4a	0.332743
104	0x3e4fa2e1	0.20276977
105	0x3e6f7999	0.2338623
106	0x3e0a5b10	0.135113
107	0xbba7ae42	-0.0051172087
108	0x3cb201f8	0.021729454
109	0x3e1dc5ae	0.1540744
110	0xbd8f7a03	-0.07005694
111	0xbd0c0c6a	-0.034191526
112	0xbd57804f	-0.0526126
113	0xbe86f5ba	-0.2635935
114	0x3e691a71	0.22763993
115	0x3d3a3708	0.04546264
116	0xbd93627b	-0.07196518
117	0xbe130ec5	-0.14361103
118	0x3e3cf721	0.18453647
119	0xbe3af6f2	-0.18258265
120	0x3dd3ddfd	0.10345075
121	0x3e0e7ceb	0.1391484
122	0x3e15fbac	0.14646786
123	0x3e801e2c	0.2502302
124	0x3e29ef8a	0.16595283
125	0xbe8462e1	-0.2585669
126	0x3e88f2c4	0.26747715
127	0xbead94a7	-0.33902475

fc2.weight f4 [64, 128]
0	0x3d89bc7e	0.06725405
1	0x3e672176	0.22571358
2	0xbd27ed12	-0.040997572
3	0x3df66ce1	0.12032486
4	0xbe9a7c64	-0.30173028
5	0xbd83a16f	-0.064272754
6	0x3e025900	0.12729263
7	0xbeb22506	-0.34793872
8	0x3deb4ff9	0.11489863
9	0xbe053341	-0.13007833
10	0x3c866a65	0.016408155
11	0x3e0e8338	0.13917243
12	0x3cc48811	0.023990663
13	0x3df985a3	0.12183692
14	0xbe45a5fb	-0.19301598
15	0x3e8110c7	0.25208113
16	0x3ea2358d	0.3168148
17	0xbc027d74	-0.007964481
18	0x3e4da72a	0.200833
19	0x3f069006	0.5256351
20	0xbeb1f033	-0.3475357
21	0x3e22e666	0.15908203
22	0x3e938958	0.28815722
23	0xbe8b1463	-0.2716399
24	0xbe0276a1	-0.12740566
25	0xbd8fa10b	-0.070131384
26	0x3e14c776	0.14529213
27	0x3ddadc26	0.10686521
28	0xbc722952	-0.014780359
29	0x3e3a9ebd	0.18224616
30	0xbda132ce	-0.07871018
31	0x3da083ec	0.07837662
32	0xbd976d25	-0.073938645
33	0x3c71aae3	0.014750215
34	0xbc2cbb2b	-0.010542671
35	0x3e7b1cd3	0.24522714
36	0xbd564c4b	-0.052318852
37	0xbe892589	-0.2678645
38	0xbb061df4	-0.002046463
39	0x3dfaab52	0.12239708
40	0x3e575264	0.21027523
41	0xbe76e309	-0.24110045
42	0x3e60f5f7	0.21968828
43	0x3ee5c31f	0.44875428
44	0xbd240cdb	-0.040051322
45	0x3c19d7d8	0.00938984
46	0x3e48c8c6	0.19607839
47	0x3e8f080e	0.27935833
48	0xbe180551	-0.14845778
49	0x3e35794d	0.17722054
50	0xba55d959	-0.00081576925
51	0x3e96e688	0.29472756
52	0xbe8efd53	-0.27927646
53	0xbbf9ec9d	-0.0076270835
54	0x3e6d932a	0.2320067
55	0xbd9f7235	-0.07785455
56	0x3e2522c2	0.1612654
57	0xbc5b9205	-0.013401513
58	0x3c80275d	0.01564377
59	0x3b4dfed7	0.0031432414
60	0xbc40d65e	-0.011769859
61	0xbd5d6fcd	-0.0540617
62	0x3e33d35d	0.17561097
63	0x3e7e4037	0.24829184
64	0xbe41d843	-0.18930154
65	0x3e243cdd	0.16038842
66	0x3d722199	0.059114072
67	0x3d9b6c80	0.07589054
68	0x3e17fee7	0.14843331
69	0x3c85357b	0.016260853
70	0x3e064480	0.13112068
71	0xbe9b393f	-0.30317113
72	0x3e5bffd4	0.2148431
73	0xbbaf7f18	-0.005355727
74	0xbddd7157	-0.108126335
75	0x3e18fba6	0.14939746
76	0xbc9b92dd	-0.018990928
77	0xbdc1366d	-0.09434209
78	0x3c9047c2	0.017612342
79	0x3cedea80	0.029042482
80	0x3d271bd6	0.04079803
81	0xbd4f5331	-0.050616447
82	0x3d4afcc5	0.049557466
83	0x3ed20912	0.41022545
84	0x3f15bf3d	0.5849493
85	0x3e933f10	0.2875905
86	0x3f1b2f34	0.606189
87	0x3e1c1bcd	0.1524498
88	0xbf106773	-0.5640785
89	0x3e655984	0.22397429
90	0x3dc7a99e	0.09749149
91	0x3d95a167	0.07306176
92	0x3e909149	0.28235844
93	0xbd05b1d6	-0.0326403
94	0xbc8dfeff	-0.017333506
95	0xbe5d66b4	-0.2162121
96	0x3d965ead	0.07342277
97	0x3ebc4465	0.3677093
98	0x3e56965e	0.20955798
99	0xbe1870d0	-0.14886785
100	0xbd8cb68e	-0.06870757
101	0xbd86d842	-0.06584217
102	0x3d0d5769	0.03450719
103	0xbdd326db	-0.103101455
104	0x3ea66dbb	0.32505593
105	0xbe8537ca	-0.26019126
106	0x3d720051	0.059082333
107	0xbe0fdbc2	-0.14048675
108	0xbe284bef	-0.16435216
109	0xbe1043f3	-0.1408842
110	0xbc080be2	-0.008303614
111	0xbe1576ef	-0.14596151
112	0xbe189f9e	-0.14904639
113	0x3ea6e6e0	0.3259802
114	0xbd9cf62a	-0.076641396
115	0x3dff215f	0.12457537
116	0xbd9c6da5	-0.076381005
117	0xbe7cedfe	-0.24700162
118	0xbe0f1f67	-0.13976823
119	0x3d92f16e	0.07174955
120	0xbd864b37	-0.06557315
121	0x3d25b075	0.040451486
122	0xbdc50805	-0.0962067
123	0xbe99aa38	-0.3001268
124	0x3e1c49fe	0.15262601
125	0xbd26f80f	-0.04076391
126	0xbe9bc8ef	-0.30426738
127	0xbe11927e	-0.14216039
128	0x3d9c9bb8	0.076468885
129	0x3d963548	0.07334381
130	0x3e1c66f2	0.15273646
131	0xbcdae2e8	-0.026719525
132	0xbe201f04	-0.15636832
133	0x3ed7bdda	0.42137033
134	0xbe78b43b	-0.24287502
135	0xbe72e214	-0.23719054
136	0x3c036f51	0.008022145
137	0x3dc453f2	0.09586324
138	0xbd8a3d33	-0.06749954
139	0xbe11f1ea	-0.14252439
140	0xbe49c4ce	-0.19703981
141	0x3ca88da6	0.020575356
142	0x3c6bd437	0.014393858
143	0x3e8620b6	0.2619683
144	0x3a2d6889	0.0006615003
145	0x3ba46fa5	0.005018192
146	0xbe84cc58	-0.25937152
147	0x3e31b974	0.17355901
148	0x3e6cb217	0.23114811
149	0x3cd953d2	0.026529226
150	0x3e6c7353	0.23090868
151	0xbe5b7ed5	-0.21435101
152	0xbca8e992	-0.020619188
153	0x3e678342	0.22608665
154	0x3e40ce9e	0.18828818
155	0x3e11a28c	0.14222163
156	0x3d925096	0.07144277
157	0xbde7c034	-0.11315957
158	0xbe344133	-0.17602997
159	0x3bf43d6c	0.007453611
160	0x3d17f7c3	0.03710152
161	0x3e444bed	0.19169588
162	0x3b3614a7	0.0027783306
163	0xbd1666c2	-0.03671909
164	0x3e89c453	0.26907596
165	0xbe150662	-0.14553216
166	0x3d7496a8	0.05971399
167	0x3d97a1bf	0.074038975
168	0x3e65a8cc	0.22427672
169	0xbe053688	-0.13009083
170	0x3e370eb6	0.17876706
171	0x3e682141	0.22668935
172	0x3e063cd1	0.13109137
173	0xbe926011	-0.28588918
174	0x3e1a18b8	0.15048492
175	0x3d9c2353	0.07623925
176	0xbeae54fb	-0.3404921
177	0x3e23fe7f	0.16015051
178	0xbdbe3331	-0.09287108
179	0xbd7f34f4	-0.06230636
180	0xbe9ffe34	-0.3124863
181	0xbe1081ab	-0.14111964
182	0x3e472ca1	0.19450618
183	0x3d93993a	0.0720696
184	0x3d0ee79c	0.03488885
185	0xbe2a0968	-0.1660515
186	0x3dd40ec3	0.10354378
187	0xbd498f63	-0.04920901
188	0xbd9d1e61	-0.0767181
189	0x3dfe98f0	0.12431514
190	0x3d0fe43b	0.035129767
191	0xbb746325	-0.003729054
192	0x3df028c3	0.11726525
193	0xbd2e822e	-0.042604618
194	0xbdb0e9db	-0.086383544
195	0x3bd1891a	0.0063945176
196	0xbe12b280	-0.14325905
197	0xbe325c95	-0.1741813
198	0xbdbcc755	-0.09217707
199	0xbd21f333	-0.039538573
200	0xbe4f4e44	-0.202447
201	0xbebba727	-0.36650965
202	0x3e1db1ba	0.15399829
203	0x3ea12c78	0.3147924
204	0xbe2cfaf9	-0.16892613
205	0x3e018505	0.12648399
206	0x3c831861	0.016002836
207	0x3c50b1ea	0.0127377305
208	0x3e72d6de	0.23714778
209	0xbe43cb9f	-0.19120644
210	0xbdbdde17	-0.09270876
211	0xbdd97bf0	-0.10619342
212	0x3dbcf36d	0.09226117
213	0xbe4b016c	-0.19824761
214	0x3d16f32f	0.03685301
215	0x3dd401d9	0.10351915
216	0xbcd575f4	-0.026057221
217	0x3da1deb6	0.07903807
218	0x3d6affc5	0.057372827
219	0x3d89cd96	0.067286655
220	0x3e8a12b5	0.26967397
221	0x3de46d31	0.11153639
222	0xbe81107d	-0.25207892
223	0xbef49779	-0.47771814
224	0x3d649570	0.055806577
225	0x3e6a933f	0.22907732
226	0x3ccf9293	0.025338447
227	0xbf0a20d3	-0.53956336
228	0xbdd3a84a	-0.10334833
229	0x3d212d11	0.03934962
230	0xbdbe55dc	-0.0929372
231	0x3e32bf41	0.1745577
232	0x3e908cb4	0.28232348
233	0x3e14aef8	0.1451987
234	0x3de32830	0.110916495
235	0xbe1d614b	-0.15369146
236	0xbe69d455	-0.22834904
237	0x3d8db4e1	0.069192655
238	0x3e6d2779	0.23159589
239	0xbcb79d61	-0.022413911
240	0x3d988c76	0.07448666
241	0x3d108c30	0.035289943
242	0x3dafb47e	0.08579348
243	0x3e9f9a9e	0.3117265
244	0x3d8d555e	0.06901048
245	0xbe513648	-0.20430863
246	0xbdbe3182	-0.092867866
247	0x3d9e8444	0.077400714
248	0xbd14083d	-0.03614067
249	0x3e9f9b38	0.3117311
250	0xbe6f2ff0	-0.2335813
251	0xbd3919b6	-0.045190535
252	0x3cd7ae78	0.02632831
253	0x3c27f5dd	0.0102514895
254	0x3dfe42f1	0.12415112
255	0x3e14f5c6	0.1454688

fc2.bias f4 [64]
0	0xbe12e58f	-0.14345382
1	0x3ced49ca	0.02896585
2	0x3d183d77	0.037167992
3	0xbe13fed2	-0.14452675
4	0x3dc2f067	0.09518509
5	0xbe4a9c29	-0.19786133
6	0x3dc43671	0.095806964
7	0x3de4031b	0.11133405
8	0x3db2a4b7	0.08722823
9	0x3dc12bb2	0.09432162
10	0x3e417c83	0.18895154
11	0xbbd71ec0	-0.006564945
12	0xbd3c849b	-0.0460249
13	0x3e57ddc1	0.21080686
14	0xbdffb010	-0.12484753
15	0xbd24e1a7	-0.04025426
16	0x3d9f9ab8	0.07793182
17	0x3dab1226	0.08353071
18	0x3d18745e	0.03722035
19	0x3c5e6c2d	0.013575596
20	0x3ddadf3a	0.10687108
21	0x3ca0b8cf	0.019619374
22	0xbe024bc1	-0.1272421
23	0xbe80a50c	-0.2512592
24	0x3e3b426b	0.18287055
25	0xbe75dd26	-0.24010143
26	0x3da51ee0	0.080625296
27	0xbcc392d4	-0.023873724
28	0x3dea6d4a	0.114466265
29	0xbe0e45f4	-0.13893872
30	0xbe429e0c	-0.19005603
31	0xbdc192e2	-0.09451844
32	0xbc161960	-0.009161323
33	0x3e4f3236	0.20233998
34	0xbd6e3aaa	-0.058161415
35	0x3e2a99fd	0.16660304
36	0xbd8dc2d2	-0.06921925
37	0x3dd048c8	0.10170132
38	0x3cfa88b0	0.030582756
39	0xbe33026f	-0.17481397
40	0xbca8a142	-0.020584706
41	0x3e48f629	0.19625153
42	0xbda128ed	-0.07869134
43	0x3d41c1ec	0.04730408
44	0x3e130fea	0.1436154
45	0xbdd57105	-0.104219474
46	0xbcca3559	-0.024683641
47	0xbe05bbfe	-0.13059995
48	0x3e3ceb2e	0.18449089
49	0x3db15cc6	0.08660273
50	0x3d5e2380	0.054233074
51	0x3d32326c	0.043505117
52	0x3bb37b23	0.0054773255
53	0xbe5aaaa9	-0.21354164
54	0x3db37499	0.087624736
55	0x3c9c17ce	0.01905432
56	0x3dd0159b	0.10160371
57	0x3c67514c	0.014118504
58	0x3dfe2720	0.12409806
59	0xbdf2e1dd	-0.11859486
60	0x3e207a8e	0.15671751
61	0x3e226d11	0.15861918
62	0x3d275c0a	0.04085926
63	0x3d70e0f2	0.058808275

fc3.weight f4 [32, 64]
0	0x3da25ea3	0.07928207
1	0x3eb740b4	0.35791552
2	0x3e0db11e	0.13837096
3	0x3c4e97ce	0.012609435
4	0x3e43faaf	0.19138597
5	0xbea2661b	-0.31718525
6	0x3f020d21	0.50801283
7	0x3e061a30	0.13095927
8	0xbd1cb46f	-0.038258012
9	0xbdee771a	-0.116438106
10	0x3d4bfa7e	0.049799435
11	0xbe44322a	-0.19159761
12	0xbe18d2e0	-0.14924192
13	0x3d55f8f2	0.052239366
14	0x3b8acff4	0.0042362157
15	0x3cd0d935	0.025494197
16	0xbe1a4381	-0.15064813
17	0xbdd080ad	-0.10180793
18	0xbe9a574f	-0.30144736
19	0xbe14466e	-0.14479992
20	0x3eabfc99	0.33591154
21	0x3ee6d745	0.45086113
22	0x3e020774	0.12698156
23	0xbea861d2	-0.3288713
24	0x3cfffa5f	0.031247316
25	0xbdba7a50	-0.091053605
26	0x3f235d46	0.638142
27	0x3e67e0a4	0.22644287
28	0x3d683c1f	0.05669796
29	0xbd419282	-0.04725886
30	0x3e031d0c	0.12804049
31	0x3ed4bebd	0.41551772
32	0xbec02fd4	-0.3753649
33	0x3dec3f91	0.11535562
34	0x3cc74ce7	0.024328662
35	0xbe797108	-0.24359524
36	0x3e8f41f4	0.27980006
37	0x3d4c0f2c	0.049819157
38	0x3cf5cef0	0.030005902
39	0x3e66700a	0.22503677
40	0xbe4df772	-0.20113924
41	0x3ea357b0	0.31902838
42	0x3a5a71ea	0.00083330146
43	0xbefa70f6	-0.48914307
44	0x3e9f496b	0.311107
45	0x3cf87457	0.030328913
46	0xbea34a64	-0.31892693
47	0x3e073bf4	0.13206464
48	0xbeda05b2	-0.4258247
49	0xbeac8bca	-0.337004
50	0x3f33c0b5	0.7021592
51	0xbcf9cd99	-0.030493544
52	0x3e12fc09	0.14353956
53	0xbe814f2d	-0.2525572
54	0x3daa7994	0.083239704
55	0xbe89d01f	-0.26916596
56	0xbcdc4cd6	-0.026892107
57	0x3f05f767	0.5233063
58	0xbd08a481	-0.03336001
59	0x3d2b9a48	0.04189518
60	0x3de8e3d5	0.113715805
61	0x3e4020dd	0.18762536
62	0xbc9947d6	-0.018711012
63	0x3e1a3101	0.15057756
64	0xbe1913b7	-0.14948927
65	0xbe1295db	-0.14314978
66	0xbefe01eb	-0.49610838
67	0x3d415327	0.04719844
68	0x3def5ade	0.116872534
69	0xbe83a5d1	-0.25712445
70	0xbdcf51b4	-0.101230055
71	0x3ef238f1	0.47309068
72	0xbccb4dad	-0.024817312
73	0xbdf7374e	-0.120710954
74	0xbe9b2945	-0.30304924
75	0x3eb996cf	0.3624787
76	0xbcc58c8a	-0.024114866
77	0x3e1bc959	0.15213527
78	0xbe063860	-0.13107443
79	0xbea52d2f	-0.32261035
80	0x3e83dc0b	0.25753817
81	0xbd8a0fec	-0.06741318
82	0x3e47fba3	0.19529586
83	0x3ed5d00d	0.41760293
84	0x3e83154e	0.25602192
85	0xbe9691f7	-0.29408237
86	0x3e20fa8b	0.15720575
87	0x3efdf5cf	0.496016
88	0x3e483d96	0.19554743
89	0xbee20d58	-0.44150805
90	0xbe85dc89	-0.26144817
91	0xbb4a9a3c	-0.0030914685
92	0xbe28e41d	-0.16493268
93	0xbe87b939	-0.265085
94	0xbe122992	-0.1427367
95	0x3e4a6d62	0.19768289
96	0x3e5a8ee1	0.21343566
97	0xbc91f406	-0.017816555
98	0xbdc1f0f8	-0.09469789
99	0x3e2b26b0	0.16713977
100	0xbec47850	-0.3837304
101	0x3e6a9cae	0.22911331
102	0x3e724163	0.23657756
103	0x3dff099e	0.12453006
104	0xbd642871	-0.05570263
105	0xbe46e8b0	-0.194247
106	0x3e95936f	0.29214045
107	0xbdf0abc6	-0.11751513
108	0x3e2e01b3	0.16992836
109	0x3e4b8184	0.19873625
110	0xbcd25dd7	-0.025679512
111	0x3e56c6e2	0.20974305
112	0xbd259c59	-0.040432308
113	0xbda76ba9	-0.081748314
114	0x3dbf448e	0.09339248
115	0xbd90541e	-0.07047294
116	0x3de86f37	0.113493375
117	0xbdaf6fe5	-0.08566264
118	0x3de1f6db	0.11033412
119	0xbda5b5a2	-0.08091284
120	0x3cef052f	0.029177276
121	0xbda88873	-0.082291506
122	0x3c754ee8	0.014972426
123	0xbb80044e	-0.003906763
124	0xbdbb0747	-0.091322474
125	0x3c213261	0.009838671
126	0xbe1a666b	-0.15078132
127	0x3f0e0f97	0.5549254
128	0x3e565e2f	0.20934366
129	0x3d766895	0.06015833
130	0xbecc057d	-0.39847937
131	0x3eecc533	0.462442
132	0x3e3e28be	0.1857023
133	0x3da5d84e	0.080978975
134	0x3f181f73	0.5942299
135	0x3e2b60aa	0.16736093
136	0x3d97b353	0.0740725
137	0x3c7d468f	0.015458717
138	0xbe1ca019	-0.15295447
139	0xbb7ef22d	-0.0038901672
140	0xbe85cb32	-0.26131588
141	0xbe26706e	-0.16253826
142	0xbe96edc6	-0.29478282
143	0x3e6d2a05	0.2316056
144	0x3e099013	0.13433866
145	0x3e98fa99	0.2987869
146	0xbc8426fe	-0.016131874
147	0xbf15f3b6	-0.58575
148	0xbe237988	-0.15964329
149	0x3e3102bb	0.17286198
150	0x3c8d1605	0.017222414
151	0xbdd5552c	-0.10416636
152	0xbe934a1d	-0.2876748
153	0xb9fe8283	-0.00048543894
154	0x3ed00e6e	0.4063601
155	0xbe9037d3	-0.2816759
156	0x3e298016	0.16552767
157	0x3e3e6e6b	0.18596809
158	0xbe16c7db	-0.14724676
159	0x3e9ae791	0.30254796
160	0xbe942a66	-0.28938597
161	0x3ddd097e	0.10792826
162	0x3e7cbb26	0.24680766
163	0xbf18c525	-0.5967582
164	0x3e605654	0.21907932
165	0xbe982e6c	-0.29722917
166	0xbe5e419d	-0.21704717
167	0x3f21b77c	0.631706
168	0x3e39c9d2	0.18143395
169	0x3f0218ea	0.50819266
170	0x3de0ccb6	0.109765455
171	0x3dc4bbca	0.096061304
172	0x3c89dac4	0.016827948
173	0xbdc462fa	-0.09589191
174	0x3e66df04	0.22546011
175	0x3d9b2fc2	0.075774685
176	0xbf39c95f	-0.7257289
177	0xbe13fe33	-0.14452438
178	0xbe8869be	-0.26643175
179	0x3e89c577	0.26908466
180	0x3e02e6a9	0.12783302
181	0x3e2cfcd9	0.16893329
182	0xbd4fa04d	-0.050689984
183	0xbecc0144	-0.39844716
184	0x3ef0e6d9	0.47051123
185	0x3e039529	0.12849869
186	0x3eb09ec8	0.3449614
187	0x3e8f772c	0.28020608
188	0x3d43d513	0.047810625
189	0x3f228e92	0.63498795
190	0xbe256618	-0.16152227
191	0xbe100d30	-0.1406753
192	0x3ea5e53f	0.32401463
193	0x3d9af027	0.07565337
194	0x3eed386e	0.46332115
195	0xbeb0e080	-0.3454628
196	0xbe94b10f	-0.29041335
197	0x3e90200c	0.2814945
198	0xbca3e54c	-0.020006798
199	0xbb120445	-0.0022280377
200	0xbde21e33	-0.11040916
201	0x3e2721e9	0.1632153
202	0x3e78a09f	0.24280022
203	0xbdb6094e	-0.088884935
204	0x3dae19f4	0.08501044
205	0xbda1c3eb	-0.078986965
206	0x3dbe6591	0.09296716
207	0x3db9d7b9	0.09074349
208	0x3e877d31	0.264627
209	0xbe39f14c	-0.18158454
210	0x3e3585a3	0.1772676
211	0x3e5607e6	0.2090145
212	0x3f1470d5	0.5798467
213	0xbe448a79	-0.19193448
214	0x3eb85e28	0.36009336
215	0xbec342f0	-0.38137007
216	0x3e77b36c	0.24189538
217	0xbe222491	-0.15834261
218	0x3e71e42d	0.23622198
219	0xbed5dea3	-0.4177142
220	0x3dada44a	0.08478601
221	0x3e063ab4	0.13108331
222	0x3e4106b4	0.18850213
223	0x3eab9c5b	0.33517727
224	0xbe23727d	-0.15961643
225	0xbc13bd78	-0.009017341
226	0xbc439166	-0.011936521
227	0x3e308f8a	0.17242256
228	0x3e43d161	0.1912284
229	0x3e5d7ac9	0.2162887
230	0x3e891709	0.26775387
231	0xbf0523b1	-0.52007586
232	0xbeae36f3	-0.34026298
233	0x3cf800fc	0.030273907
234	0x3f16dc27	0.58929676
235	0x3e18410c	0.14868563
236	0x3ebca78d	0.3684658
237	0x3d7e664c	0.062109277
238	0xbec3d8ab	-0.38251242
239	0xbe8a6354	-0.27028906
240	0x3bda07ae	0.0066537475
241	0xbf2bb0db	-0.67066735
242	0x3e43d0bb	0.19122593
243	0x3e86776e	0.26262993
244	0xbc98be58	-0.01864545
245	0x3e3df8e9	0.18551983
246	0x3ebeef7a	0.3729208
247	0x3dfc7764	0.123274595
248	0xbdfebf87	-0.12438875
249	0xbd5043bf	-0.050845858
250	0xbd4dfd3c	-0.05029033
251	0x3e116818	0.14199865
252	0x3d57d5fb	0.052694302
253	0xbbe4eae6	-0.00698601
254	0x3f068bfc	0.5255735
255	0xbece87ef	-0.40338084

fc3.bias f4 [32]
0	0x3d57e45b	0.05270801
1	0x3e153088	0.14569294
2	0x3e12913a	0.14313212
3	0x3deabbb3	0.11461582
4	0xbd9abd82	-0.07555677
5	0xbe1973dc	-0.14985603
6	0x3d62bc45	0.05535533
7	0x3eb83386	0.3597681
8	0x3e630c92	0.22172764
9	0xbe34a237	-0.17640005
10	0x3e22f3df	0.15913342
11	0x3d9de38a	0.07709415
12	0xbd65a860	-0.056068778
13	0x3d5f49d2	0.05451376
14	0x3e8cc93f	0.2749729
15	0xbe7eba9b	-0.24875872
16	0x3e19afb2	0.15008429
17	0xbd76c0f7	-0.06024262
18	0xbe176798	-0.14785612
19	0x3e8d26b2	0.27568585
20	0x3dd722d6	0.10504691
21	0x3e4c4644	0.19948679
22	0xbd4809e5	-0.04883756
23	0x3dc28eaa	0.09499867
24	0xbd5df587	-0.05418923
25	0xbf08288e	-0.5318688
26	0x3dd2bc7e	0.10289858
27	0x3e5da02a	0.21643129
28	0xbd5b12c4	-0.053484693
29	0x3e418211	0.18897273
30	0x3e711ebd	0.23546882
31	0x3e3c34c6	0.18379506

fc4.weight f4 [4, 32]
0	0x3efd11eb	0.49427733
1	0xbd3d25e4	-0.046178713
2	0x3e892f01	0.26793674
3	0xbf37b5f9	-0.71762043
4	0x3e74ae8b	0.23894708
5	0x3f1cc17b	0.6123273
6	0x3d427ff7	0.047485318
7	0xbf9acd00	-1.2093811
8	0xbcd18e78	-0.02558063
9	0x3e1476e7	0.14498483
10	0x3e515a61	0.20444633
11	0x3e8d1a78	0.27559257
12	0xbeb78815	-0.3584601
13	0xbe976671	-0.29570344
14	0x3e073754	0.132047
15	0xbe5d4194	-0.21607047
16	0xbebe4baa	-0.37167102
17	0xbef90a43	-0.48640642
18	0xbe2439b8	-0.16037643
19	0xbfac0ce0	-1.3441429
20	0x3f14caeb	0.5812213
21	0x3dbf09e7	0.093280606
22	0x3d74ceec	0.05976765
23	0x3f4df233	0.8044769
24	0xbe816f4c	-0.25280225
25	0xbf6379aa	-0.8885752
26	0xbf612bac	-0.87957263
27	0xbde4a92d	-0.1116508
28	0xbd5e278d	-0.054236937
29	0x3f182ad5	0.59440356
30	0xbfdfc92f	-1.7483271
31	0x3de3b406	0.11118321
32	0xbf1b5d43	-0.6068918
33	0x3e72d9c7	0.23715888
34	0xbe9a117b	-0.30091462
35	0xbec28f56	-0.37999982
36	0xbe16abf3	-0.14714031
37	0xbed56e98	-0.4168594
38	0xbe50f35a	-0.20405331
39	0x3df7423f	0.12073182
40	0x3f115f6c	0.5678623
41	0xbe3bfae3	-0.18357424
42	0xbe1e0ca0	-0.15434504
43	0x3fb48ae7	1.410489
44	0xbf0267cd	-0.5093964
45	0xbea653a2	-0.32485682
46	0xbf023d2b	-0.50874585
47	0x3f2da602	0.6783143
48	0x3dc60236	0.096683905
49	0xbe47ccb3	-0.1951168
50	0xbe47ce53	-0.195123
51	0xbf104108	-0.5634923
52	0x3ed0f89d	0.40814677
53	0x3f5e2014	0.867677
54	0x3e1d1338	0.15339363
55	0xbe11c065	-0.14233549
56	0xbe4ec140	-0.20190907
57	0x3c05f2d2	0.008175569
58	0xbeaebdd8	-0.34129214
59	0x3f39f9c1	0.7264672
60	0xbed41e86	-0.41429538
61	0x3d82abc1	0.06380416
62	0xbe2d33fa	-0.16914359
63	0xbe35a4d8	-0.17738664
64	0x3dff482e	0.12464939
65	0x3e4c25ae	0.19936249
66	0xbd226597	-0.039647665
67	0x3da049df	0.0782659
68	0x3cc2f282	0.023797277
69	0x3c6317cc	0.013860654
70	0x3c8e07fc	0.017337792
71	0xbdeb3550	-0.11484778
72	0x3d0d6114	0.03451641
73	0x3e11ac55	0.14225896
74	0xbed94864	-0.42438042
75	0xbd0a3df6	-0.033750497
76	0xbe72d33d	-0.23713394
77	0xbdb2ed36	-0.08736651
78	0xbd250c70	-0.040295064
79	0x3c6e4aa4	0.014544163
80	0xbe049905	-0.12948997
81	0x404af2fa	3.17108
82	0x3dc94179	0.09826941
83	0xbd669a9e	-0.0562998
84	0x3d93874d	0.07203541
85	0xbd538261	-0.05163801
86	0xbe852371	-0.26003602
87	0xbb15de74	-0.0022868188
88	0x3e0f85ca	0.1401588
89	0x3f0ca15f	0.5493373
90	0x3d3bb15a	0.045823433
91	0xbde06a46	-0.1095777
92	0x3d5c6dbb	0.053815585
93	0xbcb477d2	-0.022029791
94	0xbcdfcbe0	-0.027318895
95	0x3e47e633	0.19521408
96	0x3e211afa	0.15732947
97	0x3dc2524f	0.09488355
98	0xbd29f3d3	-0.041492295
99	0xbe0bb362	-0.13642648
100	0xbd23ae37	-0.039961066
101	0xbdcf25c8	-0.10114628
102	0xc0570859	-3.3598845
103	0xbd6575d4	-0.056020573
104	0x3da388cb	0.079850756
105	0xbdc6948e	-0.09696303
106	0x3dc297a0	0.095015764
107	0xbe94c54b	-0.29056773
108	0xbd0fdcc0	-0.035122633
109	0x3e1f3a28	0.15549529
110	0x3a71d96a	0.00092258176
111	0x3fff2ca6	1.9935501
112	0x3dce64cb	0.100778185
113	0x3d9a0187	0.075198226
114	0xbd8e8bf0	-0.06960285
115	0x3d489ac0	0.048975706
116	0xbca1262c	-0.019671522
117	0xbe0543ca	-0.1301414
118	0xbe345d95	-0.17613824
119	0xbdb19e1a	-0.086727336
120	0xbdf532a4	-0.119725496
121	0x3d8171b1	0.06320513
122	0x3db034ff	0.08603858
123	0x3dc00278	0.09375471
124	0x3ea92ae4	0.33040535
125	0x3e02d55d	0.12776704
126	0x3d9171ac	0.07101759
127	0x3eb0d72d	0.34539166

fc4.bias f4 [4]
0	0xbdd9a16c	-0.10626492
1	0xbe1bb4f6	-0.1520575
2	0x3d11a02e	0.03555315
3	0x3c388ff0	0.011264786
