p2_continuous-control/checkpoint_critic.pth (torch_old, 202869 bytes, 7 tensors)

fcs1.weight f4 [256, 33]
0.45402336 -1.1874031 0.20766336 -0.29352283 -1.6961713 1.3233078 1.6272173 -0.49955577
-1.1628482 0.6710403 -0.68621624 -0.10043811 -0.60139483 -0.6826697 0.7610204 -1.3194855
0.70753264 0.95697844 0.7948612 1.969996 -0.13640352 -0.16076921 0.27684993 -0.4787115
0.32069418 -0.7171443 0.2396832 1.5294335 0.6126153 0.0023045167 -1.5605595 0.036613263
1.0827678 0.67840904 0.925825 -0.021973759 1.3897035 0.1386145 0.83944917 -2.1536787
-0.009634474 -0.3787733 0.19997485 0.024618603 0.48273855 0.33551225 -0.5583949 -1.1176059
0.018448535 0.5664308 0.045620594 0.39250544 -0.06977673 -0.2829261 -0.097889096 0.27251396
-1.1101261 -0.8842778 0.028442346 -0.41204184 1.9294498 0.34113654 0.061692365 -1.9436469
-0.040808693 -3.0206594 0.54192424 -1.0082802 0.2981288 -3.8298855 -0.31919768 -1.2133679
1.710564 -0.12452474 0.7881647 -0.84000164 0.508489 -0.24994282 -0.13417065 0.31953466
1.2158531 -0.06232469 -0.6232569 1.8162179 -0.23056886 -1.7363001 -0.0123857325 0.3414364
-0.02289831 0.38663036 -0.3454366 -0.18236953 0.43507615 1.2468299 -0.5914801 0.03886617
-1.2433065 0.05286929 3.9055002 0.39549488 -0.17025593 -0.65644383 -0.2846407 0.8809233
1.2213734 2.0604625 -0.038269356 -0.16468726 -1.2502729 -0.2065559 0.51675224 0.06345199
0.21937631 0.61652684 0.011035728 -0.16165301 0.042820096 -0.38137543 -1.0120401 -0.79787314
0.5887067 0.79776007 1.2830635 0.21713609 -0.3837408 0.2972246 1.501301 0.7483856
0.028326064 -1.5067921 0.01765427 -4.422611 1.2636753 1.2003864 0.112533055 -0.7787553
-4.7476454 -2.7784476 -2.0555649 0.118481256 0.7583605 -0.06319509 -0.11742046 0.10623048
0.088845246 0.08290364 -0.22428244 -0.051404197 -1.0766214 2.0400176 2.3276885 0.5748799
0.03104728 -0.019632908 0.13680522 -0.5121273 0.2752664 -0.05670894 -1.3746654 1.8247181
-0.717921 0.013867661 -1.8308626 -0.032650463 -1.968388 -0.6189944 0.22295913 -1.1224024
5.378949 0.08830478 -0.76179284 1.8050367 -0.54656446 0.8915044 0.48410928 -0.04640953
-0.2567541 -0.4483367 1.0474286 0.18753846 0.34154648 0.809245 0.01957045 0.1689355
0.3835982 0.11740618 -0.019308053 -0.32948056 0.7225411 0.055773623 0.0304068 -0.41499564
2.3324442 -0.7156064 0.014501497 -2.3152337 0.002542086 -0.044402648 0.9638402 0.93487203
2.8570843 -0.08632989 -1.361108 -3.7107506 2.7069283 0.6301595 0.5704631 1.2016726
0.07941958 0.48809007 0.49197093 -0.031134155 -0.28102994 -1.3726227 -0.6763188 0.025546165
-0.5413742 0.4290394 -0.025136746 -0.07310178 -0.046645965 0.030684862 0.2447788 0.120025836
-0.13127425 1.2090892 0.67277396 0.030027606 -1.2544111 0.054102562 1.5032561 -1.0833193
0.32533967 -1.0642145 1.4397916 0.37702915 0.21651636 2.5233855 -0.07989296 0.42690307
0.6024593 -0.17223284 0.14102307 -0.06850373 2.078238 0.39634526 0.0848428 0.5862608
-0.46496117 -0.13759188 -0.071892336 -0.020032024 -0.21904357 0.088418275 0.5862906 -0.0077055856
00000000: c075 e83e d3fc 97bf b4a5 543e a048 96be
00000010: 241c d9bf 2662 a93f a848 d03f c6c5 ffbe
00000020: 36d8 94bf 4cc9 2b3f deab 2fbf 7fb2 cdbd
00000030: 03f5 19bf 71c3 2ebf 3cd2 423f e7e4 a8bf
00000040: dc20 353f 8afc 743f 067c 4b3f d428 fc3f
00000050: 5dad 0bbe afa0 24be 46bf 8d3e ac19 f5be
00000060: 0732 a43e c596 37bf 836f 753e 7ac4 c33f
00000070: 5bd4 1c3f 6007 173b 6ac0 c7bf caf7 153d
00000080: 2398 8a3f 37ac 2d3f de02 6d3f 5002 b4bc
00000090: cee1 b13f f6f0 0d3e 24e6 563f dfd5 09c0
000000a0: ead9 1dbc 93ee c1be 35c6 4c3e f4ac c93c
000000b0: 8229 f73e 43c8 ab3e f8f2 0ebf b60d 8fbf
000000c0: 6221 973c 9c01 113f a9dc 3a3d 79f6 c83e
000000d0: 1ae7 8ebd b1db 90be 147a c8bd f386 8b3e
000000e0: 9d18 8ebf 0860 62bf ecff e83c 26f7 d2be
000000f0: 36f8 f63f 73a9 ae3e 22b1 7c3d 6cc9 f8bf
00000100: 0427 27bd 7c52 41c0 8cbb 0a3f 530f 81bf
00000110: 57a4 983e d81c 75c0 e16d a3be a44f 9bbf
00000120: c3f3 da3f d406 ffbd 29c5 493f 590a 57bf
00000130: 562c 023f 03f1 7fbe 0864 09be 0c9a a33e
00000140: 13a1 9b3f 2d48 7fbd c48d 1fbf d479 e83f
00000150: 3e1a 6cbe 153f debf 87ed 4abc c0d0 ae3e
00000160: 3d95 bbbc 6af4 c53e 11dd b0be 14bf 3abe
00000170: 4dc2 de3e 1f98 9f3f 3d6b 17bf 2232 1f3d
00000180: ab24 9fbf 788d 583d b7f3 7940 4e7e ca3e
00000190: 9257 2ebe b40c 28bf 6dbc 91be 3084 613f
000001a0: f755 9c3f 9ede 0340 54c0 1cbd c7a3 28be
000001b0: f108 a0bf 6483 53be e049 043f 1ef3 813d
000001c0: 2fa4 603e b4d4 1d3f 33cf 343c 5e88 25be
000001d0: 2064 2f3d a443 c3be 888a 81bf 6a41 4cbf
000001e0: 7bb5 163f 013a 4c3f 6d3b a43f ec58 5e3e
000001f0: ad79 c4be d32d 983e a22a c03f 3396 3f3f
00000200: 100c e83c 90de c0bf b09f 903c 0886 8dc0
00000210: 1dc0 a13f 43a6 993f bb77 e63d 825c 47bf
00000220: b6ec 97c0 16d2 31c0 608e 03c0 4da6 f23d
00000230: ea23 423f 6d6c 81bd 237a f0bd 5e8f d93d
00000240: 7ff4 b53d 62c9 a93d 4caa 65be 358d 52bd
00000250: bbce 89bf a68f 0240 d9f8 1440 542b 133f
00000260: de56 fe3c 31d5 a0bc ab16 0c3e c61a 03bf
00000270: b8ef 8c3e a247 68bd 09f5 afbf 5d90 e93f
00000280: acc9 37bf 3035 633c b559 eabf 7ebc 05bd
00000290: 23f4 fbbf 6b76 1ebf 664f 643e e2aa 8fbf
000002a0: 5a20 ac40 23d9 b43d db04 43bf 710b e73f
000002b0: a6eb 0bbf a239 643f 2cdd f73e eb17 3ebd
000002c0: 4675 83be 638c e5be 2412 863f 150a 403e
000002d0: 2edf ae3e ae2a 4f3f 3552 a03c 6dfd 2c3e
000002e0: fc66 c43e a772 f03d ec2b 9ebc adb1 a8be
000002f0: 74f8 383f e272 643d ae17 f93c 4f7a d4be
00000300: c446 1540 fb31 37bf b097 6d3c ca2c 14c0
00000310: 2099 263b 8ddf 35bd 3bbe 763f c653 6f3f
00000320: 78da 3640 bacd b0bd c938 aebf f07c 6dc0
00000330: 503e 2d40 2252 213f df09 123f 68d0 993f
00000340: bca6 a23d f1e6 f93e 9de3 fb3e 0e0d ffbc
00000350: 28e3 8fbe 1ab2 afbf 3b23 2dbf 3146 d13c
00000360: 8097 0abf 0dab db3e 94eb cdbc 63b6 95bd
00000370: d70f 3fbd d25e fb3c 4ba7 7a3e 1bd0 f53d
00000380: c26c 06be 6fc3 9a3f ea3a 2c3f 74fc f53c
00000390: 8b90 a0bf a69a 5d3d b26a c03f 35aa 8abf
000003a0: ec92 a63e 2e38 88bf 174b b83f f709 c13e
000003b0: 77b6 5d3e 267f 2140 ec9e a3bd 0a93 da3e
000003c0: c63a 1a3f ce5d 30be 5a68 103e af4b 8cbd
000003d0: da01 0540 c4ed ca3e 10c2 ad3d 3015 163f
000003e0: 640f eebe e3e4 0cbe 4a3c 93bd 331a a4bc
000003f0: f54c 60be a414 b53d 2417 163f 237f fcbb

fcs1.bias f4 [256]
-1.6090935 -2.0712638 -1.1060755 -1.5490261 -1.7867585 -2.29536 -1.3791598 -0.44215053
-2.0997815 -1.695979 -2.4777286 -2.4989038 2.2651184 -1.3716868 -2.1228535 -2.2799854
-1.715796 -1.2814091 -2.2600749 -1.2746426 0.078089625 -2.1661966 -0.20402138 -1.7111226
-1.5023496 -1.7907754 -1.9837532 -0.103925616 -1.3514531 -2.2290976 -2.3514826 -1.8284407
-1.3122324 -1.5984923 -1.3262643 -1.4559996 -1.0481554 -2.1598644 -0.9432586 -1.7088997
0.037555348 -2.4558876 -0.743408 -1.7236581 -1.7697281 -1.2223423 -2.0715785 -1.2190412
-1.2396998 0.34632206 -1.7049708 -1.1264257 -2.0124364 -2.7681704 -0.7226061 -2.4620886
-1.7674328 -2.589698 -2.2560172 -2.8523822 -2.7801569 -2.5319247 -1.9982923 -1.117291
-2.0335827 -1.8841429 -2.418174 -1.4319005 -1.4507246 -1.6523932 0.25392157 -1.7254869
-0.7099796 -2.1073184 -1.4803866 -1.8678905 -1.7661504 -2.4082756 -1.9780806 -1.6439242
-2.5561478 -1.9219024 -2.8205667 -1.628438 1.0554302 -1.5038242 -2.3865995 -1.3521433
-0.6548933 -2.714462 -2.499894 -0.9193111 -0.7608321 -0.21477616 -1.1011884 -1.1639873
-1.6541803 -1.446581 -1.8110557 -2.263851 -2.515083 -0.8702486 -1.8498756 -2.7017574
-0.7599042 -1.8973273 -1.3567232 -2.1806085 -1.4181248 -1.7418103 0.6384323 -1.0759388
-1.4236892 -2.3554173 -1.5910436 -2.0551074 -1.6237825 -1.8817314 -3.0547786 -0.79537755
-1.442389 -2.6695395 -0.20731868 -1.7836983 -1.6110493 -1.5137913 -2.8438854 -0.89375603
-2.737971 -2.518855 -2.6103187 -0.7374066 -1.8979428 -3.038632 -2.0959287 -2.4595716
-2.663056 -2.9974601 -3.0549688 -0.552276 -1.3675239 -1.9277829 -0.91816866 -1.9274904
-1.7012336 -1.3191955 -2.2053373 -1.4184284 -1.2649395 -0.62937653 -2.577361 -2.5565984
-0.53523546 -2.9446507 -0.64957803 -1.9034034 -0.034800053 -1.8918186 -2.3891017 -2.1678014
-1.7289969 -1.2303132 -1.3790045 -0.6194587 -0.75636804 -2.8401046 -0.5264793 -0.63682586
-1.3821487 -2.3876035 1.1432526 0.51211965 -1.9196333 -2.0142426 -1.5487627 -2.2788389
-2.1150951 -3.3743033 -1.5701901 -0.67001915 -2.948674 -1.718124 -2.9705706 -1.8782897
-2.5557597 -1.7945238 -0.40178856 -2.1435099 -2.2547092 -0.8493124 -0.36526838 -1.715823
-0.4687084 -1.2759641 -2.2317774 -1.4220598 -1.5707405 -1.9879867 -1.7077057 0.66970015
-1.0250932 -1.6578933 -0.532025 -1.4147602 -1.5991957 -2.2002633 0.182602 -2.586518
-0.8378926 -0.4933032 -1.3514246 -2.0926337 -0.9162326 -2.3336947 -1.7075293 -2.3137329
-1.5666364 -1.8890282 -2.1314337 -2.1434917 -1.04722 -1.4647714 -2.7886 -2.1277645
-1.046807 -2.0293236 -0.5004163 -2.2309697 -2.3968887 -2.021702 -1.3169577 -1.8338833
-1.1788899 2.5623703 0.76148045 -2.5970721 -2.0284305 -2.9470417 -2.4483683 -2.2550645
-2.8385673 -2.0599592 -2.8950562 -1.8045805 -1.23985 -2.1644967 -2.3228412 -1.5572714
-1.8733433 -1.21831 -2.0614104 -2.7333446 -0.80829877 -0.96524304 -1.9858031 -0.7749608
00000000: c7f6 cdbf 968f 04c0 e293 8dbf 7d46 c6bf
00000010: 81b4 e4bf 2ee7 12c0 4f88 b0bf 8e61 e2be
00000020: d262 06c0 d715 d9bf 1b93 1ec0 0aee 1fc0
00000030: b3f7 1040 6f93 afbf d5dc 07c0 48eb 11c0
00000040: 349f dbbf 3705 a4bf 11a5 10c0 7d27 a3bf
00000050: 74ed 9f3d f7a2 0ac0 fbea 50be 1106 dbbf
00000060: fe4c c0bf 2138 e5bf a0eb fdbf f4d6 d4bd
00000070: 6afc acbf 89a9 0ec0 b17e 16c0 580a eabf
00000080: 3bf7 a7bf 659b ccbf 07c3 a9bf 325e babf
00000090: f529 86bf 383b 0ac0 6579 71bf 3abd dabf
000000a0: a3d3 193d 432d 1dc0 fd4f 3ebf d4a0 dcbf
000000b0: 7386 e2bf b675 9cbf be94 04c0 8b09 9cbf
000000c0: 7cae 9ebf 2051 b13e 7c3c dabf b82e 90bf
000000d0: c2cb 00c0 b429 31c0 b7fc 38bf dc92 1dc0
000000e0: 3d3b e2bf 9dbd 25c0 9662 10c0 6e8d 36c0
000000f0: 17ee 31c0 0e0b 22c0 0bc8 ffbf 6403 8fbf
00000100: 3826 02c0 982b f1bf 5dc3 1ac0 8448 b7bf
00000110: 58b1 b9bf 9f81 d3bf 0202 823e c1dc dcbf
00000120: 39c1 35bf 4ede 06c0 4f7d bdbf 0917 efbf
00000130: 3711 e2bf 3021 1ac0 bf31 fdbf 1c6c d2bf
00000140: ed97 23c0 e600 f6bf 2a84 34c0 a870 d0bf
00000150: 5618 873f 507d c0bf 0cbe 18c0 0813 adbf
00000160: 16a7 27bf bfb9 2dc0 43fe 1fc0 f957 6bbf
00000170: e4c5 42bf 48ee 5bbe bef3 8cbf 89fd 94bf
00000180: 2ebc d3bf 9129 b9bf acd0 e7bf efe2 10c0
00000190: 1ff7 20c0 9dc8 5ebf b9c8 ecbf 98e9 2cc0
000001a0: 1589 42bf 9fdb f2bf 1ba9 adbf 178f 0bc0
000001b0: 1d85 b5bf a4f3 debf 4d70 233f 5db8 89bf
000001c0: 733b b6bf 28bf 16c0 51a7 cbbf e186 03c0
000001d0: 1bd8 cfbf 93dc f0bf 7e81 43c0 dd9d 4bbf
000001e0: 34a0 b8bf bcd9 2ac0 594b 54be 3a50 e4bf
000001f0: dd36 cebf eac3 c1bf 3802 36c0 32cd 64bf
00000200: eb3a 2fc0 ec34 21c0 760f 27c0 aec6 3cbf
00000210: caef f2bf f278 42c0 b223 06c0 9f69 1dc0
00000220: 826f 2ac0 63d6 3fc0 9c84 43c0 f661 0dbf
00000230: 060b afbf 97c1 f6bf 1a0d 6bbf 01b8 f6bf
00000240: 06c2 d9bf 66db a8bf 3f24 0dc0 108f b5bf
00000250: 8ae9 a1bf d21e 21bf 7cf3 24c0 4f9f 23c0
00000260: 3105 09bf 2875 3cc0 bf4a 26bf b9a2 f3bf
00000270: 808a 0ebd 1d27 f2bf 0be7 18c0 42bd 0ac0
00000280: c54f ddbf e77a 9dbf 3883 b0bf d894 1ebf
00000290: 56a1 41bf 46c4 35c0 59c7 06bf 0507 23bf
000002a0: 40ea b0bf 7fce 18c0 1a56 923f 461a 033f
000002b0: 8bb6 f5bf 5ae9 00c0 db3d c6bf 7fd8 11c0
000002c0: b85d 07c0 96f4 57c0 fdfb c8bf 6086 2bbf
000002d0: 13b7 3cc0 7deb dbbf d41d 3ec0 cc6b f0bf
000002e0: 9191 23c0 f5b2 e5bf 3bb7 cdbe 442f 09c0
000002f0: 284d 10c0 8a6c 59bf 7504 bbbe 17a0 dbbf
00000300: 8cfa efbe cb52 a3bf 71d5 0ec0 0e06 b6bf
00000310: 060e c9bf 5976 febf 1a96 dabf 7871 2b3f
00000320: 4136 83bf d935 d4bf ca32 08bf dd16 b5bf
00000330: 72b2 ccbf 1dd1 0cc0 05fc 3a3e 8389 25c0
00000340: 2180 56bf 3d92 fcbe 7bfb acbf b6ed 05c0
00000350: 388e 6abf 415b 15c0 5290 dabf 3314 14c0
00000360: 8b87 c8bf adcb f1bf 6969 08c0 f82e 09c0
00000370: 4e0b 86bf a17d bbbf 6c78 32c0 4b2d 08c0
00000380: c6fd 85bf 70e0 01c0 481b 00bf 35c8 0ec0
00000390: a066 19c0 9163 01c0 1292 a8bf b0bc eabf
000003a0: dde5 96bf e0fd 2340 62f0 423f 6e36 26c0
000003b0: ced1 01c0 559c 3cc0 11b2 1cc0 fa52 10c0
000003c0: 16ab 35c0 5fd6 03c0 9a48 39c0 7efc e6bf
000003d0: 68b3 9ebf 1d87 0ac0 6ea9 14c0 ab54 c7bf
000003e0: b7c9 efbf 95f1 9bbf 26ee 03c0 1eef 2ec0
000003f0: abec 4ebf 2b1a 77bf cc2e febf d563 46bf

fc2.weight f4 [128, 260]
-1.2314664 0.4423948 0.8453216 0.6262316 -0.45007366 -0.97487694 0.33346057 -1.0188766
0.24581121 0.36477765 0.43538362 0.0745174 0.29988384 -0.58662933 -0.12434674 -1.0769273
0.45461637 -0.7262558 -2.4547281 0.87074816 -0.28564164 -1.2797964 1.279407 1.176462
-1.2929635 -0.59155494 -0.5158601 -0.41791686 0.5102046 -0.35290208 -0.82329386 0.89539915
-0.16810288 -0.5498585 -0.7293241 2.7161822 -0.38861462 0.58030075 0.091766626 -0.42433283
-1.1990483 0.506892 -1.7669274 0.025322054 -0.012037605 -0.1607052 -0.40134972 -0.9281263
1.3412713 -0.9479312 -0.13681921 -1.879849 0.3337305 0.16282222 -0.31600308 -0.26252258
1.0861053 0.23209456 0.8130131 0.50716275 -0.13056384 0.23851605 0.5014531 -0.8346671
-3.2915165 -0.5373979 0.5805634 -4.6812425 -0.7837442 0.7731626 -1.2073449 0.41820556
0.87212133 0.21999556 -0.65805405 1.0902542 -2.143268 -2.3100023 0.20110774 0.117896125
1.0880746 1.1412486 -1.5706956 0.39410967 -0.42276356 -0.51284945 0.30514374 0.46852994
0.12662266 -0.09257581 0.48156878 1.0556021 0.31939587 -0.036266357 -0.454762 -0.5897408
-0.36865088 -0.21288353 1.5814991 1.2498332 -0.3587196 -0.33281207 0.18318336 -0.12077747
1.5950215 -0.23913509 -0.7357358 -0.5001203 -0.0013278222 -0.9947039 0.16804552 0.20229146
-0.90461576 -1.5550839 0.14525637 0.062469173 -2.9918582 0.08684423 0.37424105 -1.8994952
0.07895683 -0.5656499 -0.9097255 1.970627 -0.13605186 0.42045856 -0.4268445 -0.59840804
0.09409062 2.2114458 -1.5444893 0.505946 0.33060414 -0.14800571 0.47400618 -0.2441387
3.005355 -0.030398227 -0.29268962 0.07882518 -0.6532545 1.6286926 -0.42193982 1.6994244
-0.077185795 -0.062035292 0.23865616 0.47649804 -0.56799453 -0.55076635 -0.22785172 -0.59073514
0.34634086 -0.9329929 0.062039886 0.049592882 -0.47003308 -0.4427978 1.5532197 -0.23228426
0.8949393 -1.8634888 -2.8802655 0.30113542 0.5741635 1.7295172 -0.49507794 0.48271322
0.8928643 1.8188084 1.0277053 -1.2828486 2.269283 0.38742805 -1.6680229 0.9335579
-0.6991497 0.15988867 -1.2322079 -0.7424999 -1.0962979 -1.5234342 3.218494 -0.077794485
-1.222932 1.4051453 0.505624 -0.15355073 -0.18613136 0.1939617 1.2312266 0.20084144
0.35537982 -0.43568906 -0.16359144 1.046786 0.16813588 -1.0016978 -1.1679991 -0.2865963
0.93384784 1.7394415 -0.2601831 0.27845365 -0.8349998 -0.86046845 0.39978737 0.21205117
1.0597878 -0.95935374 -0.7733986 -0.28713933 0.508862 1.0309024 -1.7741556 -1.5310929
0.3005622 0.018659193 -0.020068543 -0.89631456 -0.07526902 -1.065385 -0.19761664 0.49654502
-4.6635256 0.31827733 -3.0306127 -0.038853284 0.40213367 -0.107008405 0.42653036 -0.640524
0.8503419 0.62792647 -0.39610347 -1.2227033 0.29550245 0.5477906 2.0340078 2.1194196
-2.4909008 1.4535505 -0.09680894 1.256361 -0.90102017 -0.35662293 1.6486248 0.5216815
-1.1706067 0.33840284 0.41089967 -0.095335074 0.07187309 -0.57218283 0.84428054 -0.42457357
00000000: b1a0 9dbf 9281 e23e ff66 583f b750 203f
00000010: 0e70 e6be 8991 79bf 58bb aa3e 8c6a 82bf
00000020: efb5 7b3e 23c4 ba3e 9aea de3e 949c 983d
00000030: 608a 993e 572d 16bf 81a9 febd c1d8 89bf
00000040: 7ac3 e83e e6eb 39bf 441a 1dc0 5ae9 5e3f
00000050: 9f3f 92be 5ed0 a3bf 9cc3 a33f 4f96 963f
00000060: d47f a5bf 2570 17bf 680f 04bf 33f9 d5be
00000070: c59c 023f 95af b4be 63c3 52bf e138 653f
00000080: 2923 2cbe 87c3 0cbf fcb4 3abf eed5 2d40
00000090: 7ff8 c6be 978e 143f 24f0 bb3d 2742 d9be
000000a0: 6a7a 99bf adc3 013f ad2a e2bf 3270 cf3c
000000b0: 6039 45bc e78f 24be b67d cdbe af99 6dbf
000000c0: c7ae ab3f 9eab 72bf 561a 0cbe e49e f0bf
000000d0: b9de aa3e deba 263e 28cb a1be 5c69 86be
000000e0: 8005 8b3f 32aa 6d3e a021 503f 6bd5 013f
000000f0: 87b2 05be 8d3d 743e 3b5f 003f beac 55bf
00000100: 35a8 52c0 e992 09bf ce9f 143f bdcc 95c0
00000110: 76a3 48bf fced 453f 478a 9abf 0a1f d63e
00000120: 5843 5f3f 8446 613e 3b76 28bf 738d 8b3f
00000130: 4e2b 09c0 14d7 13c0 30ef 4d3e 8673 f13d
00000140: 0746 8b3f 6f14 923f 8e0c c9bf bec8 c93e
00000150: 7774 d8be 1a4a 03bf cd3b 9c3e 28e3 ef3e
00000160: 5fa9 013e 6398 bdbd 2f90 f63e f81d 873f
00000170: db87 a33e 088c 14bd 91d6 e8be 41f9 16bf
00000180: cfbf bcbe 24fe 59be 906e ca3f 89fa 9f3f
00000190: 18aa b7be 5866 aabe 6b94 3b3e 2e5a f7bd
000001a0: aa29 cc3f d4df 74be 2e59 3cbf e207 00bf
000001b0: 520a aeba eaa4 7ebf 2014 2c3e 7e25 4f3e
000001c0: e694 67bf fd0c c7bf 16be 143e addf 7f3d
000001d0: 9b7a 3fc0 63db b13d 869c bf3e a922 f3bf
000001e0: 1eb4 a13d 6fce 10bf c5e3 68bf 813d fc3f
000001f0: 2e51 0bbe 5846 d73e 5d8b dabe 4531 19bf
00000200: 95b2 c03d 5488 0d40 d3b1 c5bf ad85 013f
00000210: f244 a93e cf8e 17be f0b0 f23e 7fff 79be
00000220: bc57 4040 b405 f9bc 6adb 95be 196f a13d
00000230: b03b 27bf 0079 d03f 7f08 d8be bd86 d93f
00000240: 9613 9ebd b818 7ebd 4862 743e 8df7 f33e
00000250: 1768 11bf 06ff 0cbf f651 69be 6b3a 17bf
00000260: 9753 b13e 9fd8 6ebf 891d 7e3d e821 4b3d
00000270: 2da8 f0be 65b6 e2be e7cf c63f eddb 6dbe
00000280: be1a 653f cd86 eebf 4556 38c0 6c2e 9a3e
00000290: 61fc 123f d260 dd3f db7a fdbe 3026 f73e
000002a0: c192 643f b7ce e83f d98b 833f 6234 a4bf
000002b0: ef3b 1140 f85c c63e c681 d5bf a7fd 6e3f
000002c0: 7afb 32bf dbb9 233e fdb8 9dbf 7914 3ebf
000002d0: 7d53 8cbf e4ff c2bf cefb 4d40 b752 9fbd
000002e0: 0989 9cbf cddb b33f 9370 013f 673c 1dbe
000002f0: 3899 3ebe e59d 463e d598 9d3f 61a9 4d3e
00000300: 58f4 b53e a312 dfbe 8484 27be 15fd 853f
00000310: d02b 2c3e a237 80bf ff80 95bf c0bc 92be
00000320: a710 6f3f 05a6 de3f b836 85be 7a91 8e3e
00000330: 8cc2 55bf a947 5cbf eeb0 cc3e f123 593e
00000340: 20a7 873f 3598 75bf 73fd 45bf ed03 93be
00000350: c844 023f 9cf4 833f 8817 e3bf dafa c3bf
00000360: 4ae3 993e 2adb 983c c966 a4bc df74 65bf
00000370: a526 9abd 895e 88bf 045c 4abe 263b fe3e
00000380: 9a3b 95c0 3ff5 a23e 8ff5 41c0 9f24 1fbd
00000390: 77e4 cd3e 3927 dbbd 3062 da3e 62f9 23bf
000003a0: 02b0 593f cabf 203f 13ce cabe 8b81 9cbf
000003b0: 194c 973e 013c 0c3f 2f2d 0240 92a4 0740
000003c0: eb6a 1fc0 f10d ba3f c443 c6bd 70d0 a03f
000003d0: 42a9 66bf 4897 b6be 2306 d33f eb8c 053f
000003e0: 71d6 95bf 2343 ad3e 7161 d23e 093f c3bd
000003f0: 3332 933d 937a 12bf c522 583f b561 d9be

fc2.bias f4 [128]
1.6331364 -1.5095139 -0.09931086 -3.1985285 -1.4760419 -0.23625268 -0.5600046 -0.05385235
-0.044804912 -6.4554095 2.1414974 -0.1167152 2.7313507 -2.695544 -0.6184413 -3.8963568
-1.2313695 -0.11230034 -0.08389134 1.1143761 -0.13451335 2.2347615 0.94758266 -0.13834573
-0.118319824 -0.13004601 1.5638124 1.4419258 -1.8201782 -2.4371552 -0.1729893 -1.1242533
-0.071418606 1.7996634 -1.0259438 1.350885 2.3377893 -0.54031813 -1.2044365 -0.07582226
-0.7766449 -0.1082934 2.4347987 3.75184 -0.04956441 -0.10812077 -1.7130712 -0.18637711
-0.44298884 -0.8644905 -0.041661315 -2.3045814 -0.74197775 -0.12756924 -2.23369 -0.0051186085
-0.11011444 0.008247485 -2.0564878 -1.2142525 -0.012676289 -2.5690632 0.005096995 0.50198585
-0.180366 0.63416296 -1.3481299 4.5243692 -3.4477468 1.6021512 -2.2494245 -1.8054291
-0.060829826 -1.6845825 -2.2662048 -2.646591 -0.007995647 -1.4594405 -0.8442553 2.2608685
-1.8357276 1.3654463 -0.038993273 -1.8414538 -0.061105818 -0.6412266 1.8284873 7.6379085
3.4116695 -1.5494474 -0.12117734 3.6482222 -1.7622881 3.390149 -0.22821656 0.0033497089
3.2666967 3.2218883 -0.0019301951 -0.0796187 -0.16989754 -0.08843546 1.4643816 2.8376417
-0.0093962755 -3.2821171 -0.13382317 -2.662058 -0.057579767 -0.11681323 -0.042215426 -0.14911042
-0.31762815 -0.046737187 -1.58054 -3.5793338 -2.4327178 1.2001016 -0.17949052 -1.636787
4.404295 -0.0053390064 -0.014385355 1.8945104 1.3824077 -0.13111846 1.8613701 -0.063381195
00000000: 9d0a d13f c037 c1bf 7e63 cbbd b1b4 4cc0
00000010: f1ee bcbf 39ec 71be 765c 0fbf 4894 5cbd
00000020: 5b85 37bd b792 cec0 4b0e 0940 6108 efbd
00000030: 73ce 2e40 cb83 2cc0 2b52 1ebf e95d 79c0
00000040: 849d 9dbf b8fd e5bd 39cf abbd e0a3 8e3f
00000050: debd 09be 5506 0f40 c794 723f 81aa 0dbe
00000060: aa51 f2bd c82a 05be 012b c83f 0691 b83f
00000070: 99fb e8bf 5afa 1bc0 1b24 31be 88e7 8fbf
00000080: eb43 92bd 5f5b e63f 2052 83bf cde9 ac3f
00000090: 579e 1540 4a52 0abf fa2a 9abf b348 9bbd
000000a0: 33d2 46bf eec8 ddbd bed3 1b40 261e 7040
000000b0: 0d04 4bbd 6c6e ddbd eb45 dbbf a4d9 3ebe
000000c0: 6fcf e2be 404f 5dbf 0ea5 2abd 437e 13c0
000000d0: 41f2 3dbf 83a1 02be c7f4 0ec0 00ba a7bb
000000e0: ae83 e1bd 7620 073c 7f9d 03c0 a06c 9bbf
000000f0: 36b0 4fbc 886b 24c0 b104 a73b 2582 003f
00000100: ddb1 38be 8158 223f 858f acbf a2c7 9040
00000110: e2a7 5cc0 4a13 cd3f 92f6 0fc0 4d18 e7bf
00000120: b228 79bd 66a0 d7bf 8009 11c0 bf61 29c0
00000130: 2d00 03bc f2ce babf 1e21 58bf 12b2 1040
00000140: 1ff9 eabf f2c6 ae3f 69b7 1fbd c2b4 ebbf
00000150: 184a 7abd 6d27 24bf df0b ea3f bf69 f440
00000160: cb58 5a40 4b54 c6bf d32b f8bd 797c 6940
00000170: a892 e1bf 34f8 5840 9ab1 69be ca86 5b3b
00000180: 8f11 5140 6b33 4e40 9afe fcba 210f a3bd
00000190: 9ff9 2dbe a71d b5bd db70 bb3f ec9b 3540
000001a0: d6f2 19bc 350e 52c0 f108 09be 295f 2ac0
000001b0: c3d8 6bbd c63b efbd 15ea 2cbd 67b0 18be
000001c0: 28a0 a2be 7e6f 3fbd 224f cabf ce13 65c0
000001d0: a6b1 1bc0 ee9c 993f 5dcc 37be 3d82 d1bf
000001e0: fcef 8c40 d5f2 aebb 8db0 6bbc 517f f23f
000001f0: bcf2 b03f eb43 06be 6041 ee3f 00ce 81bd

fc3.weight f4 [64, 128]
0.032194167 -0.52118117 -0.041619014 -0.039233144 -0.15988386 -0.39924628 -0.3231084 0.098305866
-0.067346685 -0.35034022 0.3020014 -0.11878631 -0.33838663 -0.8138624 -0.2683968 -0.5443836
0.3179125 0.00012753787 0.028267311 -0.201174 0.04622571 -0.064061694 -0.29296547 0.014143788
0.021532923 0.068238094 0.30609035 -0.06291728 -0.3902361 -0.41834763 0.14125347 -0.39903027
0.07632711 -0.5498872 -0.251097 -0.16106671 -0.009007592 -0.19622159 0.21147965 -0.08072045
-0.2706007 -0.116978064 -0.42196375 -0.22542186 -0.12836368 0.0038890166 -0.742877 -0.11571497
-0.34131184 -0.53600556 -0.056309633 -0.44868264 -0.058345065 -0.987829 -0.36111754 -0.03813783
-0.12372428 -0.09674238 -0.45616174 -0.51499766 -0.026078213 -0.7078248 0.12718941 -0.18884255
0.0026357563 -0.02750412 -0.061430316 -1.1639866 -1.1504096 0.35165584 -0.1309591 -0.43411127
-0.07366251 -0.5391846 0.1416559 -0.04930917 -0.09854202 -0.24366286 -0.10636452 -0.5431273
0.15166369 -0.53171253 0.19413629 -0.44707692 -0.12280104 -0.5945631 -0.38248312 -0.66944635
-0.057489306 -0.13570474 -0.10158112 -0.13916157 -0.1353699 -0.4662415 -0.57885605 -0.03976862
0.041783273 -0.050619908 0.016688349 -0.034918383 -0.33535606 0.078704625 -0.11941904 -0.767787
-0.1096381 -0.1501415 0.10090308 -0.47431603 0.06836514 -0.091596276 0.051659115 0.03206068
-0.52802134 -0.11220524 -0.5811736 -0.48338044 -0.2560349 -0.48919618 0.008375531 -0.3067719
0.08165612 -0.03598882 0.007567318 -0.62008464 0.040639542 0.087657064 -0.017105523 -0.06862774
0.079296246 -0.17607607 0.020751275 -0.09278586 -0.12753473 -0.2727813 -0.1478558 -0.12112278
-0.02084942 -0.08085317 0.041927017 -0.04280149 0.095355235 -0.058280308 -0.4191935 -0.040407933
-0.19738038 0.017436065 0.020496443 0.12862502 -0.12144791 0.2155051 0.06323325 0.03632491
-0.012423596 -0.07320259 0.22772889 0.07036411 -0.1251269 -0.08896043 -0.12426729 -0.075337835
0.008295818 0.102161795 -0.12544125 0.17931238 0.07015973 -0.13756816 -0.18663763 0.056863405
-0.3506097 -0.0093756365 0.08566424 0.0779021 -0.002734065 0.013352657 -0.07987286 -0.09028745
-0.20767125 -0.2945673 -0.002073288 -0.09648682 -0.32996148 -0.4242087 -0.06323519 -0.13553709
-0.13737224 0.037052263 -0.09098989 -0.11153057 -0.1343222 -0.20479766 -0.1434834 0.09935261
-0.05236473 0.07640247 -0.09952678 0.06833596 -0.068132095 0.11979123 -0.051298283 -0.1265503
-0.073348545 -0.07991273 -0.111115724 -0.09435156 -0.056474835 -0.11844534 -0.16436622 0.08381762
-0.0769278 0.105481 -0.13147624 -0.15653978 0.008612465 -0.11502009 0.09204325 0.14762694
0.13487728 -0.15773837 -0.013996123 0.08169319 -0.108468734 0.11002289 -0.21188788 -0.042264152
0.11573538 0.11023907 -0.05061116 -0.052210737 -0.7369931 -0.04902071 0.08329954 0.16776079
-0.032687943 -0.05425249 0.024724036 -0.05660195 0.030238643 0.0095275575 -0.020723019 -0.06635925
-0.13754833 -0.03083408 -0.12126575 -0.12442966 -0.043861143 0.076981686 -0.065874234 -0.100017376
0.10768505 -0.051080596 -0.07643888 0.119956434 0.14603272 -0.020127047 0.18327886 -0.025943197
00000000: 08de 033d 216c 05bf b378 2abd efb2 20bd
00000010: 98b8 23be 026a ccbe 776e a5be 9654 c93d
00000020: 0fed 89bd cb5f b3be ed9f 9a3e 3d46 f3bd
00000030: 0341 adbe 4959 50bf 4e6b 89be b95c 0bbf
00000040: 6dc5 a23e b0bb 0539 d990 e73c 8f00 4ebe
00000050: 2c57 3d3d c732 83bd 92ff 95be 59bb 673c
00000060: d065 b03c 6ac0 8b3d e0b7 9c3e c6da 80bd
00000070: 07cd c7be a931 d6be c0a4 103e b24d ccbe
00000080: 6351 9c3d 68c5 0cbf c98f 80be acee 24be
00000090: 9494 13bc 50ee 48be 1f8e 583e c350 a5bd
000000a0: 2d8c 8abe 3292 efbd a20b d8be fdd4 66be
000000b0: c571 03be dfde 7e3b 302d 3ebf f8fb ecbd
000000c0: 6dc0 aebe a937 09bf eea4 66bd bbb9 e5be
000000d0: 3cfb 6ebd 5de2 7cbf 66e4 b8be 6a36 1cbd
000000e0: 2863 fdbd de20 c6bd 088e e9be e3d6 03bf
000000f0: faa1 d5bc 0234 35bf f13d 023e f15f 41be
00000100: a7bc 2c3b 5250 e1bc 5b9e 7bbd 83fd 94bf
00000110: 9f40 93bf 3c0c b43e 241a 06be d543 debe
00000120: 5fdc 96bd 0008 0abf 3f0e 113e 6af8 49bd
00000130: 66d0 c9bd c282 79be a4d5 d9bd 640a 0bbf
00000140: ba4d 1b3e 501e 08bf aacb 463e 44e7 e4be
00000150: 1d7f fbbd 4a35 18bf d4d4 c3be d660 2bbf
00000160: e879 6bbd 2ff6 0abe c309 d0bd 5f80 0ebe
00000170: 689e 0abe 35b7 eebe e92f 14bf 6ce4 22bd
00000180: f024 2b3d d256 4fbd 01b6 883c 9406 0fbd
00000190: cab3 abbe e42f a13d f891 f4bd b08d 44bf
000001a0: f189 e0bd b2be 19be 46a6 ce3d 8dd9 f2be
000001b0: 0603 8c3d d496 bbbd 8298 533d 0f52 033d
000001c0: 682c 07bf dccb e5bd cbc7 14bf a47d f7be
000001d0: 0217 83be ec77 fabe 8639 093c 3511 9dbe
000001e0: 533b a73d 0369 13bd 44f7 f73b debd 1ebf
000001f0: a675 263d 8c85 b33d e220 8cbc b38c 8cbd
00000200: 1266 a23d 494d 34be 94fe a93c 8306 bebd
00000210: 7798 02be fea9 8bbe 8367 17be 380f f8bd
00000220: 67cc aabc 5996 a5bd aabb 2b3d 9d50 2fbd
00000230: 9b49 c33d 55b7 6ebd 88a0 d6be ca82 25bd
00000240: 151e 4abe 14d6 8e3c 28e8 a73c 47b6 033e
00000250: afb9 f8bd 5ead 5c3e 6f80 813d 6ec9 143d
00000260: 578c 4bbc 3deb 95bd c331 693e 0f1b 903d
00000270: 4421 00be e330 b6bd d97f febd b94a 9abd
00000280: 2feb 073c 343a d13d ac73 00be aa9d 373e
00000290: e8af 8f3d abde 0cbe ef1d 3fbe 9ae9 683d
000002a0: 1d83 b3be 459c 19bc bc70 af3d 238b 9f3d
000002b0: 002e 33bb 1ac5 5a3c 6294 a3bd a0e8 b8bd
000002c0: c6a7 54be 86d1 96be 00e0 07bb e29a c5bd
000002d0: b6f0 a8be e231 d9be 7481 81bd 3cca 0abe
000002e0: 4fab 0cbe 1dc4 173d e858 babd 246a e4bd
000002f0: c28b 09be 7ab6 51be 50ed 12be 6279 cb3d
00000300: 667c 56bd e678 9c3d b2d4 cbbd b9f3 8b3d
00000310: d788 8bbd 1b55 f53d 261e 52bd 6796 01be
00000320: c337 96bd 49a9 a3bd a490 e3bd 643b c1bd
00000330: 2852 67bd 7893 f2bd 9e4f 28be 93a8 ab3d
00000340: 538c 9dbd 6c06 d83d b5a1 06be f74b 20be
00000350: 4c1b 0d3c a78f ebbd 2c81 bc3d 842b 173e
00000360: 451d 0a3e 2b86 21be ff4f 65bc c24e a73d
00000370: db24 debd ae53 e13d 23f9 58be 2d1d 2dbd
00000380: ac06 ed3d 06c5 e13d a64d 4fbd edda 55bd
00000390: 94ab 3cbf f1c9 48bd f398 aa3d 7cc9 2b3e
000003a0: cbe3 05bd dc37 5ebd 108a ca3c 72d7 67bd
000003b0: 08b7 f73c 7919 1c3c 52c3 a9bc 5ce7 87bd
000003c0: 78d9 0cbe c197 fcbc 2d5a f8bd fad4 febd
000003d0: bea7 33bd 93a8 9d3d 12e9 86bd e9d5 ccbd
000003e0: fb89 dc3d e339 51bd fd8b 9cbd b8ab f53d
000003f0: 9a89 153e 7ae1 a4bc 74ad 3b3e d486 d4bc

fc3.bias f4 [64]
-1.1945658 7.4253674 -0.37309897 -0.8517372 -0.4550309 -0.50995415 -0.87104774 -2.5487034
-0.5230709 -0.40308055 -0.6628648 -0.44491565 -0.5510598 -0.90220475 -0.43370965 -1.2381388
-0.6661162 -0.3915997 -1.7452621 -0.27668083 -0.8188295 -0.9612606 -1.5270183 -0.76415354
-0.36111173 -0.34643608 -0.6837384 -0.78352106 -0.43897694 -0.28123844 -0.55830646 -0.57221496
-1.1111473 -0.8005792 -0.525501 -0.7492642 -1.8720847 -2.1799703 -0.7314376 -0.4522511
-0.6698129 -0.71766436 -0.60265553 -1.3761913 -0.33791307 -0.51725614 -0.60040337 -0.5997689
0.44797885 -0.5297652 -4.4608984 -0.97369456 -0.78815174 -0.85929257 -0.8224185 -0.4287827
-5.0595994 -0.8735444 -0.1892459 -0.6620684 -0.5711992 -0.7139128 -0.535944 -0.5219079
00000000: 88e7 98bf 9c9c ed40 d406 bfbe 730b 5abf
00000010: cff9 e8be 5b8c 02bf fcfc 5ebf f51d 23c0
00000020: f9e7 05bf 9360 cebe 82b1 29bf fccb e3be
00000030: 4112 0dbf e4f6 66bf 310f debe 557b 9ebf
00000040: 9786 2abf c27f c8be c064 dfbf 1ca9 8dbe
00000050: cf9e 51bf 2d15 76bf 5675 c3bf 919f 43bf
00000060: a3e3 b8be 1260 b1be 7b09 2fbf d694 48bf
00000070: 96c1 e0be 7cfe 8fbe 2ced 0ebf ae7c 12bf
00000080: 133a 8ebf c2f2 4cbf 3c87 06bf c7cf 3fbf
00000090: 79a0 efbf a284 0bc0 7f3f 3bbf 758d e7be
000000a0: dc78 2bbf dab8 37bf a247 1abf 0927 b0bf
000000b0: f102 adbe e66a 04bf 09b4 19bf 748a 19bf
000000c0: 7c5d e53e b19e 07bf aebf 8ec0 0c44 79bf
000000d0: 50c4 49bf 99fa 5bbf 058a 52bf 6889 dbbe
000000e0: 3de8 a1c0 9ba0 5fbf adc9 41be 517d 29bf
000000f0: 1c3a 12bf fdc2 36bf a033 09bf c29b 05bf

fc4.weight f4 [1, 64]
-0.00085389544 0.04601979 -0.0146813 -0.031050393 0.05642741 0.0043784166 0.011284562 -0.014026772
0.027575161 0.015502059 0.0066248453 -0.022632329 0.015658759 -0.02906977 -0.016365174 -0.005311598
-0.013964453 0.030116664 -0.019214138 0.015073263 -0.030466713 -0.035681553 0.023907958 0.0128167225
-0.028105814 0.018662862 0.014166464 0.010772113 -0.0028766287 -0.0058014723 -0.01027058 0.0052388767
-0.003349217 0.015109458 -0.007813346 0.010781375 0.0025679502 0.0066084433 0.014783088 -0.0057999124
-0.024022877 0.029439641 -0.026745811 0.0051265354 -0.001200928 -0.0011592864 -0.01960599 -0.025189789
0.010248735 0.006334054 0.002401389 0.0018345978 -0.016077697 0.0037828693 -0.0007554664 0.0122184055
-0.014217659 -0.015931956 0.022420209 0.013458657 0.024826748 0.025736632 -0.027450955 -0.025980711
00000000: f4d7 5fba 3f7f 3c3d d689 70bc 655d febc
00000010: 6e20 673d d278 8f3b e2e2 383c 8cd0 65bc
00000020: 4ee5 e13c 59fc 7d3c 3b15 d93b 6f67 b9bc
00000030: cc46 803c ba23 eebc 4210 86bc ea0c aebb
00000040: 29cb 64bc 39b7 f63c f866 9dbc d9f5 763c
00000050: 5495 f9bc d226 12bd 9fda c33c 3bfd 513c
00000060: 2a3e e6bc dce2 983c 751a 683c 847d 303c
00000070: d285 3cbb 471a bebb ef45 28bc e2aa ab3b
00000080: 897e 5bbb a98d 773c 8c03 00bc 5da4 303c
00000090: 0e4b 283b a48b d83b c434 723c 310d bebb
000000a0: a0cb c4bc 672b f13c 081a dbbc 7ffc a73b
000000b0: 7568 9dba 32f3 97ba be9c a0bc d15a cebc
000000c0: 4fea 273c e58d cf3b 9f60 1d3b e376 f03a
000000d0: 60b5 83bc 04ea 773b 7e0a 46ba b52f 483c
000000e0: 2ff1 68bc bc83 82bc 96aa b73c b381 5c3c
000000f0: 7761 cb3c a1d5 d23c d3e0 e0bc 80d5 d4bc
