p2_continuous-control/checkpoint_critic.pth (torch, 203983 bytes, 7 tensors)

fcs1.weight f4 [256, 33]
0.5137769 0.25972137 -0.1766163 -2.2435248 0.86881846 0.7969284 -0.63801473 0.29599312
1.6145612 -0.10779583 0.516125 0.018359091 -0.62778026 -0.24460374 0.5971291 -0.79559094
0.0036804217 -0.8475608 -0.5688495 -0.16432723 -0.0014801959 -0.19977055 0.09477757 -0.5533693
-0.07817224 -0.39831933 0.6638271 2.1992323 0.2065694 0.0023045167 -2.230334 0.036613263
-9.99224 -0.08047719 0.36483935 0.7123675 1.6231025 0.24515563 0.36371815 1.3387917
-0.13206692 -0.88498104 1.8344985 -0.5778608 -0.80782396 0.24240842 0.3555454 -0.0015618408
-0.013644141 0.15217455 -0.29556465 -0.56407785 -0.7687039 1.5330487 -0.22179593 0.37308615
-0.34477976 0.45636442 0.12809063 -0.7316114 1.4643095 0.15002689 0.061692365 -1.4784987
-0.040808693 2.3359642 0.86165154 -0.8125969 -0.82987046 -0.5772008 0.2744416 0.22984971
-1.9039869 0.30777004 0.20443757 0.7963595 0.106269844 0.48185298 0.7441427 -0.67972386
0.5692126 0.42827576 -0.50466716 0.4995356 -0.70286024 -0.46020052 -0.33194125 0.5016772
-0.26630914 0.40717146 -0.23144923 -0.6736154 0.54862225 0.44787788 0.39697003 0.03886617
-0.44435966 0.05286929 -3.852854 -0.106366776 -0.42601937 0.9031714 2.5258129 0.11295853
0.60621196 1.4540126 -0.13725895 -0.18806557 -1.5901164 -0.022072982 -0.3974081 0.3355388
0.46625045 0.31017014 -1.1358893 -0.92919856 -0.84967476 1.6337643 0.9742162 -0.09352212
0.019868864 0.17871837 -0.13428871 -0.46852088 -0.56520313 -0.68956923 1.662272 0.82596105
0.028326064 -1.6677566 0.01765427 -1.7538251 -0.28358325 -0.10933408 0.09302021 -1.1415603
-0.8430134 -2.20499 -0.008604661 -0.0026639712 -0.37407294 0.029018313 -0.09351067 0.07920677
-0.037146397 0.19951063 -0.14146465 0.06604445 -0.52242994 -0.5135625 -0.09840298 -0.36396387
0.0046692872 -0.0562823 0.006341718 -0.046244618 -0.109194286 -0.018899176 -0.28645772 1.582049
-0.4137101 0.013867661 -1.5882059 -0.032650463 -15.867737 -1.2341641 -0.99213564 0.36325008
0.37714595 -0.20743677 0.9747752 1.2809783 -0.6083407 0.29300058 -0.78237367 -0.9375036
-0.52008337 0.17832556 0.3010362 1.3347216 -0.41419545 -1.2816688 -1.3744283 -1.6885566
1.2630446 -0.32667908 -0.16223536 -1.2154979 0.5016965 0.7340309 0.104563124 -0.008444857
1.6662802 0.7375704 0.014501497 -1.6490573 0.002542086 0.7482312 -0.12654436 -0.28569597
1.3684196 0.61446893 0.10416383 1.2962412 -0.7965959 -0.07991478 -0.62077427 1.7509704
0.042247396 0.6869683 -0.073837675 -0.4012487 1.4851141 -1.8437086 -0.96287465 0.9021081
-1.1581719 -0.35152665 -0.070504464 0.04823299 0.006409237 -0.13765186 0.89409673 -0.21640317
-0.16331305 1.7395438 1.4052137 0.030027606 -1.7848676 0.054102562 3.9130676 0.79670495
0.47463128 1.6405157 1.5782975 -3.3204784 -4.755454 -3.796115 0.018979754 1.0029097
0.5979477 0.7502569 0.040350977 0.65696657 -1.1061755 0.43928564 -0.9391006 0.67350394
-0.45843843 -1.3877989 -0.30325687 -0.014465644 0.034787778 -0.04649206 -0.059378054 -0.14177711
00000000: e286 033f 33fa 843e e7da 34be e995 0fc0
00000010: e36a 5e3f 8003 4c3f ef54 23bf 698c 973e
00000020: f1a9 ce3f 0fc4 dcbd c520 043f ce65 963c
00000030: 35b6 20bf 6779 7abe 74dd 183f d9ab 4bbf
00000040: 3b33 713b bff9 58bf 1fa0 11bf 6645 28be
00000050: 2203 c2ba a790 4cbe be1a c23d 9ca9 0dbf
00000060: c418 a0bd 83f0 cbbe 93f0 293f 39c0 0c40
00000070: ee86 533e 6007 173b cbbd 0ec0 caf7 153d
00000080: 37e0 1fc1 3ad1 a4bd 39cc ba3e b75d 363f
00000090: d3c1 cf3f 140a 7b3e 4439 ba3e 875d ab3f
000000a0: 8d3c 07be 1e8e 62bf d9d0 ea3f afee 13bf
000000b0: 8dcd 4ebf ea39 783e 0c0a b63e aeb6 ccba
000000c0: ad8b 5fbc a5d3 1b3e 4054 97be 6867 10bf
000000d0: c7c9 44bf f13a c43f 791e 63be 2605 bf3e
000000e0: f986 b0be 99a8 e93e 312a 033e e24a 3bbf
000000f0: 7e6e bb3f a6a0 193e 22b1 7c3d 723f bdbf
00000100: 0427 27bd 7080 1540 3295 5c3f 5a06 50bf
00000110: 6472 54bf 6ec3 13bf 9c83 8c3e b95d 6b3e
00000120: d8b5 f3bf 0994 9d3e 1558 513e 37de 4b3f
00000130: 01a4 d93d 6fb5 f63e 2380 3e3f 6202 2ebf
00000140: ebb7 113f f646 db3e de31 01bf 21c3 ff3e
00000150: a6ee 33bf 679f ebbe 34f4 a9be eb6d 003f
00000160: ac59 88be c778 d03e 0701 6dbe 0f72 2cbf
00000170: 8272 0c3f 4050 e53e a83f cb3e 2232 1f3d
00000180: 1c83 e3be 788d 583d 2995 76c0 d3d6 d9bd
00000190: 361f dabe 3e36 673f eba6 2140 cd56 e73d
000001a0: b530 1b3f 161d ba3f 9c8d 0cbe 4394 40be
000001b0: ef88 cbbf 66d2 b4bc 1379 cbbe becb ab3e
000001c0: 61b8 ee3e 9fce 9e3e d264 91bf f5df 6dbf
000001d0: 4984 59bf 301f d13f 3c66 793f 8688 bfbd
000001e0: 07c4 a23c f301 373e fb82 09be f8e1 efbe
000001f0: 27b1 10bf 9c87 30bf 54c5 d43f 2f72 533f
00000200: 100c e83c 0c79 d5bf b09f 903c 577d e0bf
00000210: d331 91be 8cea dfbd 6181 be3d a61e 92bf
00000220: bacf 57bf 8e1e 0dc0 90fa 0cbc 0596 2ebb
00000230: 7d86 bfbe d0b7 ed3c 8682 bfbd 2937 a23d
00000240: d226 18bd 844c 4c3e 1cdc 10be 5042 873d
00000250: f8bd 05bf d578 03bf 8087 c9bd 7959 babe
00000260: d200 993b 4588 66bd 30ce cf3b ff6a 3dbd
00000270: 41a1 dfbd 72d2 9abc 96aa 92be 9580 ca3f
00000280: cfd1 d3be 3035 633c 554a cbbf 7ebc 05bd
00000290: 40e2 7dc1 17f9 9dbf 9afc 7dbf eafb b93e
000002a0: 4619 c13e 4e6a 54be de8a 793f 19f7 a33f
000002b0: 37bc 1bbf 2c04 963e a449 48bf 3c00 70bf
000002c0: 2f24 05bf fa9a 363e 6b21 9a3e 28d8 aa3f
000002d0: 6d11 d4be b90d a4bf 44ed afbf 9f22 d8bf
000002e0: 72ab a13f 7b42 a7be 0721 26be 6f95 9bbf
000002f0: 2f6f 003f 73e9 3b3f 3125 d63d 4c5c 0abc
00000300: ab48 d53f 6ad1 3c3f b097 6d3c 4f14 d3bf
00000310: 2099 263b 148c 3f3f d894 01be be46 92be
00000320: 6028 af3f d64d 1d3f d953 d53d 3beb a53f
00000330: b5ed 4bbf 5caa a3bd 10eb 1ebf cc1f e03f
00000340: 9b0b 2d3d 28dd 2f3f 3538 97bd 7870 cdbe
00000350: 3818 be3f a5fe ebbf f47e 76bf 8ef0 663f
00000360: fa3e 94bf 4dfb b3be a564 90bd f58f 453d
00000370: 9404 d23b 9cf4 0cbe 86e3 643f cb98 5dbe
00000380: 893b 27be 5fa9 de3f 0bde b33f 74fc f53c
00000390: 8b76 e4bf a69a 5d3d b36f 7a40 dbf4 4b3f
000003a0: df02 f33e 6bfc d13f a705 ca3f b882 54c0
000003b0: ae2c 98c0 8cf3 72c0 6e7b 9b3c 585f 803f
000003c0: 1a13 193f d610 403f 1147 253d f62e 283f
000003d0: 2997 8dbf 0cea e03e e668 70bf c16a 2c3f
000003e0: 71b8 eabe 65a3 b1bf 7c44 9bbe 4f01 6dbc
000003f0: a17d 0e3d 756e 3ebd 6736 73bd 052e 11be

fcs1.bias f4 [256]
-2.2788503 -1.6060845 -0.3071305 -1.7099682 -1.5441382 -1.6291819 -1.9096367 -1.2171334
-2.590908 -2.070113 -2.9207337 -0.7108058 -0.6429302 -1.4710933 -1.8726574 -1.87737
-1.4363207 -2.6105764 -1.3059559 -1.8862262 -1.642083 -2.0821712 -3.165115 -1.1884923
-2.604175 -1.3203154 -1.5192014 -0.6808417 -2.8348973 -1.9226451 -0.3573667 -1.5460432
-0.3948833 -4.113592 -2.0191755 -2.082773 -1.8964229 -1.8282158 -2.2050736 -1.9396302
-0.7738315 -2.359083 -0.22165096 -1.5778035 -3.0281672 -1.5821975 0.65432 -1.7851032
-1.1610395 -2.7762094 -2.8970077 -2.6953878 -2.2112365 -2.7813692 -1.867773 -0.2111714
-2.3199904 -1.5915737 -2.3380842 -0.28446418 -1.5688196 -2.442885 -3.2576199 -1.852546
-2.5576513 -3.1913435 -0.36220255 -1.9656129 -2.156467 -2.9957118 -1.7342646 -3.083676
-2.9227977 -1.6697934 -1.4995959 -2.3905177 -2.373907 -2.2750108 -0.6168805 -2.9269545
-0.08163487 -3.237266 -0.64879495 -0.4213465 -2.088309 0.3092981 -3.1270025 -2.2348886
-2.1437056 -2.3085923 -2.3724637 -2.9044218 -1.7180501 -1.2688491 -2.9157248 -2.2701852
-1.7695335 -2.6926577 -2.415277 -2.7213883 -3.6170442 -1.8368208 -3.2309906 -1.72496
-2.8618016 -2.2773955 -2.654764 -1.4874407 -1.569411 -2.975038 -1.8275793 -1.3653259
-3.5774925 -2.3406405 -3.207906 -1.9646739 -2.2835693 -2.6180313 -2.8739388 -4.5279527
-2.793198 -0.7390564 -2.2650409 -2.2894402 -1.6529408 -1.7992817 -1.2072526 -2.4224308
-2.290451 -1.392088 -3.6046875 -1.7695822 -1.428488 -1.0481787 -1.996251 -1.908575
-1.4390548 -1.3081783 -1.6108172 -0.5563926 -1.638334 -0.113263585 -1.8765447 -3.8879585
-3.3646994 -2.3522525 -0.9663717 -1.1493244 -1.0283188 -1.2717792 -1.580693 -1.6978583
-0.9017526 -1.3919746 -2.7962615 -2.5663245 -1.484327 -3.5656621 -1.5688404 -3.7834575
-2.671545 -2.8197994 -1.5587325 -1.5927063 -1.374103 -2.8835711 -1.1215119 -2.2956083
-1.4083817 -1.2718712 -2.0152984 -0.8669287 -2.7375617 0.8352136 -0.66281855 -0.9353083
-2.5259824 -1.3831154 -2.2263794 -1.9582314 -0.7101624 -3.131661 -0.88438016 -1.6856643
1.3508857 0.88585657 -1.9139972 -1.4148508 -3.3174083 -0.46030617 -1.1269714 -1.3273956
-2.6636038 -2.5180116 -1.8360081 -2.5851367 -2.3085163 -0.77188104 -1.772632 0.23857866
-1.7387092 -1.0819585 -2.2686725 -2.473187 -3.4127398 -2.1865675 -1.0672997 -1.4330053
-2.753186 -1.3282179 -2.329573 -1.975427 -2.3002784 -1.3083943 -2.6209598 -2.5424562
-1.8920461 -2.240456 -0.5541014 0.64237094 -3.4239793 -1.8565009 -0.052352127 -2.0672305
-1.4660087 -1.9319162 -1.1993918 -2.6614 -1.456897 -1.2110231 -2.3350484 -3.2860794
-1.8563752 -0.49831462 -1.4390256 -2.6138413 -2.2936664 -2.6099396 -2.237532 -2.9996512
-0.96920466 -2.9042737 -0.9337705 -2.9813445 -2.3670208 -1.2280989 -1.5125742 -1.9747828
-0.76021546 -2.65445 -1.1527265 -2.2167282 -2.318895 -0.4557345 -2.314458 -2.7823296
00000000: afd8 11c0 2d94 cdbf 3540 9dbe 3de0 dabf
00000010: 52a6 c5bf 0889 d0bf fa6e f4bf 07cb 9bbf
00000020: 70d1 25c0 bb7c 04c0 4ded 3ac0 5ef7 35bf
00000030: 1397 24bf c94c bcbf 3db3 efbf a94d f0bf
00000040: 5bd9 b7bf af13 27c0 9029 a7bf dc6f f1bf
00000050: c72f d2bf 4b42 05c0 3f91 4ac0 8420 98bf
00000060: ceaa 26c0 1800 a9bf 3175 c2bf a44b 2ebf
00000070: f56e 35c0 3c19 f6bf c5f8 b6be bee4 c5bf
00000080: 252e cabe 8ca2 83c0 2c3a 01c0 274c 05c0
00000090: fcbd f2bf fa02 eabf ed1f 0dc0 cd45 f8bf
000000a0: d219 46bf 37fb 16c0 78f8 62be 77f5 c9bf
000000b0: 7ecd 41c0 7385 cabf 8481 273f 437e e4bf
000000c0: f19c 94bf 6aad 31c0 9368 39c0 3c81 2cc0
000000d0: e684 0dc0 f401 32c0 3013 efbf 513d 58be
000000e0: b97a 14c0 b0b8 cbbf 2ca3 15c0 4aa5 91be
000000f0: 15cf c8bf 3a58 1cc0 d87c 50c0 3a20 edbf
00000100: 8fb0 23c0 f93e 4cc0 9d72 b9be 3499 fbbf
00000110: 8e03 0ac0 beb9 3fc0 62fc ddbf f35a 45c0
00000120: 1e0f 3bc0 cabb d5bf c2f2 bfbf 3efe 18c0
00000130: 18ee 17c0 c799 11c0 e1eb 1dbf 3953 3bc0
00000140: 2f30 a7bd 5e2f 4fc0 6d17 26bf baba d7be
00000150: dba6 05c0 525c 9e3e cf20 48c0 6a08 0fc0
00000160: 7932 09c0 fabf 13c0 72d6 17c0 0ce2 39c0
00000170: 11e9 dbbf a669 a2bf 3c9b 3ac0 b74a 11c0
00000180: 1380 e2bf 8154 2cc0 e693 1ac0 3a2b 2ec0
00000190: a77d 67c0 f21c ebbf 8dc8 4ec0 7dcb dcbf
000001a0: c227 37c0 d9c0 11c0 a7e7 29c0 7564 bebf
000001b0: 76e2 c8bf 0667 3ec0 1eee e9bf 00c3 aebf
000001c0: a3f5 64c0 0ecd 15c0 554e 4dc0 6f7a fbbf
000001d0: 0026 12c0 d38d 27c0 9dee 37c0 fde4 90c0
000001e0: c2c3 32c0 cd32 3dbf 6ef6 10c0 3086 12c0
000001f0: 9093 d3bf dd4e e6bf 4187 9abf 1b09 1bc0
00000200: c096 12c0 f12f b2bf 33b3 66c0 ab81 e2bf
00000210: b2d8 b6bf b82a 86bf 2785 ffbf 304c f4bf
00000220: f332 b8bf 6372 a7bf 422f cebf bf6f 0ebf
00000230: eeb4 d1bf bdf6 e7bd 9e32 f0bf 50d4 78c0
00000240: 3c57 57c0 4e8b 16c0 2364 77bf 101d 93bf
00000250: f39f 83bf a9c9 a2bf 2654 cabf 6c53 d9bf
00000260: 42d9 66bf 392c b2bf f3f5 32c0 a93e 24c0
00000270: 6dfe bdbf cf33 64c0 c3cf c8bf 2b24 72c0
00000280: 98fa 2ac0 9877 34c0 8c84 c7bf cddd cbbf
00000290: 9be2 afbf 6e8c 38c0 b48d 8fbf 3feb 12c0
000002a0: da45 b4bf adcc a2bf a6fa 00c0 0aef 5dbf
000002b0: 3634 2fc0 8fd0 553f 7aae 29bf 5d70 6fbf
000002c0: b2a9 21c0 ed09 b1bf 007d 0ec0 54a7 fabf
000002d0: 34cd 35bf 226d 48c0 bd66 62bf d9c3 d7bf
000002e0: d3e9 ac3f 7fc7 623f dcfd f4bf d519 b5bf
000002f0: 6b50 54c0 40ad ebbe 9940 90bf 19e8 a9bf
00000300: 7c78 2ac0 1a27 21c0 5002 ebbf e172 25c0
00000310: bbbe 13c0 ff99 45bf 9be5 e2bf f74d 743e
00000320: 068e debf 9e7d 8abf ee31 11c0 b248 1ec0
00000330: 546a 5ac0 b9f0 0bc0 479d 88bf b86c b7bf
00000340: 3334 30c0 0b03 aabf b917 15c0 cbda fcbf
00000350: c337 13c0 7779 a7bf cebd 27c0 9ab7 22c0
00000360: 912e f2bf a263 0fc0 97d9 0dbf 6c72 243f
00000370: 7a22 5bc0 d2a1 edbf 2f6f 56bd 814d 04c0
00000380: 2ca6 bbbf 0849 f7bf ac85 99bf 6154 2ac0
00000390: 9a7b babf ce02 9bbf 6f71 15c0 204f 52c0
000003a0: b49d edbf 1823 ffbe fe31 b8bf 2d49 27c0
000003b0: 6ecb 12c0 4009 27c0 b933 0fc0 49fa 3fc0
000003c0: cc1d 78bf 9fdf 39c0 950b 6fbf 59ce 3ec0
000003d0: 457d 17c0 5832 9dbf 089c c1bf afc5 fcbf
000003e0: 7b9d 42bf 82e2 29c0 8b8c 93bf e0de 0dc0
000003f0: c768 14c0 0856 e9be 1420 14c0 b011 32c0

fc2.weight f4 [128, 260]
-0.052516524 -0.018825555 -0.032247376 -0.07075687 -0.007075287 -0.105967306 0.03795331 -0.031621892
-0.014966383 -0.0050947345 -0.009304382 -0.04200097 -0.095582485 -0.010049783 -0.041796234 0.030678682
-0.092691936 -0.0475459 -0.014125336 -0.1090367 -0.06242927 -0.07903907 -0.07388059 -0.069103025
0.042927977 -0.00071743265 -0.013606166 -0.03381027 -0.076336004 -0.061755724 -0.08619174 -0.027071072
-0.069450036 -0.06695851 -0.12008156 0.03851517 0.011771511 -0.074173525 0.00968062 0.0714367
0.03513958 -0.026727056 -0.13724539 -0.06516006 0.053530592 -0.03887054 -0.07814905 -0.045062736
-0.03831759 0.029976714 -0.05371935 -0.10679002 -0.024089867 -0.0012117289 -0.10608365 0.0245552
-0.060005464 -0.08633797 -0.03508087 -0.09616713 -0.11461677 -0.057761606 0.009555196 -0.10056625
-0.037691567 -0.07742652 -0.011957983 -0.08823652 -0.090140514 -0.09551848 -0.034232836 -0.1232716
-0.056492604 -0.012720281 -0.03821354 -0.028613823 -0.11411328 0.034854747 -0.16184548 -0.060866952
-0.05003284 -0.062344544 -0.080032066 -0.06956069 -0.011615839 -0.0059736865 0.021837847 -0.113190144
-0.09766657 0.042908 -0.020622162 -0.10375161 -0.12529244 0.060922343 0.010512892 -0.0422179
0.05778711 -0.010211932 -0.11345822 -0.0322157 -0.0810018 -0.08297345 -0.053930204 0.043456748
0.006116604 -0.07724959 -0.07374969 -0.1343268 0.029082095 0.029992908 -0.008555831 -0.094088964
-0.042122513 -0.028267782 -0.013389318 -0.10275957 0.0543327 0.018323805 -0.010315087 -0.054780643
0.008455517 -0.0073697236 -0.07259506 -0.025162315 -0.14380927 0.029254925 0.04945985 -0.04461876
0.008723043 -0.066216215 -0.033186376 -0.059919555 -0.048207 -0.028453378 0.05288369 -0.09168038
-0.039816596 -0.06734956 -0.11138291 -0.08568532 0.050908282 -0.12513226 -0.11190593 -0.113273956
-0.092998974 -0.0503937 -0.06628653 -0.03258789 -0.13332523 -0.0865171 -0.088743836 -0.09368308
-0.06308055 -0.0307141 -0.027231053 0.0023949037 -0.09837298 -0.05334967 0.034556355 -0.0071149734
-0.05052012 -0.078991525 -0.0440764 -0.030532617 -0.105985865 -0.10903307 -0.052883975 0.022509655
0.053471662 -0.08352356 -0.088106886 -0.114689305 -0.0013880787 -0.027814617 -0.049687393 -0.08326623
-0.08299559 -0.032050747 -0.052649967 -0.0051698633 -0.06252451 -0.013690474 0.062963136 0.0030513527
0.011143462 -0.12694298 -0.14152467 0.015591035 -0.032543354 0.042442095 -0.049966145 -0.017344857
-0.017413508 0.08116999 -0.0448835 -0.11013912 -0.04182543 -0.016484983 0.01947695 -0.08021865
-0.013853192 -0.09595072 0.028257105 -0.09569819 0.046784524 -0.014375747 0.029490659 -0.07685631
-0.124584064 -0.0043223645 -0.022039376 0.017306637 -0.11572449 -0.049443312 -0.0019337907 0.029872593
0.024047725 -0.10070376 -0.019694118 -0.10323258 0.0048648617 0.008333853 -0.021627966 0.050254468
0.013394385 -0.12867005 -0.032634914 0.009278087 -0.026773373 0.024643466 -0.0981254 0.05731871
0.0070904316 -0.04241412 -0.11235816 -0.022876533 -0.111287214 0.029136326 0.009187465 -0.042823512
-0.12053014 -0.004114654 -0.09263595 -0.12450119 -0.03226486 -0.0054752277 -0.041115895 -0.04837626
-0.0023813322 0.026423285 -0.07614071 -0.09306878 -0.0734993 -0.0019294352 -0.04790629 -0.09631063
00000000: 911b 57bd 0d38 9abc d315 04bd fae8 90bd
00000010: cfd7 e7bb 6305 d9bd ee74 1b3d f585 01bd
00000020: 8f35 75bc bbf1 a6bb 6871 18bc 3609 2cbd
00000030: c0c0 c3bd d8a7 24bc 8732 2bbd dc51 fb3c
00000040: 45d5 bdbd 7dbf 42bd f46d 67bc a24e dfbd
00000050: d6b5 7fbd 3cdf a1bd b54e 97bd e385 8dbd
00000060: 3fd5 2f3d 1712 3cba 65ec 5ebc a37c 0abd
00000070: 0d56 9cbd 92f3 7cbd 4c85 b0bd 27c4 ddbc
00000080: d23b 8ebd 8b21 89bd 52ed f5bd 15c2 1d3d
00000090: 4cdd 403c 4ae8 97bd 779b 1e3c 684d 923d
000000a0: 85ee 0f3d b3f2 dabc 0e8a 0cbe a372 85bd
000000b0: e542 5b3d b736 1fbd 9c0c a0bd b493 38bd
000000c0: e8f2 1cbd ba91 f53c d208 5cbd bab4 dabd
000000d0: 1d58 c5bc e0d2 9eba 6242 d9bd fd27 c93c
000000e0: 4ac8 75bd f6d1 b0bd f5b0 0fbd 46f3 c4bd
000000f0: 32bc eabd 6f97 6cbd 668d 1c3c aef5 cdbd
00000100: 7962 1abd cc91 9ebd 6aeb 43bc 59b5 b4bd
00000110: 979b b8bd 319f c3bd bb37 0cbd d275 fcbd
00000120: ca64 67bd ba68 50bc cd85 1cbd 8967 eabc
00000130: 39b4 e9bd dac3 0e3d d2ba 25be a04f 79bd
00000140: 3cef 4cbd fe5c 7fbd dae7 a3bd d675 8ebd
00000150: 5c50 3ebc eabe c3bb 49e5 b23c 3cd0 e7bd
00000160: 6905 c8bd 4dc0 2f3d cfef a8bc b97b d4bd
00000170: a94c 00be b589 793d 443e 2c3c adec 2cbd
00000180: 2db2 6c3d f24f 27bc c95c e8bd 9cf4 03bd
00000190: 46e4 a5bd fced a9bd ebe5 5cbd b4ff 313d
000001a0: cb6d c83b 0835 9ebd 140a 97bd f78c 09be
000001b0: 933d ee3c b0b3 f53c c22d 0cbc b7b1 c0bd
000001c0: a888 2cbd d691 e7bc df5e 5bbc 9c73 d2bd
000001d0: f78b 5e3d ce1b 963c 9c00 29bc ab61 60bd
000001e0: 0289 0a3c b97d f1bb b8ac 94bd 3321 cebc
000001f0: bd42 13be 06a8 ef3c 6996 4a3d 29c2 36bd
00000200: 18eb 0e3c 5e9c 87bd 70ee 07bd 356e 75bd
00000210: b474 45bd 0f17 e9bc 919c 583d ecc2 bbbd
00000220: ba16 23bd 91ee 89bd b91c e4bd c97b afbd
00000230: 3485 503d ac22 00be f02e e5bd 2dfc e7bd
00000240: 3f76 bebd a069 4ebd 3bc1 87bd e17a 05bd
00000250: 6986 08be e12f b1bd 54bf b5bd eadc bfbd
00000260: 6030 81bd 239c fbbc a813 dfbc d1f3 1c3b
00000270: c677 c9bd 2f85 5abd f78a 0d3d b924 e9bb
00000280: 2fee 4ebd 4fc6 a1bd 7589 34bd 8a1f fabc
00000290: 1e0f d9bd bb4c dfbd de9c 58bd 2b66 b83c
000002a0: 1a05 5b3d 660e abbd 6271 b4bd 3ae2 eabd
000002b0: 31f0 b5ba 7bdb e3bc 0285 4bbd 7c87 aabd
000002c0: 98f9 a9bd a547 03bd 7ea7 57bd f567 a9bb
000002d0: da0c 80bd 034e 60bc d1f2 803d 34f9 473b
000002e0: 1193 363c 57fd 01be d8eb 10be 8a71 7f3c
000002f0: 2e4c 05bd c3d7 2d3d 4da9 4cbd cd16 8ebc
00000300: c6a6 8ebc 743c a63d c3d7 37bd 9e90 e1bd
00000310: 2451 2bbd 840b 87bc 208e 9f3c ad49 a4bd
00000320: 80f8 62bc d081 c4bd 727b e73c 6afd c3bd
00000330: 21a1 3f3d 4188 6bbc 6596 f13c d766 9dbd
00000340: ee25 ffbd 9fa2 8dbb ec8b b4bc a6c6 8d3c
00000350: f600 edbd 1285 4abd 4077 fdba 5eb7 f43c
00000360: bcff c43c c63d cebd 8f55 a1bc 9a6b d3bd
00000370: 6b69 9f3b b78a 083c 222d b1bc a1d7 4d3d
00000380: 1f74 5b3c 15c2 03be 30ac 05bd 1e03 183c
00000390: d553 dbbc 18e1 c93c f8f5 c8bd 06c7 6a3d
000003a0: da56 e83b 6eba 2dbd 091c e6bd 9167 bbbc
000003b0: 8dea e3bd 4eaf ee3c 0587 163c b567 2fbd
000003c0: 82d8 f6bd 38d4 86bb ebb7 bdbd 7bfa febd
000003d0: 2828 04bd 8a69 b3bb 2469 28bd 2f26 46bd
000003e0: 2010 1cbb a575 d83c a9ef 9bbd d89a bebd
000003f0: cd86 96bd 1ae5 fcba 6339 44bd 823e c5bd

fc2.bias f4 [128]
-0.08997557 3.9994855 -0.10466791 -0.60511094 -2.796212 -2.142527 5.680726 -0.11803105
3.5274382 1.7594258 3.7995489 6.0171747 2.7870765 -2.3862872 -1.4849331 0.9581866
-0.015094188 2.5570672 -1.7346311 3.333869 -1.8210421 2.4941866 2.2188227 -3.6409237
3.577029 2.972652 -0.8102374 -3.013419 -3.4410963 -2.4217749 1.4656792 5.2168274
0.4850401 -0.15600544 4.318675 1.446832 5.3075314 -0.09021465 2.224462 -2.2627902
-2.4904037 3.1630917 -1.3744572 -6.371378 0.013909351 2.3891103 -3.3588316 -1.5133137
-1.474962 -2.02464 -2.1047945 -3.0450506 -0.14190543 -1.1686832 2.1524997 2.6297357
-1.6818652 3.0334644 -2.4711986 -0.84773004 2.4090323 -1.3116969 -3.3424954 -0.54119736
2.8101485 2.7685156 4.3116813 -2.634601 -3.8461823 -0.1594958 3.002557 -2.7257292
0.7602428 -1.2549218 3.0242403 -1.9745559 -0.039074704 -2.6667943 -2.6961298 -0.19971098
-0.08633837 -1.4576626 2.8946826 3.5717957 -1.8856614 5.820847 -0.04313256 -1.3149977
1.9258301 -0.94653237 -0.85482025 -0.08765216 -4.3330355 -3.2310746 -0.17974502 0.1898401
-4.2263436 -0.12955616 2.267218 -3.8962874 -0.12863699 2.3644853 2.9860265 -0.0874841
3.4682686 -3.4045558 -5.4673014 -3.9178169 -0.9542498 -4.1484838 -2.5973005 -0.11049547
-1.997271 -0.04852726 -1.912687 -4.3908987 -2.9014208 4.332736 3.6595604 -1.5249673
2.8773718 2.9592495 5.9908376 1.6899769 -2.6945066 4.32702 3.6264808 -1.291759
00000000: 1d45 b8bd 92f7 7f40 215c d6bd 8de8 1abf
00000010: 23f5 32c0 2a1f 09c0 82c8 b540 43ba f1bd
00000020: 8cc1 6140 dd34 e13f cf2b 7340 b28c c040
00000030: 765f 3240 eeb8 18c0 4a12 bebf b84b 753f
00000040: 9d4d 77bc fda6 2340 6408 debf 1c5e 5540
00000050: e817 e9bf c1a0 1f40 3101 0e40 e504 69c0
00000060: 0bee 6440 ee3f 3e40 b86b 4fbf dbdb 40c0
00000070: ec3a 5cc0 5cfe 1ac0 609b bb3f 40f0 a640
00000080: 2d57 f83e e4bf 1fbe 9632 8a40 ca31 b93f
00000090: 4cd7 a940 75c2 b8bd 965d 0e40 8ed1 10c0
000000a0: c662 1fc0 1870 4a40 37ee afbf 54e2 cbc0
000000b0: 0ce4 633c 2fe7 1840 19f7 56c0 43b4 c1bf
000000c0: 8ecb bcbf b493 01c0 f4b4 06c0 1ce2 42c0
000000d0: a84f 11be 6997 95bf 8ec2 0940 974d 2840
000000e0: 5c47 d7bf 4824 4240 1e28 1ec0 d604 59bf
000000f0: 962d 1a40 afe5 a7bf 72eb 55c0 e98b 0abf
00000100: 79d9 3340 5c2f 3140 4bf9 8940 4e9d 28c0
00000110: da27 76c0 de52 23be e529 4040 5972 2ec0
00000120: 469f 423f 47a1 a0bf 278d 4140 3fbe fcbf
00000130: cc0c 20bd c2ac 2ac0 648d 2cc0 0981 4cbe
00000140: 2cd2 b0bd b094 babf 7b42 3940 4d98 6440
00000150: 5a5d f1bf 6144 ba40 c4ab 30bd d851 a8bf
00000160: 9a81 f63f f24f 72bf 80d5 5abf fa82 b3bd
00000170: 3aa8 8ac0 edc9 4ec0 140f 38be 7165 423e
00000180: 353e 87c0 5faa 04be 1a1a 1140 c65c 79c0
00000190: 6ab9 03be ba53 1740 0f1b 3f40 dd2a b3bd
000001a0: 1df8 5d40 3ee4 59c0 22f4 aec0 83bd 7ac0
000001b0: b749 74bf 61c0 84c0 2c3a 26c0 734b e2bd
000001c0: 93a6 ffbf 85c4 46bd edd2 f4bf 3e82 8cc0
000001d0: e1b0 39c0 c6a5 8a40 3d36 6a40 2132 c3bf
000001e0: dc26 3840 5864 3d40 f1b4 bf40 2a51 d83f
000001f0: cc72 2cc0 f376 8a40 4318 6840 5c58 a5bf

fc3.weight f4 [64, 128]
-0.0025381295 -0.2517903 -0.036290642 -0.13381083 -0.24193871 -0.055606265 -0.13294688 0.10455109
-0.16013242 -0.108558506 -0.17681707 -0.33131143 -0.10850056 0.008136681 -0.050744265 -0.07144593
-0.055731412 -0.06252422 -0.056115087 -0.09591627 -0.021288909 -0.080895066 -0.12615277 -0.08882764
-0.084406905 0.071390145 -0.064467914 -0.03535197 -0.22034797 -0.10462837 0.06911762 -0.10860348
0.0792532 0.05327031 -0.16519596 0.023309126 -0.12669952 -0.01904605 -0.101146296 -0.13986124
0.15446529 -0.22502676 -0.0741809 -0.32635945 -0.13820586 -0.15149294 -0.117296286 -0.26659378
-0.15239827 -0.067515 -0.118544236 -0.15852623 -0.035752743 -0.11127272 -0.045714665 -0.21786177
-0.13278235 -0.040652804 -0.20881745 -0.18507743 -0.0018501857 -0.13176824 -0.17471251 -0.07259766
-0.046982173 -0.2703189 -0.11953155 -0.12521327 -0.32831863 -0.12575075 -0.20918965 0.06781032
0.024253085 -0.31022134 0.013239556 -0.35998654 -0.0815153 0.00422764 -0.28536054 0.093244635
0.06680073 -0.044040974 -0.18298861 -0.07213168 -0.21627937 -0.21554054 0.072813734 -0.0918366
-0.16035429 0.007497049 -0.099915974 0.1386801 -0.14341255 -0.0914967 -0.011210933 -0.20340003
0.013590761 0.062292494 -0.05582126 -0.17412141 -0.061672747 -0.0721921 -0.2215414 0.09327294
-0.2534364 -0.28772002 -0.10456722 -0.092244506 -0.049550816 -0.20500071 -0.0725012 0.06421527
-0.032985024 -0.11405523 -0.2273501 -0.015072405 -0.15701692 -0.008858716 -0.045573536 -0.012271949
-0.17077343 -0.057848345 -0.2115075 0.09513069 -0.11470623 -0.0049022897 -0.22671293 -0.09394509
-0.058407456 -0.36114407 0.0048251194 -0.18105084 -0.6468009 -0.26851535 -0.3916463 0.062047865
0.0030818766 -0.3013668 -0.44160327 -0.42972136 -0.41408214 -0.120603874 -0.11058414 -0.19213821
-0.124116264 0.21924712 -0.10162112 -0.25382003 -0.74675703 -0.24028724 0.19314492 -0.41839048
-0.7397062 -0.023184739 -0.0986784 0.03866651 -0.2328684 -0.37824395 -0.118949726 -0.7487928
0.022380888 0.07659293 -0.20062871 -0.05555599 -0.65382135 0.04690387 -0.3848426 -0.75858015
0.063916825 -0.056760173 0.055509374 -0.8979231 -0.054150082 -0.28927505 -0.9008966 -0.5025317
0.4004951 0.2784589 -0.25729164 -0.51347923 0.020812944 -0.53178036 -0.0014221005 0.16771923
-0.64438933 -0.053814825 -0.43967363 -0.41502413 -0.435868 -0.21946724 0.084769435 -0.28058815
-0.79422843 -0.53728783 -0.058923967 0.012498431 -0.93882376 0.037383266 -0.671229 -0.0055547804
-0.09421542 -0.2573258 -0.25026047 -0.7572193 -0.031498577 -0.595688 -0.09657372 0.009539018
-0.039444476 0.091868624 -0.22914177 -0.28950068 -0.8579388 -0.66367686 0.079824835 -0.35535127
-0.0018669935 -0.17779733 -0.050003037 0.006444541 -0.9516887 -0.7672571 -0.053439252 -0.8251702
-0.27768764 0.091155216 0.17887351 -0.5932 -0.062165614 -0.12003783 -0.16004197 -0.11760509
-0.20340186 -0.7712916 -1.0868207 -0.22565708 -0.1516735 -0.21856676 -0.72276306 -0.06153269
-0.18776809 0.021442384 -0.49833477 -0.32438186 -0.75355655 -0.6881832 -0.20081481 0.065383926
-0.23979566 -0.40116903 -0.7099559 -0.106614165 0.026740326 -0.21165995 -0.16907404 -0.389534
00000000: bf56 26bb a8ea 80be 7fa5 14bd b505 09be
00000010: c8be 77be 65c3 63bd 3a23 08be e21e d63d
00000020: c1f9 23be ec53 debd 890f 35be a7a1 a9be
00000030: 8b35 debd b74f 053c 38d9 4fbd 3e52 92bd
00000040: 9f46 64bd b30c 80bd efd8 65bd c06f c4bd
00000050: 1466 aebc 50ac a5bd 312e 01be 44eb b5bd
00000060: 87dd acbd ff34 923d c107 84bd 3acd 10bd
00000070: e6a2 61be 6647 d6bd 8a8d 8d3d 806b debd
00000080: 804f a23d f831 5a3d 2129 29be c8f2 be3c
00000090: 85bd 01be 7606 9cbc ca25 cfbd c937 0fbe
000000a0: 262c 1e3e 6a6d 66be 28ec 97bd 9618 a7be
000000b0: d685 0dbe f720 1bbe 0939 f0bd fb7e 88be
000000c0: 4b0e 1cbe 4e45 8abd 52c7 f2bd b354 22be
000000d0: 7871 12bd f4e2 e3bd 4d3f 3bbd 2817 5fbe
000000e0: 19f8 07be 8e83 26bd 3ed4 55be f084 3dbe
000000f0: ee81 f2ba 41ee 06be d6e7 32be 15ae 94bd
00000100: 6170 40bd 3d67 8abe f5cc f4bd e837 00be
00000110: 6119 a8be cec4 00be d035 56be 23e0 8a3d
00000120: 68ae c63c 55d5 9ebe b9ea 583c 2850 b8be
00000130: 7ef1 a6bd 0488 8a3b c71a 92be 0bf7 be3d
00000140: d2ce 883d 4f64 34bd 5e61 3bbe c6b9 93bd
00000150: 5778 5dbe a9b6 5cbe 5e1f 953d d414 bcbd
00000160: ea33 24be cea9 f53b bfa0 ccbd 2802 0e3e
00000170: bdda 12be 9f62 bbbd 10ae 37bc 1948 50be
00000180: c9ab 5e3c 6a26 7f3d d5a4 64bd e24c 32be
00000190: 909c 7cbd 74d9 93bd c0db 62be e205 bf3d
000001a0: 6ac2 81be 0a50 93be 5727 d6bd b0ea bcbd
000001b0: ccf5 4abd b5eb 51be 827b 94bd 4c83 833d
000001c0: 4e1b 07bd ca95 e9bd 77ce 68be 40f2 76bc
000001d0: 0bc9 20be 2624 11bc 51ab 3abd 4910 49bc
000001e0: 3bdf 2ebe 63f2 6cbd 6c95 58be e1d3 c23d
000001f0: 1aeb eabd 63a3 a0bb 6f27 68be 4966 c0bd
00000200: a83c 6fbd e0e7 b8be 091c 9e3b 6465 39be
00000210: be94 25bf d87a 89be dd85 c8be e725 7e3d
00000220: 4ff9 493b c04c 9abe d319 e2be 7004 dcbe
00000230: 9302 d4be 2aff f6bd f079 e2bd e1bf 44be
00000240: ab30 febd 5182 603e bc1e d0bd b3f4 81be
00000250: 782b 3fbf dc0d 76be c8c7 453e 4737 d6be
00000260: 635d 3dbf eced bdbc e717 cabd c660 1e3d
00000270: 0e75 6ebe 31a9 c1be ea9b f3bd e3b0 3fbf
00000280: 2058 b73c c1dc 9c3d 9d71 4dbe ae8e 63bd
00000290: d660 27bf 461e 403d 170a c5be 4f32 42bf
000002a0: d3e6 823d 5b7d 68bd cc5d 633d 4ade 65bf
000002b0: 7acc 5dbd dc1b 94be 29a1 66bf eba5 00bf
000002c0: b20d cd3e 2a92 8e3e bbbb 83be 6073 03bf
000002d0: e87f aa3c c222 08bf c665 baba 97be 2b3e
000002e0: b3f6 24bf ef6c 5cbd e71c e1be 0b7e d4be
000002f0: 172a dfbe 05bc 60be 999b ad3d 40a9 8fbe
00000300: 8e52 4bbf b28b 09bf 425a 71bd 38c6 4c3c
00000310: c156 70bf 321f 193d aad5 2bbf e004 b6bb
00000320: 04f4 c0bd 35c0 83be 2422 80be 20d9 41bf
00000330: a704 01bd 027f 18bf 71c8 c5bd 8b49 1c3c
00000340: 8890 21bd 9e25 bc3d 24a4 6abe 6f39 94be
00000350: e1a1 5bbf bae6 29bf 347b a33d 9af0 b5be
00000360: e8b5 f4ba 8110 36be fccf 4cbd ba2c d33b
00000370: dfa1 73bf f66a 44bf 1ee3 5abd 5b3e 53bf
00000380: 132d 8ebe 96af ba3d 9e2a 373e f5db 17bf
00000390: 5fa1 7ebd 65d6 f5bd 0be2 23be f0da f0bd
000003a0: 9448 50be 5e73 45bf f11c 8bbf a612 67be
000003b0: 4c50 1bbe f7cf 5fbe 0007 39bf b409 7cbd
000003c0: 4746 40be f0a7 af3c bc25 ffbe 6115 a6be
000003d0: 15e9 40bf c62c 30bf 66a2 4dbe 02e8 853d
000003e0: fe8c 75be 0766 cdbe abbf 35bf 8758 dabd
000003f0: 870e db3c 63bd 58be bf21 2dbe 0071 c7be

fc3.bias f4 [64]
-0.8203824 -1.2145767 -0.96400326 -3.1890194 10.384416 -2.7683623 3.6318092 -0.68130594
-1.469388 -1.1875049 -0.65022 -0.8291487 -2.1391034 -3.5221565 -0.99773294 -1.0005004
-3.5601196 -1.4473984 5.8088493 4.0370345 -2.3591645 -1.245991 -3.067043 -1.576917
-0.624642 -1.4298565 -0.88789165 -0.8575973 0.6178842 -1.8680031 -0.7915291 -0.6242393
-2.0403802 -0.98055 -0.9099653 -1.97852 -0.65919167 -1.2867777 -0.9941612 -2.0546951
-1.9098787 -1.4743273 -1.4496895 -3.3134356 -0.05266778 -0.74223703 -2.663767 -0.7074482
4.1626563 -3.2898145 -11.211038 -2.328383 -0.87387466 -2.7270067 -1.8752863 -1.1091212
-1.1442866 -2.6581097 -4.7347336 -3.2212613 -1.5247091 -2.5474865 -1.2124319 -2.0381413
00000000: 9504 52bf 4077 9bbf ebc8 76bf e518 4cc0
00000010: 9126 2641 d92c 31c0 906f 6840 116a 2ebf
00000020: e814 bcbf 2900 98bf d174 26bf 1743 54bf
00000030: 12e7 08c0 036b 61c0 6d6b 7fbf 6610 80bf
00000040: 00d9 63c0 5a44 b9bf 18e2 b940 632f 8140
00000050: 8dfc 16c0 a27c 9fbf 6f4a 44c0 6bd8 c9bf
00000060: 8ae8 1fbf 8a05 b7bf de4c 63bf 7f8b 5bbf
00000070: a92d 1e3f ba1a efbf a7a1 4abf 26ce 1fbf
00000080: 9795 02c0 5305 7bbf 7cf3 68bf 2540 fdbf
00000090: c9c0 28bf 22b5 a4bf 5981 7ebf 2080 03c0
000000a0: e876 f4bf c2b6 bcbf 6d8f b9bf 540f 54c0
000000b0: 2cba 57bd 3f03 3ebf 297b 2ac0 531b 35bf
000000c0: 7b34 8540 528c 52c0 6960 33c1 3a04 15c0
000000d0: 40b6 5fbf 4787 2ec0 6209 f0bf aff7 8dbf
000000e0: fc77 92bf 781e 2ac0 f082 97c0 2529 4ec0
000000f0: ab29 c3bf 050a 23c0 f830 9bbf e870 02c0

fc4.weight f4 [1, 64]
0.01283802 0.025448581 -0.0063149524 -0.00536995 0.037424676 -0.079238795 0.025360458 0.050996736
0.05043816 0.0001529177 0.015144507 -0.015384095 -0.020538371 0.018922456 -0.027860163 -0.0017721322
-0.00073518284 -0.043608848 0.009170788 -0.042760264 -0.0082361745 0.022812858 0.015773965 0.021564517
0.005009551 -0.0059150737 0.029783979 -0.027220963 -0.02929041 -0.008552539 0.007929118 0.0045378543
0.007141633 0.01224897 0.0031166628 0.008343 -0.011957097 -0.005444312 -0.007150922 0.033522572
-0.0011573555 0.017813168 -0.07071096 -0.018277882 -0.02148922 -0.012786558 0.0246649 0.017104814
0.020966249 -0.017973555 -0.01710785 -0.02741417 -0.007783818 -0.002535278 -0.0004759779 -0.0137354145
0.013482072 0.027574057 0.013149569 -0.021838274 -0.0339996 -0.008809862 -0.0042427257 -0.017747285
00000000: 8f56 523c 8b79 d03c a9ed cebb 68f6 afbb
00000010: 9e4a 193d f347 a2bd bcc0 cf3c f4e1 503d
00000020: 3e98 4e3d 8858 2039 ab20 783c 920d 7cbc
00000030: 1640 a8bc 4403 9b3c ff3a e4bc e446 e8ba
00000040: 49b9 40ba 319f 32bd 1341 163c 6325 2fbd
00000050: 05f1 06bc 08e2 ba3c 6738 813c 12a8 b03c
00000060: 2927 a43b 3cd3 c1bb 88fd f33c 7ffe debc
00000070: 71f2 efbc f31f 0cbc 22e9 013c 48b2 943b
00000080: 5c04 ea3b e7af 483c ed40 4c3b 14b1 083c
00000090: b3e7 43bc 3366 b2bb 4852 eabb f74e 093d
000000a0: 68b2 97ba ecec 913c e8d0 90bd 7fbb 95bc
000000b0: 290a b0bc b67e 51bc 0b0e ca3c 651f 8c3c
000000c0: 69c1 ab3c 473d 93bc c325 8cbc ae93 e0bc
000000d0: 660f ffbb e826 26bb ac8c f9b9 810a 61bc
000000e0: e9e3 5c3c fde2 e13c 4a71 573c 2ee6 b2bc
000000f0: 2a43 0bbd 3d57 10bc 9006 8bbb c162 91bc
