p2_continuous-control/checkpoint_actor.pth (torch, 202703 bytes, 8 tensors)

fc1.weight f4 [256, 33]
0	0x3a283ae4	0.0006417467
1	0xbe5235fe	-0.20528409
2	0xbd7b11dd	-0.061296333
3	0x3ed26b50	0.41097498
4	0x3ed137a1	0.40862754
5	0x3f0a8627	0.5411095
6	0x3d1d0f94	0.038344935
7	0xbd326743	-0.04355551
8	0xbd1d6dd1	-0.038434807
9	0xbd5fade1	-0.054609183
10	0xbb8ceb0f	-0.004300482
11	0xbd55ab59	-0.052165363
12	0x3d0e2d74	0.034711316
13	0x3ce5027b	0.027955284
14	0x3dd21a45	0.10258917
15	0xbd621d9e	-0.055204026
16	0x3d81198e	0.06303702
17	0x3e65233f	0.22376727
18	0xbcd94d25	-0.026526043
19	0x3dd1066b	0.10206302
20	0xbd4aa3bd	-0.04947256
21	0xbe0f8285	-0.14014633
22	0xbd4cb553	-0.04997761
23	0x3d9d52e7	0.07681828
24	0xbc8f5edb	-0.017501285
25	0xbd4a0c62	-0.049328215
26	0x3d4d851d	0.050175775
27	0x3d33cb54	0.04389508
28	0x3e45fb85	0.19334228
29	0x3b6fa920	0.0036569312
30	0xbd34fcd4	-0.04418643
31	0x3d51551e	0.051106565
32	0xbefe72b1	-0.49696878
33	0x3ba1be27	0.004935998
34	0x3d0baa65	0.034098048
35	0xbc61a891	-0.0137730995
36	0xbf31c9a4	-0.69448304
37	0xbddac040	-0.106812
38	0x3e92e76c	0.28692186
39	0xbf32c034	-0.6982453
40	0xbdd012aa	-0.1015981
41	0x3e09ecab	0.13469188
42	0xbc856e3c	-0.016287915
43	0x3d8c972b	0.068647705
44	0x3ccf41cf	0.025299935
45	0xbdd054cf	-0.10172426
46	0x3e3b3ecd	0.18285675
47	0x3d7534b5	0.05986472
48	0x3ce6bfc4	0.028167613
49	0xbd8211ca	-0.06351049
50	0xbc6439d9	-0.013929808
51	0xbe898a43	-0.26863298
52	0xbd67dbaa	-0.056605972
53	0xbd4c2ff5	-0.049850423
54	0xbc9235fc	-0.017848007
55	0xbd94f05e	-0.07272409
56	0x3dc8a84e	0.097977266
57	0x3d9dd4f4	0.07706633
58	0x3c9d8ddb	0.019232681
59	0xbe053dea	-0.130119
60	0x3def0184	0.11670211
61	0x3e864849	0.26227024
62	0xbcabe1b8	-0.020981655
63	0xbe0f17f7	-0.13973986
64	0xbc838e3c	-0.016059034
65	0x3f84a464	1.0362668
66	0xbdbf7bf1	-0.09349812
67	0x3e860458	0.2617519
68	0x3c48ade3	0.012248489
69	0x3c5ce80a	0.013483057
70	0xbe3da4e0	-0.18519926
71	0xbe9f52f4	-0.31117976
72	0x3ee76f6a	0.4520219
73	0xbd10f52c	-0.035390064
74	0x3d784d4a	0.060620584
75	0xbe307ffc	-0.17236322
76	0x3d070704	0.032965675
77	0x3d9b1ce4	0.0757387
78	0xbd2e4e25	-0.042554993
79	0x3d5c8b07	0.053843524
80	0xbe0223d8	-0.12708986
81	0x3d963b06	0.073354766
82	0x3e82c16f	0.25538203
83	0x3cb12862	0.021625701
84	0xbdd50074	-0.10400477
85	0xbe2b3bb8	-0.16722
86	0x3bd571cc	0.00651381
87	0x3dc863e6	0.09784679
88	0xbc4d5d74	-0.012534488
89	0x3d90761b	0.07053777
90	0xbd2f21a6	-0.0427567
91	0xbb9d9971	-0.0048095514
92	0x3d78b07c	0.060715184
93	0x3d707ca3	0.058712613
94	0x3e4f42df	0.20240353
95	0xbcd16334	-0.025559999
96	0xbdc21933	-0.094774626
97	0xbb1d0b20	-0.002396293
98	0xbfcb9233	-1.5903991
99	0x3e58f738	0.21188056
100	0x3e51846d	0.20460673
101	0xbe7780db	-0.24170248
102	0x3f0f1893	0.5589687
103	0x3e697578	0.22798717
104	0xbd2c3169	-0.04203931
105	0x3c4ff093	0.012691635
106	0xbbb08e67	-0.0053880694
107	0x3d3a3f6f	0.04547065
108	0x3df26f88	0.11837679
109	0x3e1921a0	0.14954233
110	0x3d704ca0	0.058666825
111	0x3de09cc7	0.10967403
112	0xbe24ec8f	-0.16105865
113	0xbd42b49c	-0.047535524
114	0x3de0e825	0.10981778
115	0x3ea07d56	0.31345624
116	0xbe99c3cc	-0.30032194
117	0xbdcb410d	-0.09924517
118	0x3d9183f4	0.07105246
119	0xbcd19da3	-0.025587862
120	0xbc673dfa	-0.014113897
121	0x3d222dd4	0.039594486
122	0x3d433f3a	0.04766772
123	0xbded911f	-0.11599945
124	0xbde3f0f9	-0.11129946
125	0x3d827189	0.06369311
126	0x3de2000d	0.11035166
127	0x3d898d8d	0.06716452
128	0x3bf79e30	0.007556699
129	0xbe2eda7f	-0.17075537
130	0x3d3681ca	0.04455737
131	0xbef207ac	-0.47271478
132	0x3d648f1a	0.055800535
133	0x3df4cdbc	0.11953303
134	0xbdca33f4	-0.098731905
135	0xbf00cd8f	-0.5031366
136	0xbce4950c	-0.027903102
137	0x3d04611c	0.032319173
138	0x3edeee51	0.43541196
139	0x3bfc991e	0.0077086827
140	0xbe7b52c5	-0.24543293
141	0x3e0b777c	0.13619798
142	0x3e4d41ec	0.20044678
143	0x3d4dd04c	0.050247476
144	0xbd20c32b	-0.039248627
145	0xbda706f0	-0.0815562
146	0x3d2dcb6f	0.042430338
147	0x3d4e13c8	0.050311834
148	0xbdab7352	-0.08371605
149	0xbd19dae5	-0.03756227
150	0xbd404684	-0.04694225
151	0xbcdb39f6	-0.026761036
152	0x3e6a0a1e	0.22855422
153	0xbddd2fe1	-0.10800148
154	0x3dae11bb	0.084994756
155	0xbe5f5fd0	-0.21813893
156	0x3a8ccf16	0.0010742869
157	0xbd31f185	-0.04344322
158	0x3d0e7e2d	0.0347883
159	0x3d7b87ca	0.061408795
160	0xbccd14d6	-0.02503435
161	0x3d12597e	0.035729878
162	0xbdb53f14	-0.08849922
163	0xbbfa2ec0	-0.0076349676
164	0xbfb4f3d6	-1.4136913
165	0xbeb699d2	-0.3566423
166	0xbe1fe733	-0.15615539
167	0xbd271992	-0.04079587
168	0xbe691621	-0.22762348
169	0x3db18a0e	0.0866891
170	0xbe0072f4	-0.12543851
171	0xbe82dfde	-0.25561422
172	0xbce8da55	-0.028424421
173	0xbdcd114c	-0.10013065
174	0xbde80c17	-0.11330431
175	0x3d044946	0.03229644
176	0xbe4ac57c	-0.19801897
177	0xbe2603f6	-0.16212448
178	0x3e5dc4f5	0.21657164
179	0x3c877167	0.016533567
180	0x3c81e458	0.015855953
181	0x3e063cad	0.13109083
182	0xbd8c903a	-0.068634465
183	0x3de3ad67	0.11117058
184	0xbe4d0e4b	-0.20024984
185	0xbd111315	-0.03541859
186	0x3d0fe88b	0.03513388
187	0x3d75593d	0.059899557
188	0xbc937549	-0.018000262
189	0x3c741c1d	0.014899281
190	0x3d10f8bd	0.035393465
191	0x3e13dfc0	0.14440823
192	0x3ea3a9dd	0.31965533
193	0x3d5ccc1c	0.05390559
194	0x3b396a00	0.002829194
195	0xbe83ba63	-0.2572814
196	0xbca68578	-0.020327315
197	0x3dc05399	0.09390945
198	0xbe13b969	-0.14426197
199	0xbe133f23	-0.14379553
200	0xbd9ee3bd	-0.077582814
201	0xbd643087	-0.05571034
202	0x3da7f387	0.08200746
203	0xbd77441a	-0.06036768
204	0x3f178845	0.59192306
205	0xbe3234c7	-0.17402945
206	0x3ee0f1e4	0.43934548
207	0xbe00551d	-0.12532468
208	0x3dae91d2	0.08523907
209	0x3d25f9dd	0.04052149
210	0xbde211c7	-0.11038547
211	0x3e572091	0.21008517
212	0x3d273717	0.040824022
213	0x3c5844f9	0.013200038
214	0x3cbba5fa	0.022906292
215	0xbd0f2d1b	-0.034955125
216	0xbe6c7fdf	-0.23095654
217	0x3e15a5b9	0.14614
218	0x3d3382f1	0.043826047
219	0xbacafa10	-0.0015485901
220	0x3cf9b50c	0.030481838
221	0x3de36b2f	0.11104428
222	0x3d4b9e3b	0.049711447
223	0x3c9f54da	0.01944964
224	0x3c8bacf8	0.017050251
225	0x3e07a754	0.13247424
226	0x3d49ac16	0.04923638
227	0x3d7802ae	0.06054943
228	0xbe65699e	-0.22403571
229	0xbd10de1a	-0.035368063
230	0xbe1a9dc1	-0.15099241
231	0xbe0a3e78	-0.13500392
232	0x3de166c2	0.110059276
233	0xbdf3d884	-0.119065315
234	0xbe4292b9	-0.19001283
235	0xbebd707e	-0.36999887
236	0xbe5cd8c8	-0.2156707
237	0x3d8df240	0.06930971
238	0x3ba8077e	0.0051278463
239	0x3c283331	0.010266111
240	0x3e29eae5	0.16593511
241	0x3ca7b6b8	0.02047287
242	0x3d24fa13	0.04027755
243	0x3c878503	0.016542917
244	0x3d11b2cf	0.035570916
245	0xbd7aae46	-0.061201356
246	0xbcff3004	-0.031150825
247	0x3cefc770	0.029269904
248	0x3e91aa0c	0.28450048
249	0x3daf8f04	0.085722
250	0x3e095f67	0.134153
251	0xbdef1ee1	-0.116758116
252	0x3d2cc77e	0.042182438
253	0xbb543de4	-0.0032385522
254	0x3d813cac	0.063104
255	0xbdb1f82e	-0.08689915

fc1.bias f4 [256]
0	0xbdb57180	-0.08859539
1	0xbe56bd0d	-0.20970555
2	0x3d4dfef2	0.050291963
3	0xbe371e05	-0.17882545
4	0xbd041658	-0.03224787
5	0xbe9930b0	-0.29919958
6	0xbebabbf2	-0.36471516
7	0xbcaa1d34	-0.020765878
8	0x3e032984	0.12808806
9	0xbc94f607	-0.018183721
10	0xbeb6ada0	-0.3567934
11	0xbc91af92	-0.017783914
12	0xbe498d4a	-0.19682804
13	0x3d4aebad	0.049541164
14	0x3d282524	0.041051045
15	0xbd27bc6f	-0.04095119
16	0x3e30e02d	0.17273016
17	0xbe1bd7b3	-0.15219001
18	0xbd11db5d	-0.03560959
19	0xbef2de5e	-0.47435278
20	0xbe063f25	-0.13110025
21	0xbe8dd11c	-0.276986
22	0xbe177153	-0.14789324
23	0x3d152523	0.03641237
24	0xbe7b83b1	-0.24561955
25	0xbe0abce9	-0.13548626
26	0x3d2108cb	0.039315026
27	0xbd9262f2	-0.071477786
28	0xbe3ae916	-0.18252978
29	0xbe6b096b	-0.22952811
30	0xbe6ac6d2	-0.22927406
31	0xbabfd6c7	-0.0014636152
32	0xbcce51fe	-0.025185581
33	0xbee53ee3	-0.4477454
34	0xbec0745d	-0.37588778
35	0xbe029c1e	-0.12754866
36	0xbe4b749c	-0.19868702
37	0xbe5c3c5d	-0.21507402
38	0x3d3c6584	0.04599525
39	0x3c417b17	0.011809132
40	0xbe872718	-0.26397014
41	0xbe5ce897	-0.21573101
42	0x3e1b0e01	0.15142061
43	0x3e1f0523	0.15529303
44	0x3db5d759	0.08878965
45	0x3db52517	0.08844965
46	0xbd683a20	-0.056696057
47	0xbdf8052b	-0.12110361
48	0xbdd90d90	-0.1059829
49	0x3e864c5a	0.26230127
50	0xbe3084f1	-0.17238213
51	0xbe0b9cef	-0.13634084
52	0xbd858e5a	-0.06521292
53	0xbea0325a	-0.31288415
54	0xbe813258	-0.25233722
55	0xbe741ac9	-0.23838343
56	0xbce6f21c	-0.028191619
57	0xbdbf60f7	-0.093446665
58	0xbeaecb74	-0.34139597
59	0xbe5abc8e	-0.2136099
60	0xbdaae9bd	-0.08345363
61	0xbece41f8	-0.40284705
62	0x3d23b745	0.0399697
63	0x3dbe92b2	0.09305324
64	0xbe53e5bc	-0.20693105
65	0xbdb5da5b	-0.088795386
66	0xbddb3166	-0.107027814
67	0xbd8f68c2	-0.07002403
68	0x3d042932	0.03226585
69	0xbe9988ca	-0.29987174
70	0x3e2956f1	0.16537072
71	0xbeb95415	-0.36196962
72	0xbe532d46	-0.20622739
73	0xbc924470	-0.0178549
74	0x3e3e1a63	0.18564753
75	0xbd4d8438	-0.05017492
76	0xbdda35d1	-0.10654796
77	0xbd9d67fc	-0.07685849
78	0xbe16d58c	-0.14729899
79	0xbd46b5ae	-0.048513107
80	0x3dfbbed4	0.12292257
81	0xbde68828	-0.112564385
82	0xbeb9f7e3	-0.36321935
83	0xbe435f97	-0.19079433
84	0x3ddbaad5	0.10725943
85	0x3df5a77f	0.11994838
86	0xbe30030e	-0.17188665
87	0xbdc8df91	-0.09808267
88	0xbec11fdd	-0.37719622
89	0x3cb9c02e	0.022674646
90	0xbe4df979	-0.20114698
91	0x3d40eb26	0.047099255
92	0x3d73c8f9	0.059517834
93	0xbe367c0d	-0.17820759
94	0xbe3fcc4d	-0.18730278
95	0xbdf71c4b	-0.12065943
96	0xbdcaf365	-0.09909705
97	0xbde4b18b	-0.11166676
98	0xbe8610de	-0.26184744
99	0xbc0e7680	-0.008695245
100	0xbe2524b4	-0.16127282
101	0x3c84d1c0	0.016213298
102	0x3d846f35	0.064665236
103	0xbc854ff7	-0.016273482
104	0xbe615989	-0.22006811
105	0xbe3cc4fd	-0.1843452
106	0xbe83045b	-0.2558926
107	0xbcfacb0b	-0.030614397
108	0x3d1c5fec	0.038177416
109	0xbddc9e06	-0.10772328
110	0x3e5a56c6	0.21322164
111	0xbd6e97f6	-0.05825039
112	0xbe5850e2	-0.21124604
113	0xbeb082b1	-0.3447471
114	0xbe2383c1	-0.15968229
115	0x3d47819a	0.048707582
116	0xbe043f1c	-0.129147
117	0xbdea51c6	-0.11441378
118	0x3c563f87	0.01307667
119	0xbd87cc88	-0.06630808
120	0xbe72a6c5	-0.2369643
121	0x3da17151	0.078829415
122	0xbe2f1e42	-0.17101386
123	0xbe241cca	-0.16026607
124	0xbd8d3770	-0.068953395
125	0x3da2f8c3	0.07957604
126	0xbd87e8fd	-0.06636236
127	0xbec95ebd	-0.39330092
128	0xbe5039fc	-0.2033462
129	0xbe72b84c	-0.23703116
130	0xbe44b03d	-0.19207855
131	0xbe982664	-0.2971679
132	0x3e078ca3	0.13237242
133	0xbe21e86d	-0.1581132
134	0xbde5a374	-0.11212817
135	0xbe024a33	-0.12723617
136	0xbdcccf71	-0.10000504
137	0xbea77d5a	-0.32712823
138	0xbe0a2ce7	-0.13493691
139	0xbe6745fc	-0.2258529
140	0x3c8428af	0.01613268
141	0xbc97010f	-0.018433122
142	0xbd0e483c	-0.034736857
143	0xbe0ef556	-0.13960776
144	0xbe521fc5	-0.20519932
145	0xbe958532	-0.29203182
146	0xbda5e67b	-0.08100601
147	0x3aa2e35c	0.0012427378
148	0xbb4a3bda	-0.0030858428
149	0xbe48c2e4	-0.19605595
150	0xbe5ac9ba	-0.21366015
151	0xbe2d5778	-0.16927898
152	0x39f5a4dd	0.00046852874
153	0xbe697caa	-0.22801462
154	0xbe8707fb	-0.26373276
155	0xbeb0e3b9	-0.3454874
156	0xbe9cb51d	-0.30606928
157	0xbd1e3560	-0.03862512
158	0xbe8aba14	-0.2709509
159	0xbdd18608	-0.102306426
160	0xbeec0bd4	-0.46102774
161	0xbe3ac17a	-0.18237868
162	0xbe03debe	-0.12877938
163	0xbd1b9ce7	-0.03799143
164	0xbe0dfbdf	-0.13865612
165	0xbe6dab21	-0.23209812
166	0xbdfbd1f0	-0.12295902
167	0xbd879c14	-0.066215664
168	0xbead6279	-0.3386419
169	0xbec402e0	-0.38283443
170	0xbd9146a4	-0.07093552
171	0xbd7810a1	-0.060562734
172	0xbe62c279	-0.22144498
173	0xbdc4fe8c	-0.096188635
174	0xbdda0082	-0.10644628
175	0xbe1336ba	-0.14376345
176	0xbe02db0f	-0.12778877
177	0xbcd2e1a0	-0.025742352
178	0x3cd505ba	0.026003707
179	0xbd68f451	-0.056873623
180	0xbd2905dc	-0.041265354
181	0xbe8f522c	-0.2799238
182	0xbe3b775a	-0.18307248
183	0xbd2ff346	-0.042956613
184	0xbe0e3e8e	-0.1389105
185	0xbe2d6199	-0.16931762
186	0x3d88a4f6	0.06672089
187	0xbe635472	-0.22200182
188	0xbec6d8d9	-0.38837317
189	0x3b2d4628	0.0026439521
190	0xbd93b240	-0.07211733
191	0xbef156a2	-0.47136408
192	0xbe155548	-0.14583313
193	0xbc2b0d4d	-0.010440183
194	0xbe0ed108	-0.13946927
195	0xbe92f21c	-0.2870034
196	0xbdee0b33	-0.1162323
197	0x3ce47cab	0.027891478
198	0xbe88da57	-0.2672908
199	0x3deb0528	0.11475593
200	0xbd9336dc	-0.07188198
201	0xbd06ca45	-0.032907743
202	0xbd80bbbb	-0.06285807
203	0x3e88e10b	0.26734194
204	0xbd9051fb	-0.070468865
205	0xbe998419	-0.29983595
206	0xbe773ee5	-0.24145086
207	0xbdafb9ca	-0.08580358
208	0xbd1490b7	-0.036270823
209	0xbe4a1527	-0.19734631
210	0xbd915355	-0.070959724
211	0xbe6049ff	-0.21903227
212	0xbe693053	-0.2277234
213	0xbd8062df	-0.06268858
214	0xbdc5ba4d	-0.09654675
215	0xbe287faf	-0.16454957
216	0xbddc671f	-0.10761856
217	0xbdfddaf2	-0.12395276
218	0x3e286059	0.16443004
219	0xbd761386	-0.060077213
220	0xbc9038d0	-0.017605215
221	0xbe83ec1b	-0.25766072
222	0x3e8bfa58	0.27339435
223	0xbe246373	-0.16053562
224	0x3d403f98	0.046935648
225	0xbdae39f6	-0.08507149
226	0xbe372529	-0.17885269
227	0xbe251d7e	-0.16124532
228	0xbba57eaf	-0.0050505023
229	0x3dc3c08a	0.09558208
230	0xbd6d7b95	-0.057979185
231	0xbe7868ec	-0.24258775
232	0xbe7626cd	-0.24038239
233	0xbd27d131	-0.040970985
234	0xbc394ec8	-0.011310287
235	0xbecf32e1	-0.40468505
236	0xbd8fd47c	-0.0702295
237	0xbca40c5a	-0.020025421
238	0xbdc89540	-0.09794092
239	0xbe2ef5bb	-0.17085926
240	0xbe39b78b	-0.18136422
241	0xbe6a7e77	-0.22899805
242	0xbea43020	-0.32067966
243	0xbe2ac4cf	-0.16676639
244	0xbe9ef971	-0.31049684
245	0xbdd1d259	-0.10245199
246	0xbe8c5e8a	-0.27415878
247	0x3db050f2	0.08609189
248	0xbd7f59b3	-0.062341403
249	0x3d6ad8ff	0.05733585
250	0xbdc9f31e	-0.09860824
251	0xbe580140	-0.21094227
252	0xbd87985c	-0.06620857
253	0xbd934c18	-0.07192248
254	0xbdb86040	-0.09002733
255	0xbede844e	-0.43460315

fc2.weight f4 [128, 256]
0	0xbda703c5	-0.08155016
1	0x3e40a487	0.18812762
2	0x3e623be2	0.22093156
3	0x3e396110	0.18103433
4	0x3ddee438	0.10883373
5	0xbc5e9cdd	-0.013587204
6	0xbe539a54	-0.2066434
7	0x3e185e45	0.14879711
8	0xbd819138	-0.063265264
9	0x3e7cd777	0.24691568
10	0x3e3f2196	0.18665156
11	0xbe23aabe	-0.15983102
12	0x3db9e88c	0.09077558
13	0xbe87c316	-0.26516026
14	0x3e07e05a	0.13269177
15	0xbefa33c7	-0.48867628
16	0xbbcda94d	-0.0062762857
17	0xbcb27042	-0.021782044
18	0xbda1e0ca	-0.07904203
19	0x3e7bc2a4	0.24585968
20	0x3dbcc2bd	0.09216831
21	0x3d6aa8dd	0.057289947
22	0x3e14eaaa	0.14542642
23	0xbe4002a8	-0.18751013
24	0xbd4085da	-0.04700265
25	0xbe150222	-0.14551595
26	0x3e1d20e7	0.15344582
27	0x3dbc0de7	0.09182339
28	0xbe5db82c	-0.21652287
29	0x3df09b91	0.11748422
30	0x3c4c19e2	0.012457343
31	0xbe87b59d	-0.26505747
32	0xbd5433e0	-0.051807284
33	0xbd8223dc	-0.06354496
34	0x3e91d2ec	0.28481233
35	0xbd7db35d	-0.061938632
36	0x3e50c7fe	0.20388791
37	0x3db6432d	0.088995315
38	0x3cf8ab1c	0.030355029
39	0xbdaa6502	-0.08320047
40	0xbf034e04	-0.5129092
41	0x3c630e61	0.013858409
42	0x3dda0d1b	0.10647031
43	0x3e5df959	0.2167715
44	0x3e21e6ab	0.15810649
45	0x3d68024a	0.056642808
46	0xbd2e3004	-0.04252626
47	0xbe891f23	-0.26781568
48	0x3cadd562	0.021219913
49	0x3e2556a3	0.1614633
50	0xbc42a97c	-0.011881229
51	0x3e0745db	0.13210241
52	0x3e829c4c	0.2550987
53	0xbc0e05e9	-0.008668401
54	0xbe28e991	-0.16495349
55	0x3e412c87	0.18864642
56	0x3d323536	0.043507777
57	0x3dd1d8e6	0.10246448
58	0x3d4f8d55	0.050671894
59	0xbd04f1fc	-0.032457337
60	0xbe2991dc	-0.16559547
61	0xbece8328	-0.4033444
62	0x3d9e4ced	0.07729516
63	0xbded9020	-0.11599755
64	0x3daba381	0.08380795
65	0xbeaac3cd	-0.3335251
66	0x3e3cc543	0.18434624
67	0xbddd027b	-0.10791489
68	0xbe155741	-0.14584066
69	0x3e03e67b	0.1288089
70	0x3e970c2c	0.29501474
71	0x3c728ce4	0.014804099
72	0x3e4a6129	0.19763626
73	0x3e211ec9	0.157344
74	0xbd8c4498	-0.06849021
75	0x3c72379c	0.014783766
76	0x3e31de20	0.1736989
77	0x3e353ae8	0.17698252
78	0xbe51294a	-0.20425907
79	0x3e0720eb	0.13196151
80	0xbecbc684	-0.39799893
81	0xbe5f032a	-0.2177855
82	0xbd18bd97	-0.037290182
83	0x3d842497	0.064522915
84	0x3dcf5cf0	0.10125148
85	0xbe5b87f9	-0.21438588
86	0xbdb84e64	-0.08999327
87	0xbd8ffd9e	-0.070307955
88	0xbe01b6fa	-0.12667456
89	0xbe9e3e53	-0.30906925
90	0x3dda7102	0.10666086
91	0xbbe29614	-0.0069148634
92	0xbd43936b	-0.04774801
93	0x3eb8c10d	0.36084786
94	0xbdd96f24	-0.106169015
95	0x3d846ce9	0.064660855
96	0x3e03c5b5	0.12868388
97	0xbe7b62f8	-0.24549472
98	0xbeaa95d1	-0.33317426
99	0x3d2d0202	0.042238243
100	0xbef473e6	-0.47744673
101	0x3ce7fdcf	0.028319268
102	0x3e6233c9	0.22090067
103	0xbdeb01b4	-0.11474934
104	0x3daaa2d0	0.08331835
105	0xbdfbb23b	-0.12289854
106	0xbe85b50a	-0.26114684
107	0xbeac3bcb	-0.33639368
108	0x3d4194e0	0.04726112
109	0x3d8abf72	0.067747965
110	0x3dc9fe29	0.0986293
111	0xbe554174	-0.2082575
112	0x3deec4ce	0.11658631
113	0x3d888244	0.06665471
114	0x3ce009b0	0.02734837
115	0x3daf6dcb	0.08565863
116	0xbe405375	-0.18781836
117	0xbe00dfed	-0.12585421
118	0xbe0afcb6	-0.13572964
119	0x3e324e90	0.17412782
120	0xbdbd0aa0	-0.09230542
121	0xbd8ffdb1	-0.0703081
122	0xbc7d80ec	-0.015472632
123	0x3e17c60a	0.1482164
124	0x3e3c54ba	0.18391696
125	0xbecbfcb6	-0.3984124
126	0x3e83e257	0.2575862
127	0xbd9feb17	-0.07808512
128	0x3c4e5c8b	0.012595306
129	0x3cd8cb9a	0.026464272
130	0x3dd3e748	0.10346848
131	0xbd9872f2	-0.07443799
132	0xbe75890e	-0.23978063
133	0xbca7999f	-0.020458994
134	0x3c4054e2	0.011738988
135	0xbe5f9d50	-0.21837354
136	0xbed26da1	-0.41099265
137	0x3dc595d9	0.09647722
138	0x3dd710b2	0.10501231
139	0xbd309172	-0.043107457
140	0x3d339bc3	0.043849718
141	0x3d2494a8	0.040180832
142	0x3d0281bd	0.03186201
143	0x3e662a03	0.22476964
144	0xbc342e85	-0.010997419
145	0xbc889618	-0.016673133
146	0xbd69f897	-0.05712184
147	0xbdc2d961	-0.09514118
148	0xbe149e1f	-0.14513443
149	0xbd6a110c	-0.057145163
150	0xbdf25adb	-0.118337356
151	0x3d9aba28	0.07555038
152	0xbeacde47	-0.33763334
153	0xbd6e6e7b	-0.05821083
154	0x3e321757	0.17391716
155	0x3e4c697c	0.19962114
156	0xbdb7880f	-0.08961498
157	0xba2f6eb5	-0.0006692217
158	0xbd2d1a7c	-0.042261586
159	0x3c964ce5	0.018347213
160	0xbe4ffe42	-0.20311835
161	0xbd466c2b	-0.048443
162	0x3eb0c44f	0.34524772
163	0x3e2fc8fd	0.17166515
164	0xbe182204	-0.14856726
165	0x3dd72aa2	0.105061784
166	0x3e36bfdb	0.17846625
167	0xbd5ee170	-0.054414213
168	0x3c4716e4	0.012151454
169	0xbde6755c	-0.11252853
170	0x3e8256ba	0.25456792
171	0x3eb791f7	0.3585355
172	0xbd2f53b4	-0.042804435
173	0xbe83c5da	-0.25736886
174	0x3de1b21a	0.11020298
175	0x3b649ace	0.003488231
176	0xbf1382ff	-0.5762176
177	0x3bae2313	0.0053142398
178	0xbe14eb6d	-0.14542933
179	0x3d04fdd7	0.032468643
180	0x3d163fbd	0.03668188
181	0x3e91076e	0.2832598
182	0x3e48a51f	0.19594239
183	0xbe42bbc7	-0.19016944
184	0x3c98fd52	0.01867548
185	0x3df53f50	0.119749665
186	0xbe145a6e	-0.14487621
187	0x3e4e808f	0.20166229
188	0x3da895a1	0.082316644
189	0x3d05255f	0.032506343
190	0x3e65faaa	0.22458902
191	0xbd2252ff	-0.039629932
192	0xbe5d302f	-0.21600412
193	0xbda9c000	-0.08288574
194	0xbe447172	-0.19183901
195	0xbe1d4e59	-0.15361919
196	0xbeb527fa	-0.35382062
197	0x3d166eea	0.03672687
198	0xbe885747	-0.26629087
199	0xbc6040d9	-0.013687336
200	0x3e8a0050	0.26953363
201	0x3db6952c	0.08915171
202	0x3e2407e2	0.16018632
203	0xbe25e5e7	-0.16200982
204	0xbe69c11b	-0.2282757
205	0x3e527d39	0.20555581
206	0xbeabbb25	-0.33541217
207	0xbe6711e5	-0.2256542
208	0xbeedd039	-0.46447924
209	0xbdabbc42	-0.08385517
210	0x38573b86	5.131543e-05
211	0x3e92c2be	0.28664201
212	0x3de429bf	0.11140775
213	0x3e234bec	0.1594693
214	0x3d8cbf2d	0.068724014
215	0xbd20841a	-0.039188482
216	0x3e105352	0.14094284
217	0x3e75edaf	0.2401645
218	0x3e74e456	0.23915228
219	0x3ea3db28	0.3200314
220	0xbe38eb19	-0.18058433
221	0x3d421c1e	0.047390096
222	0x3d8f3dcb	0.06994208
223	0x3e5ec059	0.21753062
224	0xbdde8da7	-0.10866862
225	0x3e348d92	0.1763213
226	0xbe5a0cbb	-0.21293919
227	0xbd45dfbd	-0.048309077
228	0x3c575995	0.013143917
229	0x3d08188f	0.033226546
230	0x3e88d466	0.26724547
231	0xbe6def3c	-0.23235792
232	0x3e2c1030	0.1680305
233	0x3e0e26f2	0.13882044
234	0x3e029f2a	0.12756029
235	0x3ebbb157	0.36658737
236	0xbdf42c53	-0.11922517
237	0xbede31c0	-0.4339733
238	0x3da2ef54	0.079558045
239	0xbde56921	-0.112016924
240	0xbe1aa8c2	-0.15103438
241	0x3e27a74b	0.16372411
242	0xbe4de10d	-0.20105381
243	0x3e2d2cd4	0.16911632
244	0xbeb20962	-0.34772784
245	0xbc9d1df2	-0.019179318
246	0xbd9326cd	-0.07185135
247	0xbe7249e6	-0.23661003
248	0x3e3d1114	0.18463546
249	0x3d7128fa	0.05887697
250	0x3d81b6f7	0.06333726
251	0x3ba2b802	0.004965783
252	0xbda4c3c3	-0.08045151
253	0xbd6bfcd3	-0.05761416
254	0xbde4d6fe	-0.11173819
255	0x3e58fda8	0.21190512

fc2.bias f4 [128]
0	0xbe249dd3	-0.1607583
1	0x3a3d9509	0.0007231986
2	0xbe342681	-0.17592813
3	0x3c5ae05e	0.013359157
4	0xbccb20f6	-0.02479599
5	0x3dfda9e3	0.12385919
6	0xbe413fd5	-0.18872006
7	0xbe00218d	-0.12512799
8	0x3c47104e	0.012149883
9	0xbd37438b	-0.04474215
10	0xbd9c70d7	-0.0763871
11	0xbc8d556b	-0.017252645
12	0xbddb45a4	-0.10706642
13	0x3c82601e	0.015914973
14	0xbc7af09d	-0.015316156
15	0xbd718582	-0.058965214
16	0xbc264432	-0.010148095
17	0x3de7f424	0.11325863
18	0xbd42a4f8	-0.047520608
19	0xbe0e5efe	-0.13903424
20	0xbd6c2824	-0.05765547
21	0x3c72b4a7	0.014813579
22	0xbd9a103d	-0.075226285
23	0x3de9f086	0.11422829
24	0x3d344c97	0.044018354
25	0xbe182c7f	-0.14860724
26	0xbd7e86ea	-0.062140383
27	0xbb9c53a8	-0.004770715
28	0x3d386f4b	0.045028012
29	0x3c9a15ad	0.018809164
30	0xbd9d93bb	-0.07694193
31	0xbc9d474a	-0.019199032
32	0x3df7beb3	0.1209692
33	0xbdf580ec	-0.119874805
34	0xbdf42e96	-0.11922948
35	0x3b76e8ed	0.0037675456
36	0xbe1c9a49	-0.1529323
37	0xbcfcd978	-0.030865416
38	0xbdfbf0df	-0.12301802
39	0xbda59d9e	-0.08086704
40	0xbd81f153	-0.06344857
41	0xbdaff921	-0.085924394
42	0xbd2346de	-0.039862506
43	0xbda911de	-0.08255361
44	0x3de9d6ad	0.11417899
45	0xbc0c166c	-0.008550268
46	0xbe1ebe71	-0.15502335
47	0xbd1f0c45	-0.03883006
48	0x3cd6e662	0.026232902
49	0xbcaef553	-0.021357214
50	0xbdcb5566	-0.09928398
51	0x3d99017e	0.07470988
52	0x3d41ac8e	0.0472837
53	0x3cf18b25	0.029485295
54	0x384a7669	4.827083e-05
55	0x3d6f4d28	0.05842319
56	0xbe8d3115	-0.2757651
57	0xbd6fbb74	-0.05852838
58	0x3d0b679a	0.03403435
59	0x3c048ef3	0.008090722
60	0x3c793154	0.015209515
61	0x3a21d310	0.00061731134
62	0x3dfbf3c7	0.12302356
63	0xbed6b374	-0.41933787
64	0x3dc10f4d	0.094267465
65	0x3d52c929	0.051461373
66	0xbcb0ac77	-0.021566613
67	0xbdff9011	-0.1247865
68	0x3e37491a	0.1789898
69	0x3cea9529	0.028635578
70	0xbaab0ac8	-0.0013049478
71	0xbca98169	-0.02069159
72	0xbd53a3be	-0.05166983
73	0xbe10fec1	-0.14159681
74	0x3dcb4c53	0.09926667
75	0x3e1ea6e7	0.15493356
76	0xbeaa2b3d	-0.33236113
77	0xbe26c6a8	-0.16286719
78	0xbdd76142	-0.10516597
79	0xbcf76b85	-0.030202636
80	0xbacfbc04	-0.001584888
81	0xbe4badef	-0.19890569
82	0x3dac9b6f	0.08428084
83	0x3dec0d96	0.11526029
84	0xbe59e937	-0.2128037
85	0xbdc347fe	-0.09535216
86	0xbe1d7f06	-0.15380487
87	0xbe168f52	-0.1470311
88	0xbd66f4e6	-0.056385897
89	0xbd86990c	-0.0657216
90	0xbd3decce	-0.046368413
91	0xbd495f88	-0.04916337
92	0x3d4efe5a	0.050535537
93	0x3d6e0cd7	0.058117714
94	0xbd5d8bee	-0.054088525
95	0xbd8c604d	-0.068543054
96	0x3ddcc1ff	0.10779189
97	0xbd838c3b	-0.06423231
98	0xbbbc3a0f	-0.005744226
99	0xbdb7b1e7	-0.08969479
100	0x3d4c5514	0.049885824
101	0x3cc1a435	0.02363787
102	0x3dc49c39	0.096001096
103	0x3cad9016	0.02118687
104	0xbdd1300b	-0.102142416
105	0xbddf8f23	-0.10915973
106	0xbd214c0f	-0.039379176
107	0x3d95a15a	0.07306166
108	0xbce320e6	-0.027725648
109	0xbde400cf	-0.11132967
110	0xbd85674c	-0.06513843
111	0x3d349645	0.04408862
112	0xbe23ab7d	-0.15983386
113	0xb9f2cfba	-0.00046312605
114	0x3c7c0264	0.015381429
115	0xbdf56d04	-0.11983684
116	0xbe839bd8	-0.25704837
117	0xbc283b90	-0.010268107
118	0x3d4baf7a	0.049727894
119	0xbb9b21bd	-0.0047342465
120	0xbbe31b7e	-0.0069307676
121	0xbdcb870d	-0.09937868
122	0x3d458482	0.048222072
123	0x3d6b5c1a	0.05746088
124	0xbca90dad	-0.020636404
125	0xbd114454	-0.035465553
126	0xbd17319c	-0.036912546
127	0x3aedaa49	0.0018132414

fc3.weight f4 [64, 128]
0	0xbea44ef7	-0.32091495
1	0xbd2956e2	-0.041342624
2	0x3f72b213	0.9480297
3	0xbe930bb9	-0.2871988
4	0xbcae92a7	-0.021310164
5	0x3da2d176	0.07950108
6	0x3c25fc78	0.010130994
7	0xbe256270	-0.16150832
8	0x3f40282e	0.7506131
9	0x3e89cb2f	0.2691283
10	0x3e37a9b7	0.17935835
11	0xbedbdb3c	-0.429407
12	0x3e9efd74	0.31052744
13	0xbebff24a	-0.3748954
14	0x3ea90777	0.33013508
15	0x3f022e4c	0.50851893
16	0xbe87b3dc	-0.2650441
17	0xbeb35400	-0.35025024
18	0x3e98faed	0.2987894
19	0x3ce6fe73	0.028197503
20	0x3dbd8de9	0.09255583
21	0xbe03c341	-0.12867452
22	0x3e8c48a8	0.27399182
23	0x3e9df35a	0.30849725
24	0xbeb72299	-0.35768583
25	0xbe64df9e	-0.22350928
26	0x3e1a3456	0.15059027
27	0x3d6d457e	0.0579276
28	0x3e6c3c71	0.23069932
29	0x3e5745b2	0.2102268
30	0xbe1929f5	-0.14957412
31	0x3cfe6cb6	0.031057697
32	0x3e2cebb9	0.16886796
33	0x3df2d5f1	0.11857212
34	0xbeb1eb00	-0.34749603
35	0x3eac38fb	0.33637223
36	0xbeedf9b1	-0.46479562
37	0xbd7d3c25	-0.061824936
38	0xbe12a1ce	-0.14319536
39	0x3da48037	0.080322675
40	0xbea0d398	-0.31411433
41	0x3d39e47c	0.045383915
42	0x3b8e9b6a	0.004352023
43	0x3ea72bbb	0.3265055
44	0xbe4be446	-0.19911298
45	0x3f0535f9	0.5203548
46	0x3f64e147	0.89406246
47	0x3e947a53	0.28999576
48	0xbe84ab12	-0.25911766
49	0xbd8b239c	-0.06793901
50	0xbe01a8fe	-0.12662122
51	0xbee6eb13	-0.45101222
52	0x3d904156	0.07043712
53	0xbca3c245	-0.019990096
54	0xbeb3a412	-0.35086113
55	0xbe710ebd	-0.23540778
56	0xbe9189e9	-0.2842553
57	0xbe740c2e	-0.23832771
58	0xbc047057	-0.0080834245
59	0xbe018755	-0.12649281
60	0xbeaf334a	-0.34218818
61	0xbed27f29	-0.4111264
62	0xbdc981ec	-0.09839234
63	0x3daecb33	0.08534851
64	0xbd259c0e	-0.04043203
65	0xbe0c5867	-0.13705598
66	0x3e3f9ed1	0.18712927
67	0xbd54eb2d	-0.051982094
68	0xbeb4c151	-0.3530374
69	0xbee52378	-0.44753623
70	0xbe58525a	-0.21125165
71	0x3eb04d2c	0.34433877
72	0x3e21dc10	0.15806603
73	0x3ef6e0f5	0.48218504
74	0xbe10e5c8	-0.14150155
75	0x3e4d5a6d	0.20054026
76	0xbe90b762	-0.2826491
77	0x3ce4641b	0.027879765
78	0xbf105c9b	-0.56391305
79	0xbebe2f9e	-0.37145704
80	0xbc255349	-0.0100906575
81	0x3e2d7d9f	0.16942452
82	0xbde2c80f	-0.110733144
83	0xbec23696	-0.3793227
84	0xbd8d9c1f	-0.06914543
85	0xbdc02388	-0.09381777
86	0xbe2d812d	-0.16943808
87	0x3e874a13	0.26423702
88	0x3d9b6198	0.07586974
89	0x3e1ffe83	0.15624432
90	0x3e385eba	0.18004885
91	0xbe8dead6	-0.27718228
92	0x3e6edb47	0.23325835
93	0xbee56178	-0.44800925
94	0x3df3502a	0.118805245
95	0xbf0c0370	-0.54692745
96	0xbe3a0179	-0.18164624
97	0xbe4a8a35	-0.19779284
98	0x3e17636e	0.14784023
99	0x3d8f24b4	0.069894224
100	0x3e9d579e	0.3073091
101	0x3e5904fb	0.21193306
102	0xbdf54ed2	-0.119779244
103	0x3ea938f9	0.3305128
104	0xbe59bc5b	-0.21263258
105	0xbf4fc367	-0.81157535
106	0x3f3021e3	0.6880171
107	0xbe80e24a	-0.25172645
108	0x3db48088	0.08813578
109	0x3dae4ea3	0.085110925
110	0x3db7482e	0.08949314
111	0xbe0cf50b	-0.13765351
112	0x3ef03320	0.46914005
113	0xbee5f1bf	-0.44911
114	0xbdc5954c	-0.09647617
115	0xbe4b9454	-0.19880801
116	0x3e8d95d4	0.27653372
117	0xbca85a3f	-0.020550845
118	0xbd001464	-0.031269446
119	0x3e990693	0.29887828
120	0xbdc204a3	-0.09473541
121	0x3c0c10cb	0.008548926
122	0x3dd5356c	0.1041058
123	0xbba61058	-0.0050678663
124	0x3ecce42d	0.40017834
125	0x3e0f6e6c	0.14006966
126	0x3d4ec7e2	0.05048359
127	0xbd078ace	-0.03309136
128	0x3cc464bf	0.02397382
129	0xbe80d0a9	-0.25159195
130	0x3e88a0a9	0.26685074
131	0x3e0707e3	0.13186602
132	0x3f02a808	0.51037645
133	0xbe0830b2	-0.13299826
134	0xbe81602a	-0.2526868
135	0xbd628b36	-0.055308543
136	0xbe8819d6	-0.2658221
137	0x3cca9e7c	0.024733774
138	0xbede27e6	-0.43389815
139	0xbd3f14aa	-0.046650566
140	0xbea240d6	-0.3169009
141	0xbed293dd	-0.41128436
142	0xbe151cdb	-0.14561789
143	0x3cb6a9cc	0.022297762
144	0x3e660dd2	0.2246621
145	0xbea9bae5	-0.33150402
146	0xbd9a6ab6	-0.07539885
147	0x3e9706c7	0.29497358
148	0xbf249812	-0.6429454
149	0xbee5741b	-0.44815144
150	0xbdc4f16d	-0.09616361
151	0xbe83a367	-0.25710604
152	0x3e9d69df	0.30744836
153	0x3e4f8d46	0.20268735
154	0x3db6c3ad	0.08924041
155	0x3e8c228f	0.27370116
156	0xbe97c32e	-0.29641098
157	0x3c1fb51c	0.00974777
158	0xbe713f71	-0.23559357
159	0x3ec41a1b	0.38301167
160	0xbdc9c7bc	-0.098525494
161	0xbed4e77f	-0.41582868
162	0xbeb1ef9a	-0.34753114
163	0xbef8fc05	-0.48629776
164	0xbd9a0434	-0.07520333
165	0xbf0f115b	-0.5588586
166	0x3e82a625	0.25517383
167	0xbf0b71f2	-0.5447074
168	0x3e8a0e7b	0.26964173
169	0x3e8929c9	0.26789692
170	0x3eb53ffe	0.35400385
171	0xbc33099a	-0.010927582
172	0xbe51e6d1	-0.20498206
173	0x3d31d14f	0.043412503
174	0xbe8ba9f3	-0.27278098
175	0x3ec8615f	0.39136788
176	0xbdcd9e45	-0.10039953
177	0x3e85622a	0.26051456
178	0x3e1ab818	0.15109289
179	0x3db5a55f	0.08869433
180	0xbe002a8c	-0.1251623
181	0x3ebca441	0.36844066
182	0x3e4d3873	0.20041065
183	0xbdb5b9d1	-0.08873332
184	0x3ecfdbc4	0.40597355
185	0xbe4bd4c3	-0.19905381
186	0x3e5576da	0.2084612
187	0xbeede463	-0.46463308
188	0x3d8d2773	0.0689229
189	0x3e9251d7	0.28578064
190	0xbdfce644	-0.12348607
191	0x3e073f33	0.13207702
192	0xbcf19e8a	-0.029494543
193	0x3e42534f	0.18977092
194	0x3e194c3a	0.14970484
195	0xbef887b5	-0.48541036
196	0x3e0562a0	0.13025904
197	0x3d14b6aa	0.036307015
198	0xbe0793f1	-0.13240029
199	0xbeb396f9	-0.3507612
200	0xbe407ba7	-0.1879717
201	0xbdd549d9	-0.10414476
202	0xbde3cbcb	-0.11122855
203	0x3e4924ee	0.19642994
204	0x3f074f30	0.52855206
205	0xbf03cb81	-0.514824
206	0xbd87d559	-0.0663249
207	0xbe07d3bc	-0.13264364
208	0x3d8beeb6	0.0683264
209	0xbeff229e	-0.49831098
210	0xbe1a7d58	-0.15086877
211	0xbe9cedc2	-0.30650145
212	0x3e9b1d73	0.30295905
213	0xbe056121	-0.13025333
214	0x3e47d86e	0.19516155
215	0xbed06309	-0.40700558
216	0x3e3d8201	0.18506624
217	0x3d1a3752	0.037650414
218	0x3cbf290d	0.023335004
219	0x3d2098d1	0.039208237
220	0x3e033c7b	0.1281604
221	0xbd10afc6	-0.03532388
222	0xbd146c89	-0.03623632
223	0x3f30318c	0.688256
224	0x3e7498b9	0.23886384
225	0xbebd0b93	-0.36922893
226	0x3e694dc0	0.22783566
227	0x3dbaf043	0.091278575
228	0xbe7ee8c4	-0.2489348
229	0xbbcb03a3	-0.006195502
230	0x3e884f59	0.26623037
231	0x3b75a3a4	0.003748157
232	0xbe5bee29	-0.2147757
233	0x3e958d0a	0.29209167
234	0xbee37890	-0.4442792
235	0xbe94f26f	-0.29091212
236	0x3e448153	0.19189958
237	0x3debcff2	0.11514272
238	0xbe49f05c	-0.19720596
239	0xbec2ca96	-0.38045186
240	0x3db8a39f	0.09015583
241	0x3dd89c19	0.10576648
242	0xbe1dbb01	-0.15403368
243	0x3e318d66	0.17339095
244	0xbe148769	-0.1450478
245	0xbe8ca7cc	-0.2747177
246	0x3d6bd73d	0.057578314
247	0x3da54991	0.08070672
248	0xbe98148e	-0.29703182
249	0xbdb828ea	-0.08992179
250	0x3b31deb7	0.0027140805
251	0xbf02e936	-0.511371
252	0xbe0bcf69	-0.1365334
253	0xbe61ca5c	-0.2204985
254	0x3e7766c2	0.24160293
255	0x3d5457bf	0.051841494

fc3.bias f4 [64]
0	0xbe7bf9c0	-0.24606991
1	0x3e0aedfa	0.13567343
2	0xbe40a429	-0.18812622
3	0xbe057f7d	-0.13036914
4	0x3de2d017	0.11074846
5	0xbdd0bdfd	-0.101924874
6	0xbc79726c	-0.015225034
7	0xbca2f317	-0.019891305
8	0xbe28408f	-0.16430877
9	0x3dd541b5	0.10412923
10	0x3dc80cb2	0.097680464
11	0x3c1d19c8	0.009588666
12	0xbedd92d8	-0.43276095
13	0xbd55c70c	-0.05219178
14	0xbc86c437	-0.016450984
15	0x3dbe2ecf	0.09286272
16	0x3e0bf802	0.13668826
17	0x3d40db29	0.047084007
18	0x3dcdd0cd	0.10049591
19	0xbb947353	-0.0045303493
20	0x3e12c064	0.14331204
21	0x3cf78aeb	0.030217608
22	0x3e98bd3b	0.2983187
23	0xbe05ce75	-0.13067038
24	0xbc935b7a	-0.017987955
25	0x3e88c76e	0.26714653
26	0x3b479337	0.0030452737
27	0xbe715bd9	-0.23570193
28	0xbb86268d	-0.004093951
29	0x3e28a35a	0.16468564
30	0x3e462c40	0.19352818
31	0x3e4baa57	0.19889198
32	0x3e5f9f5f	0.21838139
33	0x3d9350c6	0.07193141
34	0x3aaa468f	0.0012990999
35	0x3cd03ffc	0.025421135
36	0x3e84d23a	0.2594164
37	0xbebf6277	-0.3737981
38	0xbd1ac512	-0.037785597
39	0x3d093e4e	0.033506684
40	0xbe4a71c6	-0.19769964
41	0x3e2713fa	0.16316214
42	0xbc999810	-0.018749267
43	0xbeaeb70e	-0.34124035
44	0xbd999ee1	-0.07501007
45	0x3dab78e2	0.08372666
46	0xbe43e368	-0.19129717
47	0xbd44480d	-0.047920275
48	0x3dee22a5	0.11627702
49	0x3dd54e9d	0.10415385
50	0x3e0b34a8	0.13594306
51	0xbe0b01e4	-0.1357494
52	0xbca2cfb7	-0.019874437
53	0x3e082369	0.13294758
54	0xbe0f7d49	-0.14012636
55	0x3d49bd17	0.049252596
56	0xbecc8357	-0.39943954
57	0x3d8a6c13	0.06758895
58	0xbe751bd8	-0.23936403
59	0xbd6cb390	-0.05778843
60	0x3d8c55df	0.06852316
61	0xbe0f872f	-0.14016412
62	0x3d20344c	0.039112374
63	0x3da11b67	0.07866555

fc4.weight f4 [4, 64]
0	0x3f41be03	0.7568056
1	0xbf45995f	-0.7718715
2	0x3dd044fa	0.10169406
3	0xbe005a0f	-0.12534355
4	0x3dd4d9cd	0.10393105
5	0xbd27a5ae	-0.04092949
6	0x3e362982	0.17789271
7	0x3da1ba57	0.0789687
8	0xbd57289b	-0.05252896
9	0x3eb8b120	0.36072636
10	0xbe8fe64d	-0.28105393
11	0xbe65f03b	-0.22454922
12	0x3ecf59a9	0.40498093
13	0xbed96f4c	-0.42467725
14	0xbf81ef30	-1.0151119
15	0xbe9db1c8	-0.307997
16	0x3dbf7e8c	0.09350309
17	0xbf0e8b6a	-0.5568148
18	0xbfbc0dec	-1.4691749
19	0xbebb8bdd	-0.36630145
20	0x3eca39a0	0.3949709
21	0x3e335817	0.17514072
22	0xbcfbfd79	-0.030760514
23	0xbd8e5cbe	-0.06951283
24	0x3ed24480	0.41067886
25	0x3ed2b3ad	0.41152707
26	0x3e0083e3	0.12550311
27	0x3f35ecee	0.7106465
28	0xbf0de6fb	-0.55430573
29	0x3ee73797	0.451596
30	0x3e743d8a	0.238516
31	0xbc894f76	-0.016761523
32	0xbe8ade39	-0.27122667
33	0x3f0011d2	0.5002719
34	0xbd39cfe0	-0.04536426
35	0x3e02bff4	0.12768537
36	0xbe59919d	-0.21246953
37	0x3e039f6c	0.12853783
38	0xbd7c9a49	-0.061670575
39	0x3e89abc1	0.2688885
40	0xbfa16cb6	-1.2611301
41	0xbcbec6c0	-0.02328813
42	0xbc9b38e0	-0.018948019
43	0xbec21736	-0.37908334
44	0xbe1c72d9	-0.15278186
45	0x3d8e5af2	0.0695094
46	0xbd94faf8	-0.07274431
47	0xbec97584	-0.3934747
48	0xbf0d9db1	-0.55318743
49	0x3d64febe	0.055907004
50	0xbf2d32ff	-0.6765594
51	0xbce81a97	-0.028332992
52	0x3ea1c6c9	0.31596974
53	0xbe7d01ab	-0.24707668
54	0xbc6c97d0	-0.014440492
55	0x3e55b27d	0.20868869
56	0x3eb248ce	0.3482117
57	0xbf1a874f	-0.60362715
58	0xbe79eefb	-0.2440757
59	0x3dfd6e7a	0.12374587
60	0xbe47d924	-0.19516426
61	0xbdff3654	-0.12461534
62	0x3e8ea2e7	0.2785866
63	0xbdc185bd	-0.09449337
64	0x3d8a69d6	0.06758468
65	0xbec2d2cf	-0.3805146
66	0xbeab3d8f	-0.33445403
67	0xbf294eb9	-0.66135746
68	0xbf16e5eb	-0.58944577
69	0x3d740ca8	0.059582382
70	0x3e93b089	0.28845623
71	0x3e5928de	0.21206996
72	0xbc1a51f2	-0.009418951
73	0xbf4f5f4d	-0.8100479
74	0x3e739bf4	0.2378996
75	0xbf0616ec	-0.52378726
76	0x3e75df3d	0.2401094
77	0x3f1e2d4c	0.6178787
78	0xbe413855	-0.18869145
79	0xbf12ddb7	-0.5736956
80	0xbfbe60d0	-1.4873295
81	0x3e62dada	0.22153798
82	0xbe463409	-0.19355787
83	0x3f1241c3	0.57131594
84	0x3e6ae3fc	0.22938532
85	0x3f07a28b	0.52982396
86	0xbeebe06c	-0.46069658
87	0xbdc01eb3	-0.093808554
88	0x3f68627e	0.9077529
89	0x3e40201f	0.18762253
90	0xbe331272	-0.17487505
91	0x3f19ee72	0.60129464
92	0x3d5b4009	0.053527866
93	0x3dd17fb2	0.10229434
94	0x3f5fdfcd	0.8745087
95	0x3efdaec0	0.49547386
96	0x3e5e1ec6	0.21691427
97	0xbeee1da2	-0.46506983
98	0xbe04dfbe	-0.12975976
99	0xbd3beed8	-0.045882076
100	0x3ea4c65e	0.32182592
101	0xbe9374d0	-0.28800058
102	0xbfc641c0	-1.5488815
103	0x3e4cfec3	0.20019059
104	0x3ef63ccc	0.4809326
105	0xbeb29730	-0.34880972
106	0x3eb5fc42	0.3554402
107	0x3d96a6ae	0.073560104
108	0xbe86a694	-0.26298964
109	0x3d653895	0.055962164
110	0x3ec301d8	0.38087344
111	0xbc5419de	-0.01294562
112	0x3f0657e2	0.5247785
113	0x3e243570	0.1603601
114	0xbe38879e	-0.18020484
115	0x3eadeccd	0.33969727
116	0xbf18c4a7	-0.5967507
117	0xbe40ff8f	-0.18847488
118	0x3e71b883	0.23605542
119	0xbe952dd6	-0.29136533
120	0xbef5328a	-0.4789012
121	0xbe2aca6b	-0.16678779
122	0x3dbb1217	0.0913431
123	0xbf163c6e	-0.5868596
124	0x3f8e2b06	1.110688
125	0xbf226d76	-0.63448274
126	0xbc644feb	-0.01393507
127	0xbf152ef6	-0.5827478
128	0x3d93df8c	0.072203726
129	0xbd80d00a	-0.0628968
130	0x3db7fea1	0.089841135
131	0x3cad06a6	0.021121334
132	0x3c88ad34	0.016684152
133	0xbe073e2a	-0.13207307
134	0x3bddb401	0.006765843
135	0xbe0aa853	-0.13540773
136	0xbfa4bf12	-1.287081
137	0xbc7bf4f4	-0.015378226
138	0x3dc73d30	0.097284675
139	0x3fa94fd2	1.3227484
140	0xbeb7a2a5	-0.35866275
141	0x3aa3d338	0.0012498861
142	0xbd24deea	-0.04025165
143	0xbc711587	-0.014714605
144	0xbd2ea14f	-0.042634305
145	0x3cdedd4c	0.027205132
146	0x3c96aa6c	0.01839181
147	0x3d497222	0.04918111
148	0x3dc87d04	0.0978947
149	0xbd2cb82d	-0.04216783
150	0x3e1f2725	0.15542276
151	0xbd412c61	-0.047161464
152	0x3d34d524	0.04414858
153	0x3cc82bf0	0.024435014
154	0xbba23c7c	-0.004951058
155	0x3d942e39	0.07235379
156	0xbe41f176	-0.18939766
157	0xbd4189df	-0.047250625
158	0x3b8c55af	0.004282675
159	0xbd66bb02	-0.05633069
160	0x3e2c734c	0.16840857
161	0x3dc70645	0.09717993
162	0xbe4f913b	-0.20270245
163	0xbe83e831	-0.25763085
164	0x3e2d9353	0.16950731
165	0xbff99bd6	-1.9500682
166	0xbc117390	-0.00887765
167	0x3cd7bfb1	0.026336523
168	0xbcf61453	-0.030038988
169	0xbc173ea6	-0.009231245
170	0x3c8e8a9c	0.017400078
171	0xbe99ce77	-0.30040333
172	0x3c5328d6	0.012888154
173	0x3ef06f7a	0.4696005
174	0xbe5f4b88	-0.21806157
175	0x3d632039	0.05545065
176	0xbb9cd1a2	-0.0047857324
177	0x3e60930d	0.21931095
178	0x3c796a12	0.015223043
179	0x3db08f04	0.08621028
180	0x3e33e3d6	0.17567381
181	0x3dae19a5	0.08500985
182	0x3e37ef06	0.17962274
183	0xbcc27f6e	-0.023742404
184	0xbd4cfeba	-0.050047614
185	0xbe0b3567	-0.1359459
186	0xbe32b861	-0.17453147
187	0x3d0ae245	0.033907194
188	0x3c3f8a45	0.011690681
189	0x3e68a418	0.22718847
190	0x3dbecca7	0.09316378
191	0xbd8202f1	-0.06348217
192	0x3eec0f97	0.46105644
193	0xbb68fdd3	-0.0035551682
194	0xbe52b75a	-0.20577756
195	0xbf247783	-0.6424486
196	0x3ebef016	0.37292546
197	0xbe58fcb4	-0.21190149
198	0xbdf5c5a7	-0.1200059
199	0xbd70b4b0	-0.058766067
200	0x3dedb592	0.116068974
201	0x3ea5bc89	0.32370403
202	0x3e14a997	0.14517818
203	0xbe73b282	-0.23798564
204	0x3ec1f835	0.3788468
205	0x3c998a54	0.018742718
206	0xbf0cc887	-0.5499348
207	0xbe2c5533	-0.16829376
208	0x3cb69daf	0.022291986
209	0x3c33daac	0.010977428
210	0x3e7c5db9	0.24645127
211	0x3f64f15f	0.89430803
212	0x3d4013c1	0.04689384
213	0xbdeed52c	-0.11661753
214	0x3ee65931	0.44989923
215	0xbeb6bc51	-0.3569055
216	0xbda56cab	-0.080773674
217	0xbf049db0	-0.5180311
218	0x3f60d22a	0.87820685
219	0x3e1367ca	0.14395061
220	0xbe5c7db7	-0.21532331
221	0xbdb05868	-0.08610612
222	0x3c954dd2	0.018225584
223	0x3e99d53b	0.30045494
224	0x3f0e61a1	0.5561772
225	0x3ec8a673	0.3918949
226	0xbcb387fa	-0.021915425
227	0x3d8e99ab	0.069629036
228	0x3ea873ad	0.32900754
229	0x3ea16702	0.315239
230	0xbed50c1d	-0.41610804
231	0xbe502d2e	-0.20329735
232	0xbe740dd8	-0.23833406
233	0x3f00b31c	0.502733
234	0xbe2fbba1	-0.17161418
235	0xbdfa9600	-0.122356415
236	0xbe8d7d92	-0.27634865
237	0xbf4770ae	-0.7790631
238	0x3eedac85	0.46420684
239	0x3ec7927e	0.38978952
240	0x3d5c68df	0.05381095
241	0x3ee0e21d	0.4392251
242	0x3e08a40a	0.13343826
243	0x3ee8fb30	0.4550414
244	0x3e6e3970	0.23264098
245	0x3f53ceac	0.8273723
246	0xbe909ac9	-0.28243092
247	0x3ebb36aa	0.36565143
248	0xbf958d53	-1.1683754
249	0xbe4f2dc1	-0.20232297
250	0x3f08d1b4	0.5344498
251	0xbe53eba0	-0.20695353
252	0xbe7cdc82	-0.24693492
253	0xbf324201	-0.69631964
254	0x3cad0473	0.021120286
255	0xbe93218f	-0.2873654

fc4.bias f4 [4]
0	0x3def3372	0.11679734
1	0x3e5b337d	0.2140636
2	0x3ddde0cf	0.108338945
3	0x3d304183	0.043031227
